trained_models/bloodmnist/model.pth (torch, 120987 bytes, 20 tensors)

layer1.0.weight f4 [16, 3, 3, 3]
00000000: 0043 503d 229d dbbd a698 b93d a60b bebd
00000010: ddf6 0bbe 7be3 083e e235 6a3c 8e02 d93d
00000020: 3004 89bd bd32 f73c 83c1 f13d 9361 933d
00000030: c0f5 2dbb 5649 9c3d 5c59 da3d 9bbf 9bbd
00000040: 0afe 3ebe 0dcb fb3c f705 e5bd 7804 233e
00000050: 54f5 1f3e 0d63 a1bc 72b5 193e 8c16 163e
00000060: 9b7d fbbd ad89 5a3e 3bda 89bd 4bbf 60be
00000070: b9f1 bf3d 0e59 5cbe 5654 2d3d 146b 393d
00000080: cf58 533c 6778 1cbc 64ba 34be d8d0 b3bb
00000090: 16b7 b13d 1d3b 353e 54fc b53c 26b0 8ebb
000000a0: 6acb cebc 8cf7 593e 1fbd 1d3e 11e5 463e
000000b0: 9d5e 87bd dde8 243e f3b6 453e cba8 7a3c
000000c0: 57e8 0ebe 0707 533e 2459 e93d 1022 b83b
000000d0: 3b2f 3fbe 9875 63bd e1ee 93bd 89c3 1f3e
000000e0: cff3 523e 2cac 323d f2c4 a2bd 9e7d b33d
000000f0: 27b8 e03d bd43 17bd 9dd7 823c 662f 32be
00000100: 3c95 f6bd 43f4 f9bc f84f 2ebe 8b84 8abd
00000110: bbb5 4cbe df14 233e 026d e23d 6943 72bc
00000120: ce52 5dbe 9dbd 343e 430b 3dbe e6d7 4f3d
00000130: 9b89 523d 6113 0ebe 17bc 1bbe 1c7b 0dbc
00000140: 73ff 84bd 19a9 0fbe 2546 39be 6735 3cbc
00000150: 19e2 3abe e444 0fbe 91e7 b73d 16bb 2a3a
00000160: 0aef b1bc 2167 17bb 3f2c b2bd cb14 15be
00000170: 6831 9b3d 068d 84bd 41eb b13d 7c90 c7bd
00000180: fb81 cdbd bab4 853d e87b 683d f7b2 423c
00000190: c86d 38be 3f3d cabc 1bea e9bd 517b 753d
000001a0: acf0 c0bd f8c8 853c 6b3b 0dbe 2b8a e939
000001b0: c723 c4bd ad0e 20be 1f78 533e a441 433e
000001c0: 4b39 003d 12fb 87bd ebe1 51bd 7221 363e
000001d0: d482 db3d 3c4d 133e 847b c73d 5d0f 213e
000001e0: 3b97 90bd d2e1 673d bc92 55be a880 fabd
000001f0: 6c62 0fbe d445 5bbd d470 f2bd 750d dabd
00000200: f0dc 24be 2231 44be 7d5d 19be 4742 c63c
00000210: fcba 45be 9bc3 55be edc8 4c3d 150e 8d3c
00000220: 2050 8e3d 2181 173e 70c1 373d 01e1 133e
00000230: 48dc 3cbe 08e4 a1bd 30cb 4cbe 976b b13d
00000240: b3c5 1fbe af54 593d a73f 9e3d f13f e2bd
00000250: 6d09 3a3e 4ea0 d7bc 6193 023e b02a 173c
00000260: 9e24 123d 3c0c afbd 2a77 3ebd ebe1 77be
00000270: db1a 0d3e e5c1 363e ad94 55bd be9a 3e3e
00000280: 2606 203e e494 2f3e 5fd6 1f3e 7612 a63d
00000290: 0623 27be 9f7f 4fbb 9e33 3abe 1d88 41be
000002a0: d094 b73d 27b9 95bd 461d 673d c70f 23bc
000002b0: 6c7c 9d3c d5bd 5cbc d0ac 3b3e a0d7 b7bd
000002c0: 811d 053e 3e18 413e bb84 e9bd 6f71 04be
000002d0: 4018 543c f759 4a3d 504e eebd 1558 2b3c
000002e0: 7f30 1e3e 8cbb b8bd f28f 073e 081b d1bb
000002f0: 005b e93d c28a f0bd b7be 053e 9c5c 24be
00000300: 4e32 fbbc 44f2 f73c 2639 f4bc 27a1 f33d
00000310: 31a5 173e b235 ff3d 2fc5 40be fd41 20be
00000320: e08f c0bc 90d2 07bd 93a9 e2bd 3a73 89bd
00000330: 447f 4bbd c32e 27be 7be9 66bd ae6c 4f3e
00000340: d592 f7bd 9810 f4bd 14be 073e e3e9 503e
00000350: 18c7 463d a42b 333e dd4f 313e 902c d8bc
00000360: 3f5f 0d3e 030e f2bd 76c5 b0bb a5b2 9b3d
00000370: e24e 8ebd e023 65be 2cae 2b3e 9345 1abe
00000380: 36e8 473d df02 c4bd 7746 54bc 2a3e 5a3e
00000390: c990 d23d 38c4 333e a1df 4f3e 935a 203e
000003a0: c757 70bd cfe5 b73d 7dc5 233b 2047 f3bd
000003b0: 6763 4dbd a645 44be dd58 a6bd af9d 193e
000003c0: a9e7 37be 48b4 173e 59f6 303d a98c 253e
000003d0: c446 033e c407 05be d2d6 9cbb 32bf 3c3e
000003e0: 4a44 123c b1b7 133e 6153 533e 201e 753b
000003f0: 64ac 853d 5eb8 00be 3dc0 02be b955 463d
0.050845146 -0.1072333 0.090623185 -0.092795655 -0.1366839 0.13368027 0.014295073 0.105961904
-0.06690252 0.030175561 0.118044876 0.07196345 -0.0026544183 0.07631175 0.10661575 -0.07604905
-0.18651596 0.03073647 -0.11182778 0.15919673 0.15620929 -0.019700551 0.15010622 0.14657038
-0.12279817 0.21341582 -0.06731077 -0.21947972 0.09372277 -0.21518347 0.042316757 0.045268133
0.012899592 -0.0095501905 -0.17649227 -0.0054875426 0.08677499 0.17698331 0.022215046 -0.0043544946
-0.02524348 0.21285838 0.15404175 0.1942332 -0.06609843 0.16104455 0.19308071 0.015299032
-0.13955818 0.2060815 0.11393955 0.005619295 -0.1867036 -0.055532068 -0.07223297 0.15601934
0.20600818 0.043621227 -0.079477206 0.08764194 0.10972624 -0.036929835 0.015971953 -0.17400894
-0.12040183 -0.03051198 -0.17022693 -0.06763562 -0.199912 0.1592593 0.11055948 -0.01478658
-0.21613619 0.17650457 -0.18461327 0.050743006 0.051400762 -0.1387458 -0.1520847 -0.008635309
-0.064940356 -0.1402935 -0.18093164 -0.0114873415 -0.18250312 -0.13991123 0.08979715 0.00065128633
-0.021720428 -0.002310224 -0.086998455 -0.14558713 0.07577783 -0.064722106 0.08687449 -0.09744355
-0.100345574 0.065286115 0.05675879 0.011883489 -0.18010628 -0.024687408 -0.11421605 0.059932057
-0.094209045 0.01633118 -0.13792197 0.00044544166 -0.095771365 -0.15630598 0.20651291 0.19068009
0.03130464 -0.06639685 -0.051240843 0.17786196 0.10718313 0.14384931 0.097403556 0.15728517
-0.07060095 0.056611843 -0.20856756 -0.122315705 -0.14002389 -0.05353339 -0.118379265 -0.10647098
-0.16099906 -0.19159368 -0.14977069 0.024201525 -0.1930961 -0.20875399 0.049996305 0.017218629
0.069488764 0.14795353 0.04486221 0.14441301 -0.18443406 -0.07904822 -0.19999385 0.08663099
-0.1560276 0.053059276 0.077269845 -0.11047352 0.18167658 -0.026321556 0.12751533 0.009226486
0.035679452 -0.085472554 -0.046500362 -0.24207275 0.13779776 0.17847402 -0.05214374 0.18613717
0.15627345 0.17146641 0.1560912 0.0810899 -0.16321954 -0.0031661761 -0.18183753 -0.1889958
0.089639306 -0.07310706 0.0564244 -0.009952492 0.019224368 -0.013472994 0.18327641 -0.08976674
0.12999536 0.18856904 -0.114022695 -0.12933896 0.012945235 0.049402203 -0.11636031 0.010458012
0.15448187 -0.09020147 0.13238505 -0.006381396 0.1139431 -0.11745216 0.13061033 -0.16050953
-0.030663636 0.030266888 -0.029812407 0.11895972 0.1480911 0.124614134 -0.1882522 -0.15650173
-0.023506105 -0.033159792 -0.110675 -0.06711431 -0.049681917 -0.16326432 -0.056375008 0.20256302
-0.12088553 -0.119172275 0.13256103 0.2040172 0.048529714 0.17497116 0.17315622 -0.026388437
0.13805865 -0.11819079 -0.005394633 0.07602433 -0.069486395 -0.22376966 0.1676566 -0.15065603
0.048805438 -0.0957086 -0.012956253 0.21312776 0.10281522 0.1755532 0.20300151 0.15659551
-0.05867746 0.089793794 0.0024989538 -0.118788004 -0.050143626 -0.19167194 -0.08122418 0.15001558
-0.17959465 0.14814866 0.043203685 0.16166939 0.12819964 -0.12991244 -0.0047863508 0.1843231
0.008927414 0.14425541 0.20637275 0.003740199 0.065270215 -0.1257033 -0.12768646 0.048421595

layer1.0.bias f4 [16]
00000000: b7c7 0a3e b894 f53b 8a78 79bc 0d78 babd
00000010: 2ed7 a1bd 8698 de3d e50b 42be 08b6 abbd
00000020: f687 993c 489a a2bd 9ab2 40be 3de9 193c
00000030: da6f ec3d e004 f8bd c07a 803d 2189 68bd
0.13552748 0.0074945353 -0.015226493 -0.09104929 -0.079023704 0.10868935 -0.1894985 -0.08384329
0.018741589 -0.07939583 -0.18818131 0.009393987 0.115447715 -0.12110305 0.06273413 -0.0567714

layer1.1.weight f4 [16]
00000000: 22d3 833f a3d5 833f 84a0 803f 1c48 7b3f
00000010: 6ca1 833f 4f0c 7f3f e43a 7a3f 55e1 743f
00000020: 0f5f 793f ef89 7e3f 113b 703f 1c60 793f
00000030: 9539 823f 1ee0 833f 2e66 7e3f 488d 803f
1.0298808 1.0299572 1.0048985 0.98156905 1.0283637 0.99628156 0.9774611 0.9565633
0.9741067 0.9942922 0.9384013 0.97412276 1.0173823 1.030277 0.99374664 1.0043116

layer1.1.bias f4 [16]
00000000: a6eb 4f3c 4378 14bd f524 b6bd 1ffd 03be
00000010: 6150 86bd 9840 5dbd 3006 e53b 470e 16be
00000020: 36fa d1bc 49f3 42bd 7c29 fbbc 68bb 1bbe
00000030: d807 793d 0cbb 343d fd83 903c 6b7f 9fbd
0.01269046 -0.036247503 -0.08893768 -0.12889527 -0.065583 -0.05401668 0.006989263 -0.14653884
-0.025632005 -0.047595296 -0.03065943 -0.15208209 0.060798496 0.044123694 0.017641062 -0.07787975

layer1.1.running_mean f4 [16]
00000000: 5f72 be3e 77dd fc3d f69f d1bd 9537 27bf
00000010: 6d6f a7be e728 b23e c2ad 39be 0462 e63c
00000020: f2bd 503d 9898 bf3e 2677 76be 6664 003d
00000030: 6cff b73e c6ec c0be 62be a1be 5ead f7bd
0.37196633 0.123469286 -0.10235588 -0.65319186 -0.327022 0.3479683 -0.1813269 0.02812291
0.050962396 0.37421107 -0.24068889 0.031345747 0.3593706 -0.37680644 -0.31590563 -0.12093614

layer1.1.running_var f4 [16]
00000000: 19b3 503d 53b1 7c3d 6ecb d63c dd62 383e
00000010: 7080 f63c 234d 263d 6d72 fd3c 41e4 733d
00000020: 5da7 6c3d 8828 333e 75e4 613b eafe 843c
00000030: 1a1b 7b3c 58b3 503c f207 4b3c 72f5 fc3c
0.05095205 0.061692547 0.02622005 0.18006463 0.03009054 0.040600907 0.030938352 0.05954385
0.057776798 0.1749593 0.0034468446 0.016234834 0.015326286 0.012738071 0.012392031 0.030878756

layer2.0.weight f4 [32, 16, 3, 3]
00000000: 46d9 c7bc 3498 c5bd ecd6 eebb d871 363d
00000010: 8ebb 36bd 7782 5abd eee7 8f3d cd6c 8fbd
00000020: 3595 65bd d889 e8bb 625f 233d 4a19 28bd
00000030: dd62 4d3d 36a8 803d fa0e 6bbd 23ed 153d
00000040: 17de 053c 7659 94bd d715 5e3d 73bb 4fbd
00000050: 9bbd fe3c 5c9f b3bc 2542 493b 9edd e7bc
00000060: 5d27 fb3c 57ac 523d 5ec4 09bc bc10 1ebd
00000070: 75f7 b13d 135e 89bd 0f6f 3e3d 8eba 413d
00000080: 5b93 23bd b830 80bc 2614 6ebd 4180 f43c
00000090: 6202 2b3c 8a8b 9b3c 189c e0bb 8e4e 76bd
000000a0: bcdb 4bbd a1ce 7fbd 0e90 9abd d775 8abc
000000b0: 9ab6 c63d d44a a1bd 60c2 2fbd 8d1e 16be
000000c0: 28b4 06bc 9355 4e3d e531 c33c 775d a7bd
000000d0: a4d5 15bc 5a1e 7cbc 840c c2bd ac34 4bbc
000000e0: 571d 48bd 004e 99bb abcf 083d 4938 903d
000000f0: 6afa 8abd 9979 c0bd 05f5 733c 8959 983d
00000100: 3dc5 1a3d 6749 7f3b 3e4f 073d 912c c13d
00000110: 4176 71bc cc39 84bd 3a85 323d 211b 2abc
00000120: ef99 a83c 2bb7 5fbd f275 afbd 6009 6cbd
00000130: ede8 24bc 6197 0e3d 2958 563d d4a9 31bd
00000140: 389e a1bd 57bf b7bb 16c5 8dbc 36cf 38bd
00000150: 977b 9bbd 4951 9cbd 494a 83bc 8689 bebc
00000160: f505 473d 0427 74bd 36aa fbbd 4e47 c13c
00000170: bd21 6ebd 3c5e e3bc a064 143d 5ed1 a23c
00000180: dd7c c4bd 06cb 39bb 80dc 40bd 513b 7abd
00000190: 5839 16bd 7386 00bb 7455 933d 2379 8dbd
000001a0: d5e7 19bc 6ec4 283d 6e1f 973c 79fe 3dbd
000001b0: 5a87 cbbd fc9f d93c 5743 e5bb c0f9 85bd
000001c0: 05b9 313d ee12 e93c 1b34 563b 83d6 c93c
000001d0: 13a9 c9bc 21d4 6abd 9757 67bc a2f4 9a3d
000001e0: c4c6 93bd 5b4a 01bc 3b89 acbd a85b 05be
000001f0: e113 0fbd fb14 6d3d 3f14 f23c 750d 85bd
00000200: ee72 8a3d 7385 943a 49e9 43bd c36e 7ebd
00000210: 2672 2eba d5b1 98bc 5329 3a3d df87 bcbc
00000220: 6141 3bbd 34ae 2abc 76c7 8a3d 6de6 073d
00000230: af96 b7bc 656f 84bd 63a5 8dbd f9ef 0cbd
00000240: cd32 c7bd b36f e8bd 875e 66bd 85ab 68bd
00000250: 5b28 383d 2f25 8ebd 0759 c83c d49e c4bd
00000260: f3ad 043d 8cde 4e3d dae7 06bd b2e0 69bc
00000270: c80d 1b3c a1df 7abd 6f35 d0bc 77b7 573d
00000280: a26b adbd 7296 12bd f058 ba3b 9944 883c
00000290: 4cfb 40bd 597a 963d d13e 4fbd ee95 723d
000002a0: 34b9 753d 1f2e 9f3d 7d4c 783d 1b9b 9a3d
000002b0: 841e 423d 3ca7 8b3c 3a5e 85bb 9c62 903d
000002c0: af90 933d c894 bd3c 54c9 80bd f89d 85bd
000002d0: 4d7e 1eba 88b1 bf3c a2e5 283d 46af c5bc
000002e0: 2160 19bd f730 593d b5d8 ad3d 730a 423d
000002f0: 8b2d e43d d8f2 d23c 54e8 bd3d 609a f93c
00000300: 072e 34bd a819 c6bc 3226 633d 2059 d6bd
00000310: 7f1f 85bd 76d4 9c3a 5f71 85bd c0ce 6b3d
00000320: cb3a b8bc eaf5 813c af43 ce3c 31fc c3bd
00000330: 4f45 9fbd eac3 f8bd 7b03 273d f077 bbbc
00000340: 1706 f13b 1a1e b2bc 1d41 eaba e0c0 4dbd
00000350: 7187 d2bd 5f08 e93c 953f 153c 525c 0dbd
00000360: 12fe a63d e8e7 d8bb 0215 8a3c 6b81 093c
00000370: 8fbf dcbb 42ec e2ba c153 90bd dffd 043d
00000380: 402e 593d e25d 59bb aa7e 8c3d 4b59 533d
00000390: cb9f df3b e009 a83c c66a c13c a9db d9bc
000003a0: 4eaf 2cbd 3495 bebc 6ee1 6abc f10c cc3c
000003b0: 11f6 fe3b ba58 233d 3972 653d 393c d3bc
000003c0: 87e1 21bd c47a 403d 3ec5 7abc 8f3f 2fbd
000003d0: 54e4 72bc a31b 79bd b45b b2bd bd32 4e3c
000003e0: 61bc 6bbc 1837 4abd 4309 5ebd 08d1 8cbd
000003f0: c047 2abd 325e bbbd 768a 5bbc a72b 7c3c
-0.024395596 -0.09648171 -0.0072888043 0.044542164 -0.04461246 -0.053347077 0.07026659 -0.07003174
-0.056050498 -0.0070965104 0.039885886 -0.041039743 0.05014311 0.06282084 -0.05738733 0.036603104
0.008170626 -0.07243626 0.054220047 -0.050715875 0.03109627 -0.021926574 0.0030709591 -0.028303917
0.030658418 0.051433887 -0.008408634 -0.038590178 0.08689777 -0.06707396 0.046492632 0.047297053
-0.03993545 -0.01564823 -0.058124684 0.029846312 0.01043758 0.018987436 -0.0068545453 -0.06013351
-0.049770102 -0.062452916 -0.075470075 -0.016901894 0.09702797 -0.078756005 -0.04290998 -0.14660092
-0.008221664 0.05037458 0.023827503 -0.08172124 -0.009145174 -0.015388096 -0.094750434 -0.012402695
-0.048856106 -0.004678488 0.033401173 0.070419855 -0.06786044 -0.09398193 0.01488996 0.074389525
0.037785757 0.0038953663 0.033034556 0.094323285 -0.014737667 -0.064563364 0.043584086 -0.010382445
0.020581214 -0.054618042 -0.08567418 -0.05762613 -0.010065299 0.034812335 0.05233017 -0.04337485
-0.07891506 -0.0056075263 -0.017305892 -0.045119487 -0.07591932 -0.076326914 -0.016026633 -0.023258936
0.048589665 -0.05960752 -0.122883245 0.023593571 -0.058137644 -0.027754895 0.036228776 0.019875225
-0.09594128 -0.0028349771 -0.047085285 -0.061091725 -0.03667578 -0.0019611388 0.07194033 -0.069078706
-0.009393652 0.041202955 0.018447604 -0.046385262 -0.09937926 0.026565544 -0.006996553 -0.06541777
0.04338934 0.02845141 0.0032684866 0.02463842 -0.024616754 -0.05733121 -0.014120004 0.07566191
-0.07215646 -0.007891263 -0.08424612 -0.13023245 -0.034931067 0.057881337 0.02955067 -0.06496707
0.06760202 0.0011331275 -0.0478299 -0.06211735 -0.00066545827 -0.018639484 0.045449566 -0.023014007
-0.045716647 -0.01041751 0.067763254 0.033178736 -0.022410719 -0.06466559 -0.06916311 -0.034408543
-0.09726486 -0.1134943 -0.056242492 -0.0568042 0.04496036 -0.06940686 0.024456514 -0.096006066
0.032392453 0.050505206 -0.032935955 -0.014274763 0.009463735 -0.061248425 -0.025416104 0.0526652
-0.08467795 -0.035788007 0.0056868717 0.016634272 -0.047114655 0.07347555 -0.050597016 0.059225015
0.059991077 0.07772469 0.06061982 0.07549115 0.047392383 0.017047517 -0.0040700706 0.07050058
0.072053306 0.023142233 -0.062884 -0.06524271 -0.0006046042 0.023400083 0.04123462 -0.024131428
-0.03744519 0.053025212 0.08488599 0.047373246 0.11141499 0.025750563 0.09272829 0.03046912
-0.043989208 -0.024182156 0.055456348 -0.10466218 -0.06500148 0.0011965174 -0.065157644 0.05757022
-0.022488972 0.015864331 0.025178758 -0.09569586 -0.077768914 -0.12146743 0.040774804 -0.02288434
0.0073554623 -0.02174287 -0.0017872188 -0.050232768 -0.1027974 0.028446374 0.009109397 -0.03451187
0.08153929 -0.0066194423 0.01685572 0.008392672 -0.0067367028 -0.0017312842 -0.07047225 0.032468673
0.053022623 -0.003316753 0.06860097 0.05159883 0.0068244687 0.020512521 0.023610484 -0.026594
-0.04215937 -0.023264505 -0.014335973 0.024908515 0.0077807982 0.039879538 0.056017134 -0.025785552
-0.03952172 0.04699208 -0.015305815 -0.042785224 -0.0148249455 -0.060817372 -0.08708897 0.012585339
-0.014388175 -0.049368948 -0.05420805 -0.06875807 -0.041572332 -0.09148826 -0.013399711 0.015391267

layer2.0.bias f4 [32]
00000000: d3c3 22bd ed6d 6abd 6acb 3dbb 60b7 5b3d
00000010: dcca 293d e69d 683d 3c95 86bd 06e0 6a3b
00000020: baeb 993d 60fd 883c 20d1 ee3c 273f d2bc
00000030: 5ecb a0bc a42a f83c e152 e83c 51c1 ebbc
00000040: 9b33 743c 5438 6e3d f1dc 56bc b03e 623d
00000050: 7022 873d 6758 613d 332d 823c 8481 963d
00000060: cfee 663d f060 58bd c943 4b3d 6f10 f53c
00000070: 0d4b 36bd 61aa e7bc b11c 903c 6922 97bd
-0.039737534 -0.05723374 -0.0028960356 0.053641677 0.041453227 0.05679121 -0.06571433 0.0035839095
0.075156644 0.016722381 0.029152453 -0.025664879 -0.019628223 0.03029377 0.028359832 -0.028778704
0.014904882 0.058159187 -0.0131142 0.055235565 0.06598365 0.055015948 0.015890693 0.07348922
0.05638009 -0.05282682 0.04962519 0.029915063 -0.044505168 -0.028279485 0.017591806 -0.0737961

layer2.1.weight f4 [32]
00000000: 4ab8 7a3f 11b6 833f 9720 823f ee1f 833f
00000010: 96d9 743f 9c7c 713f 3fc3 863f 86fe 823f
00000020: e3ff 803f 2e32 763f fbb5 853f 3644 803f
00000030: 7961 773f 3847 7d3f 854f 793f 6506 783f
00000040: d8be 7e3f 49cd 793f 4b6b 853f f084 833f
00000050: e580 803f 67ee 7f3f 1143 823f 8215 813f
00000060: b4d5 7d3f 74d3 803f 6c16 783f b486 7c3f
00000070: ba50 853f 069e 873f 4d30 713f 51a5 763f
0.9793745 1.0289937 1.0166196 1.0244119 0.9564451 0.94330764 1.0528334 1.0233924
1.007809 0.9617032 1.0446161 1.0020816 0.96633106 0.98936796 0.9738696 0.9688476
0.99509954 0.97578865 1.0423368 1.0274944 1.0039335 0.9997315 1.0176717 1.0084689
0.9915421 1.006453 0.96909213 0.9864304 1.0415261 1.05951 0.94214326 0.96346

layer2.1.bias f4 [32]
00000000: 46c5 9bbd 271b 9dbd ddb5 fdbc 51b5 aebd
00000010: ccd1 01be 7af1 ddbc 416d 38bd 5c27 0bbd
00000020: 45a4 8dbc a4e8 aebd 0b2f 50bd b5f1 2fbd
00000030: f0a8 60bd 162c e9bd 8170 96bd 1274 14be
00000040: 2bb0 88bd c9fc ddbd 341b 113d d7c7 a4bd
00000050: 0be7 a3bd 462f 09be 3cfd cebb 34b0 8fbd
00000060: 780e 73bc 9645 00be 6591 94bd cb4a a7bd
00000070: 49ff 5cbd 98c6 93bd 0f1c 91bd d0a2 f0bd
-0.07605986 -0.076711945 -0.030970508 -0.08530677 -0.12677687 -0.027092684 -0.045026068 -0.033973083
-0.017290244 -0.085404664 -0.050826114 -0.04295512 -0.05484861 -0.11385362 -0.07345677 -0.14497402
-0.066742264 -0.108392306 0.035426334 -0.08045929 -0.08003052 -0.1339694 -0.006316809 -0.0701603
-0.014834993 -0.12526545 -0.07254294 -0.081685625 -0.053954396 -0.07215613 -0.0708543 -0.11749804

layer2.1.running_mean f4 [32]
00000000: 9e07 8ebf 116d 51be a9bb 60bf e529 18be
00000010: 5184 0b3f b3d8 413e 9e0f 0e3d b22c b3be
00000020: 6b35 ebbe cb13 063f 4d4e b6bf bc7c eb3e
00000030: 7cfa 12be 6f53 ba3e d3f7 ed3e 8c66 933d
00000040: 941b 833e 2af4 703c f5cc 18be 9ee4 3ebf
00000050: c97d 943f 1060 ac3f 7722 3bbe ae0a c3be
00000060: 39e3 053e 1958 08be 7bb2 363e f230 0d3f
00000070: 08c0 463f fafb 67bf e578 2e3f 5c56 163f
-1.1096075 -0.20451762 -0.87786347 -0.14859731 0.54498774 0.1893032 0.034682862 -0.34995037
-0.45939192 0.5237395 -1.4242646 0.45993602 -0.14353365 0.3639178 0.46478137 0.07197294
0.25606978 0.014706651 -0.14921935 -0.7456759 1.1600887 1.3466816 -0.18274866 -0.38094085
0.1307496 -0.13314857 0.17841522 0.5515281 0.77636766 -0.9061886 0.6815322 0.58725524

layer2.1.running_var f4 [32]
00000000: 6f32 543e c29f 1e3e 2534 893e 7587 223e
00000010: 8afd ab3e 7251 f93d c24a 173e b855 143e
00000020: cc54 2b3e 62ff 2f3e a8c6 343f 24c6 7e3e
00000030: 3105 e13d 8676 cf3d 9c23 e03d 1430 403e
00000040: 3f58 3a3e 09f3 d63d 9ede 433e 904e 463e
00000050: 2215 c13e 5354 fa3e a363 8d3e 3b97 7f3e
00000060: 6e18 493e c799 493e 9942 333e e675 7b3e
00000070: 57b4 253e 8c00 283e 7280 393e c806 8e3e
0.20722364 0.1549063 0.26797596 0.15871985 0.33591872 0.121737376 0.14774612 0.14485824
0.16731566 0.17187265 0.70615625 0.24880272 0.10987318 0.101300284 0.10944292 0.1876834
0.18197726 0.10495574 0.1912789 0.19365907 0.37711436 0.4889246 0.2761508 0.24960034
0.19638225 0.19687568 0.17505874 0.24556693 0.16182075 0.16406459 0.18115404 0.2773955

layer3.0.weight f4 [64, 32, 3, 3]
00000000: 8a43 c7bc 1d16 7cbd a462 a53b 4612 073c
00000010: 9fa1 f3bc 5247 d0bc 1c1f d63c 5a3f 7abd
00000020: 3035 553d 4501 94bd 8df7 3d3d 8da7 43bd
00000030: cd09 0e3d faa8 e1bc cabd 04bd 7061 a63d
00000040: 6eee 6dbc 5d8e b63c 08e1 93bb 4a50 b93a
00000050: a0de 81bd 4857 d9bc be7c 813d 4a2c 303d
00000060: bc78 4f3c cded 0e3d 532e ba3d ffa7 dc3d
00000070: 5fbe eebb f1b3 3e3d 6173 c03d e560 bf3d
00000080: c512 ec3c ba1c c8bc 84d6 803c cf9f 4ebd
00000090: 6868 e2bc 1664 183d 0173 ae3b 10cb 28bd
000000a0: 746a 253c ca2a fe3c 24b4 c1bd 054e bd3c
000000b0: ef6e 773d c7c9 3a3d 3c94 613d 34af 87bd
000000c0: 7ccc 703c 57e1 0b3d c533 3fbd 610c 8d3b
000000d0: d899 e43c 936c 773a 8839 24bd 86fb f9bc
000000e0: af8a 813d 76c5 6dbd 9510 e13d cc3b 993d
000000f0: 08e6 bcbc 5f75 d6bd 2f89 c0bc de3a 9d3c
00000100: 13ca 8ebd 25b4 2a3d 6de1 e7bc 8860 413d
00000110: d4a2 36bc f277 3d3d fe54 b53c f054 9bb7
00000120: 8395 a7bc 47b0 1e3d 9215 a6bd b6b1 0c3d
00000130: 1a02 72bd 4056 b3bc 8a8c e43c b767 883d
00000140: 88d4 053c a91d 6fbd b6e7 583d fcd1 cbbc
00000150: a458 873d 8d9e 843d ea7c 023d cbd0 c93d
00000160: e264 d9bc d05e 52bd db4b 46bd 34f6 193d
00000170: 9214 013b a5c4 4ebd 8b40 113d 259c ccbb
00000180: d3eb 153c 20c4 3ebc e1f4 7bba a659 083c
00000190: 04f2 40bd 20a6 09bd b2ac 993d 293c c2bc
000001a0: cef0 703c 198b 74bd 3d7a 343c 3d65 91bc
000001b0: 62aa b8bb b6ab 7a3d 7766 1bbc 6e85 db3c
000001c0: 86b0 9bbd b4ef 8a3b 692e e0bb 4984 c03c
000001d0: 1ceb af3c 43ac 903b cb6a 7cbd 18de 97bc
000001e0: 63ed 9b3d 6de5 29bd 45a0 a43c 1402 e23c
000001f0: 07f1 a4ba cb0a d1bc 4467 d03c 0917 babc
00000200: 0848 463d a609 c33c c459 ce3d 3c0a 003d
00000210: d114 dfbc c20c 8fbd 5f52 d0bc cdb5 753d
00000220: 5c81 a63d d3e8 70bd 7e75 03bd 4a19 00bd
00000230: d14c 15bd ac30 313c 1485 313d e7e4 89bd
00000240: b961 a53c 7c91 0239 976a 003c 850c 58bc
00000250: 3f3b a0bc 74de 83bd 21e3 143d 5bbf 9fbd
00000260: 6fae 923d 2782 e4ba 77d2 bfbc 816d 323d
00000270: 9a70 fd3c 6665 9ebc b0c2 353d c01f 46bc
00000280: bfa4 fa3c 240e 73bd 65b2 75bc 5711 92bd
00000290: 33c5 f63b 4430 acbd dab7 293d 6cb8 183d
000002a0: c292 c0bc 7013 51bd b49b 89bc 676f 243d
000002b0: 0859 933c d8cb 56bc 9f6f 98bd 7645 1a3d
000002c0: 33d5 e0bc 8dd6 293d 7d3c 7bbc 90d5 e23d
000002d0: 42d3 8ebc 8560 903d e303 073c 8a8b 0fbd
000002e0: e646 f039 ef26 a7bc 8df4 b8bc bca7 dc3c
000002f0: 828c 2fbd a7aa 733d d3a8 07bd 0e66 22bd
00000300: f5cf 98bc df28 a33d aaca c73b 868e 9b3d
00000310: 57d5 b9bc a13c 00bd db28 e4ba e74c 1339
00000320: de4a 473d 6019 9e3d 6a59 1fbd a251 16bd
00000330: f349 efbd 8d25 7b3c 68e9 aa3d d925 153d
00000340: f8af 27bc 1158 9c3c 7379 eabc 85aa 643d
00000350: 2798 e6bc 9279 453c db92 503d d510 283d
00000360: a9c9 0fbd 737a 003d 7ec3 a5bd b80e 4b3d
00000370: 29fe c7bc db0b 233b b63a 2fbd 0649 e0bc
00000380: 2eb0 b4bb edc5 b03d ff99 c43b f10e 513d
00000390: 7417 2cbb 7bd8 bfbb 97ae a8bc 72b9 03bd
000003a0: 3ae2 073d 26d6 0f3d f224 103c 08de 283d
000003b0: f212 cbbc 575b 143c 3610 593b 96bd b7bc
000003c0: f99e 65bd fbad 073d 22bd 2fbd c61a ae3c
000003d0: 3fe8 933d 664a afbd a5ca 13bd 3482 53bc
000003e0: 1498 7ebd a3a9 d73c b93a 47bb 4d49 c3bb
000003f0: a57b be3c 832b fbbb 0bb0 853b 3a9f 63bd
-0.024324197 -0.061544526 0.0050471593 0.008244103 -0.029740153 -0.025424633 0.026137881 -0.061095573
0.052052677 -0.07226805 0.04637866 -0.04776721 0.034677316 -0.027546395 -0.03240756 0.081240535
-0.014522178 0.022284681 -0.00451291 0.0014138308 -0.063412905 -0.026530877 0.06322621 0.043010987
0.012663063 0.034894753 0.09090867 0.1077423 -0.0072858776 0.046558324 0.09397007 0.09344653
0.028817544 -0.02442776 0.015727289 -0.050445374 -0.027637675 0.037204824 0.005323768 -0.04120928
0.010096181 0.031026263 -0.09458187 0.023108492 0.06040853 0.045602586 0.055073008 -0.06625214
0.01469719 0.034150448 -0.04668023 0.004304454 0.02790539 0.0009438481 -0.04009393 -0.030515444
0.0632528 -0.05804964 0.10989491 0.074821085 -0.023058906 -0.104716055 -0.023502914 0.01919311
-0.06972136 0.041675705 -0.028305734 0.0472112 -0.01114722 0.046256967 0.022135254 -1.8516992e-05
-0.020457035 0.03874233 -0.08109583 0.034349166 -0.059084035 -0.021891713 0.027899045 0.06660407
0.008168347 -0.058377896 0.05295535 -0.024880402 0.06608704 0.06475554 0.03185741 0.09854277
-0.026537362 -0.05135995 -0.048412185 0.037588313 0.0019696099 -0.050480504 0.035461944 -0.0062442
0.009150463 -0.0116434395 -0.000961138 0.008322155 -0.047105804 -0.033605695 0.07503642 -0.023710327
0.01470585 -0.059702966 0.011015472 -0.01774847 -0.0056355456 0.061198913 -0.009484879 0.026797023
-0.076020285 0.0042400006 -0.00684147 0.023500578 0.021474414 0.0044150664 -0.061625283 -0.01853852
0.07613637 -0.041478563 0.020095954 0.027588882 -0.0012584039 -0.025517842 0.025439866 -0.022716062
0.048408538 0.023808312 0.10075715 0.03125976 -0.027231606 -0.06984855 -0.025429903 0.05998783
0.08130142 -0.05881579 -0.03209447 -0.031274118 -0.03645021 0.010814827 0.043339804 -0.06733113
0.0201882 0.00012451963 0.007837913 -0.013186579 -0.0195595 -0.06438914 0.03634942 -0.0780017
0.07162177 -0.0017433808 -0.023415787 0.043561462 0.030937482 -0.01933546 0.04437512 -0.012092531
0.030596135 -0.059339657 -0.014996146 -0.071322136 0.007530832 -0.084076434 0.0414351 0.037285253
-0.02350748 -0.051043928 -0.016797878 0.040145304 0.01798679 -0.013110124 -0.07443165 0.0376639
-0.027445411 0.041464377 -0.015334246 0.1107589 -0.01743472 0.0704966 0.008240673 -0.035045184
0.0004582919 -0.020404307 -0.022577548 0.02693545 -0.042858608 0.05948892 -0.033119988 -0.03964811
-0.01865385 0.0796678 0.0060971575 0.075955436 -0.022684736 -0.03130782 -0.0017407195 0.00014047661
0.048655383 0.07719684 -0.03890363 -0.036698945 -0.116840266 0.015328777 0.083453 0.036413047
-0.010234825 0.019084962 -0.028622365 0.055826683 -0.028148724 0.01205291 0.050921302 0.041031677
-0.035104427 0.031366777 -0.08093928 0.049574584 -0.024413185 0.0024878893 -0.0427806 -0.02737857
-0.0055141663 0.08631501 0.005999803 0.05103964 -0.0026259096 -0.005854664 -0.020591063 -0.032159276
0.03317473 0.035116337 0.008797871 0.04122737 -0.024789307 0.00905498 0.0033121235 -0.022429269
-0.05605981 0.033124905 -0.04290498 0.021253001 0.07222032 -0.08559112 -0.03608193 -0.012909461
-0.06215675 0.026326006 -0.0030399992 -0.005959666 0.023252318 -0.007665099 0.004079824 -0.055571772

layer3.0.bias f4 [64]
00000000: 0711 9c3b c987 3a3d 582d 943c eacf e7bb
00000010: 8a7a 853d 9aaf 65bd 022c 5fbd 0571 0fbd
00000020: 7aa9 583d b90d f9bc 6325 96bb 63c4 fcbc
00000030: e625 c4bc f321 3d3d d7a2 4bbd 2640 0bbd
00000040: b06b 233d 3f03 c9bb b532 a8ba a688 f3bc
00000050: 265a 533c 25e6 623d 1580 e93a 8c4a cabc
00000060: 3db7 89bc 6b58 1a3d e11e c1bb 553a 823c
00000070: ca70 31bd acc6 7d3c 6182 28bd 9073 aebc
00000080: 2dac ac3c 2ba9 423c 5d8e e23a 907a 173c
00000090: fce5 4f3d 320a 233d 2b09 1f3d d31b 11bc
000000a0: bf1b 3abd c0fb a33d 2e30 6f3d 9ef0 b63b
000000b0: 302a 01bc 8f8d 173d ab87 1ebc afd6 ea3c
000000c0: 6c75 53bd c2cf a13c fc16 53bc 9fac 4a3d
000000d0: ebe6 c63b c23b 56bd c153 5a3d 397e 5f3d
000000e0: 15a7 5a3d 02f2 43bd ab70 32bd 0681 213d
000000f0: 4310 7b3d a870 59bd 2a34 b33c 10bc 313c
0.004762772 0.04553965 0.018088028 -0.007074346 0.06517513 -0.05607567 -0.05448533 -0.035019893
0.052896 -0.030402051 -0.0045820936 -0.030855363 -0.023943853 0.046174955 -0.049715843 -0.033996724
0.03989762 -0.00613442 -0.0012832495 -0.029728245 0.012899911 0.055395264 0.0017814661 -0.02469375
-0.016811008 0.03768198 -0.0058935736 0.015896956 -0.043320455 0.015489262 -0.041139964 -0.021295339
0.021078194 0.011881153 0.0017284859 0.00924553 0.05075644 0.039804645 0.038827103 -0.0088567315
-0.045436617 0.08007002 0.058395557 0.005582883 -0.007883593 0.037000235 -0.0096759 0.028666822
-0.051625654 0.019752387 -0.012883898 0.04948103 0.006070008 -0.052303083 0.05330253 0.054563735
0.053381998 -0.04783822 -0.04356448 0.039429687 0.061294805 -0.053085953 0.02187546 0.01084806

layer3.1.weight f4 [64]
00000000: 6b0e 913f cbb2 933f f1cc 8f3f 7306 923f
00000010: d48a 8e3f 2f5d 943f fe01 953f 2b90 953f
00000020: 29e5 943f 9270 9b3f 9c1d 893f bd10 943f
00000030: b7e5 8f3f 419e 903f d5f0 8a3f f3b8 8c3f
00000040: 0ecf 963f c1d2 913f f909 8e3f a8a9 8d3f
00000050: 8d1c 913f bd01 9d3f ec96 8f3f 1dca 8e3f
00000060: 8988 8b3f c396 923f ed77 973f 4d0c 953f
00000070: 3bf8 9a3f da38 903f 8766 913f 99af 9a3f
00000080: ea6d 8c3f 89cb 933f f804 8f3f ae39 913f
00000090: c48f 903f 8fbf 913f 1884 923f 7268 913f
000000a0: 4122 943f 2d69 903f 3a4d 9b3f 0c16 9a3f
000000b0: 1c4d 943f 8385 943f f38e 8c3f 83a1 923f
000000c0: 80dd 883f 1b8a 953f 6dac 913f 21cb 953f
000000d0: e3cb 923f a696 953f f66f 8f3f fc4c 923f
000000e0: 18c5 8e3f 9ec8 8e3f 1da4 953f ef49 8b3f
000000f0: 4207 913f 52d9 8d3f 2d98 903f 673d 9b3f
1.1332525 1.1538938 1.1234418 1.1408218 1.1136117 1.1590937 1.1641233 1.1684622
1.1632434 1.2143729 1.0712161 1.1567608 1.1241978 1.1298295 1.0854746 1.0993942
1.1781938 1.1392442 1.1096793 1.10674 1.1336838 1.2266155 1.1217933 1.115543
1.0901042 1.1452259 1.1833473 1.1644379 1.2107004 1.126735 1.1359414 1.2084838
1.0971043 1.1546489 1.1173391 1.1345727 1.1293874 1.1386584 1.1446562 1.1359999
1.1572953 1.1282097 1.2132943 1.2037978 1.1586032 1.1603245 1.0981125 1.145554
1.0692596 1.1682771 1.1380745 1.1702615 1.1468471 1.1686599 1.1206043 1.1429744
1.1153898 1.1154974 1.1690708 1.0881938 1.133034 1.1081946 1.129644 1.2128114

layer3.1.bias f4 [64]
00000000: 0740 a7b9 5a61 acbc 265d 0e3c 2aaa a839
00000010: 5fd5 b43c b536 ec3b c363 c2ba a7e9 393d
00000020: 86eb 67bc 5571 083d 4ccb 723b 64e6 d13c
00000030: 0558 933c 72e2 cc3b eae7 4a3b 4183 303b
00000040: 027d ac3c 9b8b fa3b ead2 b33c b68c 13bc
00000050: 6ccb 9a3b 8747 ed3c 8e49 c83c ee32 fbbb
00000060: 2530 5b3b abac e33c fa82 c03c aa38 063d
00000070: c910 273d 8b81 8b3b 2fc3 1c3b 1f7b c33c
00000080: 5fc7 f13b 7ad2 383d 523d 5dbb d082 0dbc
00000090: 7505 913c 1576 f83c bfa9 44bc c512 ea3c
000000a0: e94f 4f3c f523 3e3d ae5a 3c3c 9761 f93c
000000b0: 52e3 6e3c 1cbc 2a3d d909 273c 40cb 4b3c
000000c0: 0bc5 843b 8c27 bd3c 7721 b53c db24 763c
000000d0: c0c1 b13b e4e5 4c3d 14b1 233d 97c1 013d
000000e0: 6a3a c53c 6c0f 7abc 63ad d53b 9c5f fe3b
000000f0: cc7c a03c e5e4 f239 b694 c83c d541 293d
-0.00031900426 -0.021042515 0.0086892005 0.0003217024 0.0220744 0.00720867 -0.0014830757 0.045388844
-0.014155274 0.033311207 0.0037047444 0.025622554 0.017986307 0.0062525803 0.0030960985 0.0026933702
0.021055702 0.007646037 0.021951158 -0.009005716 0.004723957 0.028964771 0.024449136 -0.0076659834
0.0033445444 0.027792295 0.023499954 0.032768883 0.040787492 0.004257386 0.002392005 0.02386242
0.007378503 0.0451226 -0.0033758474 -0.008637145 0.017702797 0.030329743 -0.012003361 0.028573403
0.012653329 0.04642101 0.011496229 0.030442042 0.014580565 0.0416833 0.010195219 0.012438595
0.0040518097 0.023090146 0.022110684 0.0150234355 0.005424708 0.05002393 0.039963797 0.031678762
0.024075706 -0.015262466 0.0065209134 0.0077628624 0.019590758 0.00046328377 0.024484973 0.041322548

layer3.1.running_mean f4 [64]
00000000: a3d8 d83e 937d c73d 7539 88bd e96a d2bd
00000010: 2a14 bbbe 82fb 5e3f 6c51 193e 859d b7be
00000020: 78bf 363e 729a 16bd 37ff 953e ef6f d83e
00000030: b7f9 0b3e 963b 843d 3a38 673f d008 96be
00000040: ee7f 5d3e 5264 19be 3ece 42bf ee01 fbbc
00000050: dc29 ca3e c052 ddbc acfe de3e 21d7 4d3f
00000060: eb7d 2c3e 5912 aebe 12cd 2fbe c19e dbbe
00000070: b6c7 40be 51b5 593d b8cb 593e d5e2 b4be
00000080: 8762 833e 20ab 773e 665c b63e 530c 94bd
00000090: 7ad0 bebd cc4d f03d 8e2b dc3d cc11 73bf
000000a0: 03dd 323b 31fb 1cbf 512c 4f3f 9554 123f
000000b0: 3672 2e3e b3a4 6e3e 809b 103f 81c4 97be
000000c0: ee54 b9be 0852 7ebe b10f bd3e d7a2 863e
000000d0: 3d3b cb3e ead1 ffbe aece bdbd 5873 0a3d
000000e0: d267 04bf c18a ac3e e11a 393e 11b2 06be
000000f0: f493 36bf 3142 4e3f 5ac6 98be c05a c93e
0.4235278 0.09740748 -0.06651584 -0.10274298 -0.3653882 0.8710252 0.14972466 -0.35862365
0.17846477 -0.036768384 0.29296276 0.422729 0.13669477 0.064566776 0.9032017 -0.29303598
0.21630833 -0.14979675 -0.7609595 -0.030640569 0.3948506 -0.027016997 0.43553674 0.80406386
0.16844909 -0.33998373 -0.17168072 -0.42894557 -0.18826184 0.053151432 0.21269119 -0.3532931
0.25661108 0.24186373 0.3561737 -0.07228913 -0.093171075 0.117335886 0.10750495 -0.9494903
0.0027292378 -0.6132079 0.80926996 0.5716031 0.17035756 0.23305015 0.56487274 -0.29642108
-0.3619761 -0.2483598 0.36926034 0.26296112 0.39693633 -0.4996484 -0.09267937 0.033801407
-0.5172092 0.3369961 0.1807666 -0.13153864 -0.7131951 0.8056975 -0.2983883 0.3932705

layer3.1.running_var f4 [64]
00000000: 8de4 4b3e 0e91 933e a464 883e b08c 853e
00000010: 1593 6f3e 1dba 8f3e 55fc 543e fcdc 593e
00000020: 256d af3e f6de 4d3e 4bad 723e c8f9 533e
00000030: 5e8d 693e 3a3d a83e be5d 623e 5761 643e
00000040: 34c5 593e e88a 843e 9ac0 433e 44a7 1e3e
00000050: 0e92 4c3e 4504 423e 9b9c 6e3e 2aa7 6f3e
00000060: 1ba1 3e3e 10e1 403e 1453 b73e f7c4 793e
00000070: 789e 3d3e 979c 293e bec9 513e b2c1 683e
00000080: 5c6f 793e fb53 9a3e e559 9e3e 5039 6a3e
00000090: bf16 973e da10 993e 870d 4f3e 04e9 733e
000000a0: 18ef 853e ae50 4a3e 2393 a63e fd2e 703e
000000b0: 2d63 5d3e af15 5e3e dcac 823e 7030 413e
000000c0: 3b71 493e 2a3e 413e 90a5 673e 8adf 823e
000000d0: ca43 813e 3f81 ab3e 17fd 673e 111c 383e
000000e0: 2b09 683e ecd4 7e3e a99f 5e3e 29df 963e
000000f0: f1f2 453e dc22 803e f5af 7b3e 5516 913e
0.19911404 0.28821605 0.26639283 0.260839 0.23395951 0.2807168 0.20799382 0.21275705
0.34262958 0.20104584 0.23698919 0.20700753 0.22807834 0.32859212 0.22106072 0.22302757
0.21266633 0.25887227 0.1911644 0.15493494 0.1997759 0.18946941 0.23301928 0.23403612
0.18616144 0.18835855 0.3580557 0.24391542 0.18517482 0.1656364 0.20487115 0.22730139
0.24358886 0.30142197 0.3092796 0.22873425 0.2950954 0.2989567 0.20220004 0.23819357
0.26158977 0.1975734 0.3253413 0.23455425 0.21619864 0.21687959 0.25522506 0.18866134
0.196721 0.1887137 0.22621751 0.25561172 0.2524703 0.33497044 0.2265514 0.17979456
0.22659747 0.24885911 0.21740593 0.29467133 0.19330956 0.25026596 0.24578841 0.2833735

fc.weight f4 [8, 576]
00000000: c355 72bd 878a 58bd 0731 93bc 9183 b8bc
00000010: 8c21 543c 9ba0 0e3b 51de 253d 2dec 36bd
00000020: e78c 95bc 8155 9fbc 099d c53c e9da f73c
00000030: f858 853d 5dd6 c93c 4b90 28bc 62fc 0d3c
00000040: ee3a d43c 7ac4 033d 3281 29bc 163c 2f3d
00000050: bac0 8c3c deb1 4fbd a770 3f3c 01d6 35bd
00000060: 98b6 23be 9011 fcbc 820c 9cbd 7b78 023d
00000070: 03e7 86bd c7c6 11bc b7f7 073d c495 c73c
00000080: 8f14 3abd 2368 803d 9534 17bc 9366 af3c
00000090: 9deb 513c 37c3 fd3b 7658 86bc 3bd5 963d
000000a0: c846 2d3b 7e42 9e3d 4931 4f3d 3075 ac3d
000000b0: a4bd 243d 419f b13d e77a 923c e388 993d
000000c0: 47b3 393c a9bf 1eba 53ff 1fbc 68c1 933d
000000d0: 13c5 193c d186 8b3d 4cb9 00bd 6d02 863d
000000e0: efa9 5d3d 68b3 50be b5d2 1c3c fc17 adbc
000000f0: bb9c 9ebd 98d8 7ebd 895d c1bc 4e2b 95bc
00000100: ea32 9b3d 471d 0dbd 2029 973d da14 8b3c
00000110: e9eb 723d e6c1 353d 7902 ba3d 0c94 9c3d
00000120: 617e a0bd 49d3 8b3d a776 a53d 134a 093d
00000130: d503 74bc e34f 84bd 292a 993c 03c4 41bc
00000140: 7f30 3fbc 931b 593d e9ed 83bc 5d4a e3bd
00000150: 73f8 833c 1f01 c0bc 864b ebbd b1df c13c
00000160: dbeb d1bd 1dd6 0f3b 1359 8f3c 27a5 a1bd
00000170: 36d5 74bd b513 92bc 9f93 0dbd f419 e3bc
00000180: 2b52 89bb e6b8 a53c 7ddb 29b9 41c4 b9bc
00000190: 168d 3dbd d548 23bd e965 8e3c 0044 063c
000001a0: a122 a63c 834a 8dbd 04d3 20bc 55c0 0cbe
000001b0: 8149 8e3c d79f a73d 7fcc a63c cf09 723d
000001c0: d50e 5abd b0c5 5b3d 669f ac3d 9d52 7a3d
000001d0: 8565 cb3d 63cd b33c b4f0 5e3c c85e 24bc
000001e0: f710 b4bc 66b7 a3bc 7f7a 883c d420 6f3d
000001f0: 4fd8 503d f3e5 b13d 90fb 5a3d 4696 4b3d
00000200: 4fd0 f83c e34f 0a3d 8ce1 6d3c 8a48 523d
00000210: fbc3 8ebc 4696 093d 4c95 9f3d 29f5 973c
00000220: 53bc d43c ca28 35bc 5d5b d33c 9bf4 34bc
00000230: fbaa a03b f51e f7bc c271 1dbd 427a 933d
00000240: dee3 56bd 9b82 1cbc b6b9 18bd 9823 863d
00000250: 4b18 643d 9af7 adbd f060 7e39 8ceb 3abc
00000260: 1e2a 17bd 3099 bfbc 40e0 e1bd b920 90bd
00000270: 288e 93bd c3bf d93c 428b 5fbd 850d 503b
00000280: 6a00 dbbb a7b2 4f3c 05d5 30bd d641 35bd
00000290: f0c5 9abd ee29 393d fe0f 473c 7e3d 0c3d
000002a0: 27fc 893d 87f3 6dbc db0d 943d 0ad5 99bc
000002b0: 0053 debc d493 6bbd 1cad 4cbd aaa7 2dbd
000002c0: 90e6 143d 6db5 adbd f659 5ebd 63f2 76bd
000002d0: 7f2a 503d ed3f 60bd 2970 883d 7f50 ad3c
000002e0: dc8f 58bd 772b f4bc c116 193d 0ba6 f33a
000002f0: 7a79 173d b75d 4d3b e003 033c 029d 303c
00000300: 9099 aa3c 04f0 cbbc 55a7 3abc 0678 9d3d
00000310: 94bc 8c3c 1e13 c43d 7918 e1bc 72c7 653d
00000320: c7e0 5e3d 5508 dc3d 51ad 07bd 9e9f 46bc
00000330: 65b1 08bd 7052 0cbc f94c 2c3d f689 893c
00000340: 594d d53b b3ce 133c 37b2 4fbd f91f 383d
00000350: 949d 833d c1ed 323d cbde 853c 5338 6d3c
00000360: 74f7 07bd 547c 8cbd c56a b1bb cf21 13bb
00000370: ad47 72bd 7867 99bd 7bdd 8bbd fcfb bcbd
00000380: 01e4 21bd 1d37 86bd 31c8 33bb dccd aebd
00000390: 90f8 2cbd bf80 94bd eb84 e9bc 287a b0bd
000003a0: 0e0a d53c fdbe a2bc 9fcb 8ebd 0ce0 18bd
000003b0: 9540 25bd 4ea4 82bc 0942 283d be22 96bd
000003c0: c648 42bc a139 6dbd da75 853d 1c5a 013d
000003d0: c18d 74bd d278 edbc 6abb ddbd 892b 0bbe
000003e0: c835 d2bd 8325 213c 4158 12bc 776d 11bd
000003f0: 236c 873c c8d3 b63c 54ed 293d 4f22 4eba
-0.05916382 -0.052866485 -0.017967714 -0.022523673 0.012947451 0.0021763209 0.04049522 -0.04465883
-0.018255664 -0.019449951 0.024122732 0.030255752 0.0651111 0.02463835 -0.010288308 0.00866613
0.025907006 0.032169797 -0.010345744 0.04278191 0.017181743 -0.050706737 0.011684573 -0.044393543
-0.15987623 -0.030770093 -0.07619573 0.03185318 -0.06587031 -0.00889749 0.033195224 0.024363406
-0.045429762 0.062698625 -0.009228845 0.021411216 0.012812522 0.0077442187 -0.016399603 0.07364889
0.0026439894 0.07727526 0.05058411 0.08420789 0.040219918 0.086729534 0.01788087 0.07496812
0.011334247 -0.0006055781 -0.009765464 0.07214624 0.009385365 0.068128236 -0.031426713 0.065434314
0.05411714 -0.20380938 0.009571721 -0.0211296 -0.07744738 -0.06221828 -0.023604171 -0.018209126
0.075780705 -0.03445175 0.07380891 0.016977716 0.059307013 0.04437437 0.09082503 0.07645425
-0.07836605 0.06827409 0.08079272 0.03351791 -0.014893492 -0.0646055 0.018696861 -0.011826518
-0.011669277 0.053004812 -0.016104655 -0.11098168 0.01610968 -0.023438035 -0.11489014 0.023666235
-0.10250064 0.002194769 0.017498529 -0.078928284 -0.059773646 -0.017831663 -0.03456461 -0.027722336
-0.0041907034 0.020229768 -0.00016198862 -0.022676589 -0.04627713 -0.03986438 0.017382579 0.008194923
0.020280184 -0.068989776 -0.009815935 -0.13745244 0.017369034 0.08184784 0.020361183 0.059091385
-0.0532368 0.053655326 0.0842884 0.061113942 0.09931473 0.021948522 0.013607193 -0.010032363
-0.021980746 -0.019984912 0.016659973 0.058380917 0.050987538 0.086864375 0.053462565 0.04970386
0.030372767 0.033767592 0.014519107 0.05133871 -0.017427435 0.033590578 0.07792148 0.018549519
0.025968706 -0.011057088 0.025800401 -0.011044647 0.004903195 -0.030166129 -0.038438566 0.07201053
-0.052463405 -0.009552623 -0.037286483 0.06549758 0.05568723 -0.08494492 0.0002425944 -0.011408698
-0.0369054 -0.023388475 -0.110291004 -0.07037491 -0.072048485 0.026580697 -0.054576166 0.003174634
-0.006683399 0.012676871 -0.0431719 -0.04425224 -0.07557285 0.045206003 0.012149809 0.03423833
0.06737547 -0.0145233935 0.07229205 -0.018778343 -0.027139187 -0.057514027 -0.049969777 -0.042396225
0.036352694 -0.0848187 -0.054285012 -0.06028975 0.050821777 -0.054748464 0.06662018 0.021156548
-0.05287157 -0.029805882 0.037375215 0.0018588913 0.036981083 0.0031336376 0.007996529 0.010779621
0.020825177 -0.024894722 -0.011392434 0.07688908 0.017179765 0.09573959 -0.02747749 0.05609841
0.054413583 0.10743777 -0.03312427 -0.012123017 -0.0333723 -0.0085645765 0.042065594 0.016789418
0.0065094647 0.009021449 -0.05070707 0.044952367 0.0642654 0.04368377 0.016341588 0.014478761
-0.033194974 -0.06859651 -0.0054143392 -0.0022450571 -0.059150387 -0.07490438 -0.068293534 -0.0922775
-0.039524082 -0.06553481 -0.0027432556 -0.08535358 -0.042229235 -0.07251119 -0.028505763 -0.086170495
0.026005771 -0.019866461 -0.069724314 -0.037323043 -0.040344793 -0.015947487 0.0410786 -0.07330845
-0.011858171 -0.057916287 0.06516619 0.031580076 -0.0597055 -0.028988276 -0.10826762 -0.13590826
-0.10264164 0.009835604 -0.008932174 -0.035504784 0.016531056 0.022317782 0.0414861 -0.0007863389

fc.bias f4 [8]
00000000: 3ac5 113d 2465 37bc e251 b43c 183d 4fbc
00000010: 170b 5bbd c351 abbc 7ecc 7dbc 95fc e03c
0.03558848 -0.011193547 0.022011701 -0.012648843 -0.053477373 -0.02091301 -0.015490649 0.02746419
