trained_models/breastmnist/model.pth (torch, 106011 bytes, 20 tensors)

layer1.0.weight f4 [16, 1, 3, 3]
0	0xbd18cbc4	-0.0373037
1	0x3d344852	0.044014283
2	0xbe4b275f	-0.19839238
3	0xbc8b86d9	-0.017032074
4	0x3e90ede3	0.28306493
5	0x3d0e6c93	0.034771513
6	0x3e796780	0.24355888
7	0x3dae98c5	0.08525232
8	0x3d7e6287	0.06210568
9	0xbe8eff5c	-0.279292
10	0xbcb1242c	-0.021623693
11	0xbe1f6ab7	-0.15568052
12	0x3ca4f2c4	0.02013529
13	0x3d3fba54	0.046808556
14	0xbd89d658	-0.06730336
15	0x3e9ab9cd	0.3021988
16	0xbc1120af	-0.00885789
17	0x3e6df7f4	0.23239118
18	0xbe13f246	-0.14447889
19	0x3e8ad681	0.27116778
20	0xbd6fed0f	-0.058575686
21	0xbe79ed40	-0.2440691
22	0x3e9b97bf	0.3038921
23	0x3e924594	0.2856871
24	0x3c3eacc6	0.011637872
25	0x3cbc1afe	0.02296209
26	0x3e516533	0.2044876
27	0xbd8b50e5	-0.06802539
28	0x3c42e5cc	0.011895608
29	0xbe0a46de	-0.13503596
30	0xbe0969c3	-0.13419251
31	0x3e162396	0.14662012
32	0x3e912431	0.28347924
33	0xbd9f1b25	-0.07768849
34	0x3dcde58f	0.100535505
35	0xbe4c62e7	-0.19959603
36	0xbd5d3fad	-0.054015804
37	0xbd0ff2ab	-0.035143536
38	0x3e992dcf	0.29917762
39	0xbdebf049	-0.1152044
40	0xbe024433	-0.12721328
41	0x3e5ad0e8	0.21368754
42	0x3dc0e122	0.09417941
43	0x3df70c0e	0.12062846
44	0xbc047c4c	-0.008086275
45	0x3e40f2ea	0.18842664
46	0x3e960da1	0.29307273
47	0x3e854ff3	0.2603756
48	0x3db3ce5e	0.08779596
49	0x3e2bc4f0	0.16774344
50	0x3d4a800b	0.049438518
51	0xbe333c37	-0.17503439
52	0x3dc077e4	0.09397867
53	0xbd6adcbc	-0.057339415
54	0x3e23f6e6	0.16012153
55	0xbe0a9542	-0.135335
56	0xbe8787a2	-0.26470667
57	0x3d76a596	0.06021651
58	0xbe5b87bc	-0.21438497
59	0x3d58021e	0.052736394
60	0xbe7f26d4	-0.24917156
61	0x3e6ecf56	0.2332128
62	0xbea580ef	-0.3232493
63	0x3e937625	0.28801075
64	0xbe845681	-0.25847247
65	0x3eb0a12f	0.34497973
66	0x3cd78d33	0.026312446
67	0xbe45fd5d	-0.19334932
68	0xbd205033	-0.039138984
69	0xbe2c90b5	-0.16852076
70	0xbda61fe5	-0.08111552
71	0xbe30b194	-0.1725524
72	0xbe1496a6	-0.14510593
73	0xbe105a2c	-0.14096898
74	0x3e349369	0.17634358
75	0xbe797dfa	-0.24364462
76	0xbe249725	-0.16073282
77	0xbeb2965c	-0.3488034
78	0xbe90d7bd	-0.28289595
79	0xbdb955fd	-0.09049604
80	0xbca1d2eb	-0.019753894
81	0xbe8bbb5d	-0.27291384
82	0x3bf159c3	0.0073654368
83	0x3e79dd25	0.24400766
84	0x3bc70b24	0.006074326
85	0x3d24b8e5	0.04021539
86	0x3d47721e	0.048692815
87	0x3e746835	0.23867877
88	0x3ea01848	0.31268525
89	0xbde818b9	-0.113328405
90	0xbd96b122	-0.07358004
91	0x3c4c56b8	0.012471847
92	0x3e955968	0.29169774
93	0xbe9259fe	-0.28584284
94	0xbda24511	-0.079233296
95	0x3e160141	0.14648916
96	0xbe579c6b	-0.21055762
97	0xbe27f2e0	-0.16401243
98	0x3e59afe9	0.2125851
99	0x3e269bd3	0.1627038
100	0x3d9aa9e1	0.07551933
101	0xbe92d641	-0.28679088
102	0xbe1e50ba	-0.15460482
103	0x3db19c86	0.086724326
104	0x3d8918fe	0.0669422
105	0xbe8f5fb5	-0.28002706
106	0xbe0bf572	-0.13667849
107	0xbe4340e4	-0.19067723
108	0x3e111b49	0.14170565
109	0x3eab20f6	0.33423585
110	0xbe64e4dc	-0.22352928
111	0x3d3274c6	0.043568395
112	0xbe76b3da	-0.24092045
113	0x3e95c1c6	0.292494
114	0xbea859c8	-0.32880998
115	0x3d36b519	0.044606302
116	0x3df141de	0.11780141
117	0xbe3db0dd	-0.18524499
118	0x3e8d7367	0.27627108
119	0x3e39348c	0.18086451
120	0x3e6be952	0.23038223
121	0xbe578513	-0.21046858
122	0x3e851b3c	0.2599734
123	0x3e9aef19	0.30260542
124	0xbea54aa8	-0.3228352
125	0xbe92273e	-0.28545564
126	0xbdc3db12	-0.09563269
127	0xbe7f1d3a	-0.24913493
128	0x3e058a95	0.13041146
129	0x3e7eee0b	0.24895494
130	0xbe8f4cbd	-0.27988234
131	0x3e3f35bf	0.18672846
132	0x3d5bc1fb	0.05365179
133	0x3dbff419	0.0937273
134	0xbe07c7c4	-0.13259798
135	0x3e9b6806	0.303528
136	0xbd626547	-0.055272367
137	0xbb56ca3e	-0.0032774354
138	0xbdd1da30	-0.10246694
139	0xbe256282	-0.16150859
140	0x3e8d78b5	0.27631155
141	0x3dc512cb	0.09622725
142	0xbd70f4e9	-0.058827315
143	0x3de1e5b5	0.11030141

layer1.0.bias f4 [16]
0	0xbea679e4	-0.3251487
1	0x3e541fe6	0.20715293
2	0x3e783ccb	0.2424194
3	0x3e8b1387	0.27163336
4	0xbde0d11d	-0.10977385
5	0xbded084b	-0.115738474
6	0x3d714350	0.058902085
7	0xba99971b	-0.0011718007
8	0x3eaa2481	0.33230975
9	0xbe9e9a05	-0.30976883
10	0x3c747534	0.0149205215
11	0xbe9a16e5	-0.30095592
12	0x3e93e6cd	0.28887025
13	0xbe4f0c70	-0.20219588
14	0xbea7ea4c	-0.32795942
15	0x3e8833b3	0.26601943

layer1.1.weight f4 [16]
0	0x3f7d9274	0.99051595
1	0x3f8094d3	1.0045418
2	0x3f7e7e98	0.99411917
3	0x3f80655c	1.0030932
4	0x3f7cde35	0.9877656
5	0x3f7f47d6	0.9971899
6	0x3f8063cc	1.0030456
7	0x3f83218a	1.024461
8	0x3f80162e	1.0006769
9	0x3f804933	1.0022339
10	0x3f81581c	1.0105014
11	0x3f7d820f	0.9902658
12	0x3f7fda6c	0.9994266
13	0x3f803c2d	1.0018364
14	0x3f80d70d	1.0065628
15	0x3f7db380	0.9910202

layer1.1.bias f4 [16]
0	0xbc45eb5f	-0.012080043
1	0xbc06fcd1	-0.008238987
2	0xbabd0bc6	-0.0014423064
3	0xbab90704	-0.0014116471
4	0x3c1a9efa	0.009437317
5	0xbbf080a8	-0.007339556
6	0x3b50551c	0.003178901
7	0x3b81a91d	0.0039569275
8	0xbc337810	-0.010953918
9	0x3bf8d22e	0.0075934147
10	0xbb5df9fc	-0.0033870926
11	0xbc150525	-0.009095465
12	0xbbee74e6	-0.007277119
13	0xbca67847	-0.020321025
14	0x3a8ac666	0.0010587692
15	0x39900d51	0.00027475742

layer1.1.running_mean f4 [16]
0	0xbf0037d2	-0.50085175
1	0x3e2b41e8	0.1672436
2	0x3c8cc35e	0.017183002
3	0x3e92d6e3	0.2867957
4	0xbe6e4c92	-0.23271397
5	0xbecef610	-0.40422106
6	0x3e91f25f	0.28505227
7	0x3dd61ce2	0.10454728
8	0x3f3f9b1f	0.7484607
9	0xbefc1a94	-0.49239028
10	0x3d91fb6b	0.07128032
11	0xbda899a8	-0.082324326
12	0x3e6f3977	0.23361765
13	0xbe8a2378	-0.26980186
14	0xbe9e42b3	-0.30910262
15	0x3e0fa0cf	0.14026187

layer1.1.running_var f4 [16]
0	0x3d431089	0.04762319
1	0x3cac8453	0.02105919
2	0x3d9bbd47	0.07604461
3	0x3c05f795	0.008176704
4	0x3ce9c30e	0.028535392
5	0x3e1100cc	0.1416046
6	0x3d9763c8	0.07392079
7	0x3ccfe3ea	0.025377233
8	0x3e70cb9a	0.23515168
9	0x3d4d7a1c	0.05016528
10	0x3cc1265b	0.02357786
11	0x3d886f71	0.06661881
12	0x3c851495	0.016245166
13	0x3ccf2f51	0.025291117
14	0x3c05cf4b	0.008167098
15	0x3ce5a766	0.028033923

layer2.0.weight f4 [32, 16, 3, 3]
0	0xbd84ecd7	-0.06490486
1	0xbc867ee8	-0.016417935
2	0x3d3d72e9	0.046252165
3	0x3d7dc938	0.061959475
4	0x3d9403a5	0.07227258
5	0x3da14e11	0.07876218
6	0x3db70327	0.08936148
7	0xbd315fda	-0.0433043
8	0x3be8bd8a	0.007102673
9	0x3d9bf36c	0.076147884
10	0x3cf6b926	0.030117583
11	0xbc9b1d78	-0.01893495
12	0x3d2b50d2	0.041825123
13	0x3d4166ea	0.047217287
14	0xbc9a766b	-0.018855294
15	0xbd1c1a09	-0.038110767
16	0xbb4b2dd9	-0.003100267
17	0xbd5925bb	-0.0530145
18	0x3d8d8afd	0.069112755
19	0xbd6b5f83	-0.057464134
20	0x3d9e6546	0.0773416
21	0x3bb1a845	0.0054216706
22	0xbd867b78	-0.065665185
23	0xbcff8094	-0.03118924
24	0x3cfe9486	0.03107668
25	0xbd74e554	-0.059789017
26	0xbd7afb69	-0.06127492
27	0x3d52331b	0.05131827
28	0xbd126edf	-0.035750266
29	0xbda576c8	-0.08079296
30	0x3d229294	0.03969057
31	0xbdac5be8	-0.08415967
32	0xbc14d88b	-0.009084831
33	0x3d04fd23	0.032467972
34	0xbb123e55	-0.0022314985
35	0x3ba6c303	0.005089165
36	0xbd1e378a	-0.038627185
37	0xbd1c145f	-0.038105365
38	0xbd88bd10	-0.06676686
39	0xbdae7fa3	-0.085204385
40	0x3c4d15dd	0.01251742
41	0xbd79c55d	-0.060979236
42	0x3c29b82e	0.010358853
43	0xbd1b7eb0	-0.037962615
44	0xbbed2b40	-0.007237822
45	0x3d5c77bf	0.053825136
46	0xbc9eaa48	-0.019368306
47	0x3c88f50b	0.016718408
48	0x3cc87f4d	0.024474764
49	0xbd2fac08	-0.04288867
50	0xbcc410c2	-0.023933772
51	0x3d8db013	0.06918349
52	0xbd5fe950	-0.054665864
53	0x3ccf13a3	0.025277918
54	0x3d7d7f8e	0.061889224
55	0x3d8258bc	0.06364581
56	0x3d349e23	0.044096123
57	0x3d866d98	0.06563872
58	0x3b39dc38	0.002836002
59	0x3ced925c	0.029000454
60	0x3c0b8b5d	0.0085171135
61	0xbc590234	-0.013245154
62	0x3d16ec70	0.036846578
63	0x3d63f3c0	0.05565238
64	0xbd5286d1	-0.051398102
65	0x3d1b2064	0.037872687
66	0xbc9fe75d	-0.019519502
67	0xbd9f6fae	-0.07784973
68	0xbdc041a0	-0.09387517
69	0x3d8d477e	0.06898402
70	0x3d6dcb4d	0.05805521
71	0x3c565112	0.013080852
72	0x3d76c25d	0.060243953
73	0x3d22db7f	0.03976011
74	0xba36b84f	-0.0006970213
75	0xbc55ea29	-0.013056316
76	0xbc2dac4f	-0.010600164
77	0xbd834619	-0.064098544
78	0xbd751d9e	-0.0598427
79	0x3d46794f	0.048455533
80	0xbd8e619b	-0.069522105
81	0xbd7a530c	-0.061114356
82	0xbcbdf6f3	-0.023189044
83	0xbd3bf466	-0.045887373
84	0xbcb367dd	-0.021900112
85	0x3b835ca4	0.0040088464
86	0xbdb1d5e1	-0.08683372
87	0x3d6f1664	0.058370963
88	0x3cebee43	0.028800135
89	0xbcc4dbeb	-0.024030646
90	0x3dbcbc0e	0.09215556
91	0x3ccc510e	0.024940994
92	0xbc7ab889	-0.015302786
93	0xbd9a337d	-0.07529352
94	0x3d5c8088	0.053833514
95	0xbd65cb71	-0.05610222
96	0xbd853f81	-0.06506253
97	0xbd68fdde	-0.05688273
98	0x3d255055	0.040359814
99	0xbd04cfd0	-0.032424748
100	0x3cb89e71	0.022536488
101	0x3d8f9e1b	0.07012578
102	0x3d6bec19	0.057598207
103	0xbcb8bcae	-0.022550907
104	0xbd9c5d9c	-0.07635042
105	0xbd7bfa3e	-0.061517946
106	0x3ccaacc9	0.024740594
107	0x3d1e58e4	0.03865899
108	0xbd4f5d80	-0.050626278
109	0x3ca89f93	0.020583903
110	0x3c1125e9	0.008859136
111	0x3d63df14	0.055632666
112	0xbd2cb4d8	-0.042164654
113	0x3d3cfb3c	0.046138033
114	0x3d7e90bf	0.06214976
115	0xbb816f2f	-0.0039500217
116	0x3d48c48d	0.04901557
117	0xbd7a3114	-0.06108196
118	0xbdab3211	-0.08359159
119	0xbc584eef	-0.013202413
120	0xbadccd3f	-0.0016845836
121	0xbd25aa8d	-0.040445853
122	0x3d3e93ef	0.0465278
123	0x3bfc81a5	0.0077058845
124	0xbd5651c3	-0.052324068
125	0xbd92ca55	-0.07167498
126	0x3d8dbdc8	0.069209635
127	0xbd78b6c4	-0.060721174
128	0xbd31bbc8	-0.043391973
129	0x3d79b633	0.060964774
130	0xbc1bc836	-0.009508183
131	0xbd8a8fd4	-0.06765714
132	0x3d8ee637	0.06977504
133	0xbd093594	-0.03349836
134	0xbd8eeb35	-0.06978456
135	0xbb30fd51	-0.0027006457
136	0xbb869fbe	-0.004108398
137	0x3bd3ebd1	0.0064673205
138	0xbd9fb9a7	-0.07799082
139	0xbba07313	-0.0048965304
140	0x3cc2195c	0.023693733
141	0x3ce817a4	0.028331585
142	0x3ce32359	0.027726816
143	0xbcf5e5f2	-0.030016873
144	0xbd0f843b	-0.035038214
145	0x3d297734	0.041373447
146	0xbcc17082	-0.023613218
147	0x3d72aa4f	0.05924445
148	0x3c786b7f	0.015162348
149	0xbc9639fd	-0.018338198
150	0xbd1155fd	-0.035482395
151	0x3d5f0c96	0.054455362
152	0xbb850f8c	-0.004060691
153	0xbcdb49fc	-0.026768677
154	0xbd41ea34	-0.047342494
155	0xbdae32ca	-0.08505781
156	0xbc1a2113	-0.0094073
157	0xbc08ff68	-0.008361675
158	0xbb399098	-0.0028314944
159	0x3dadb6ac	0.084821075
160	0x3b735557	0.0037129724
161	0x3d804048	0.06262261
162	0x3c2dcada	0.010607446
163	0xbc8f53d1	-0.017496021
164	0xbd0074b9	-0.031361315
165	0xbc10e48d	-0.008843553
166	0xbdb98903	-0.09059336
167	0x3d5147fd	0.051094044
168	0xbbc1e41f	-0.0059170867
169	0xbce4f4dc	-0.02794879
170	0x3cbbd636	0.022929292
171	0xbd284e52	-0.041090317
172	0xbd82a10f	-0.06378376
173	0x3d8d879a	0.069106296
174	0xbd3488ac	-0.044075653
175	0xbd02bcef	-0.031918462
176	0x3d836360	0.06415439
177	0x3d6e8c5e	0.058239333
178	0x3dad1a0d	0.084522344
179	0xbd5f7d92	-0.054563113
180	0x3d8446eb	0.06458839
181	0x3d764a7d	0.06012963
182	0xbc914e4a	-0.017737526
183	0xbd845238	-0.064609945
184	0x3d8b2444	0.067940265
185	0xbd9c7f4b	-0.07641467
186	0x3cae446b	0.021272859
187	0x3d1623a5	0.036655087
188	0xbda2d235	-0.0795025
189	0xbd6c87c0	-0.05774665
190	0xbc95b524	-0.018274851
191	0xbbfd9be5	-0.0077395313
192	0x3d65ac95	0.05607279
193	0xbc952409	-0.01820566
194	0xbc8ace06	-0.016943943
195	0x3d7ced69	0.06174985
196	0xbd66b4a9	-0.056324635
197	0x3cd1ba44	0.025601514
198	0xbda541ac	-0.080691665
199	0x3d2eb65c	0.04265438
200	0x3d8e02c4	0.06934121
201	0x3d51a742	0.0511849
202	0xbcb9cec9	-0.02268161
203	0x3cd6f162	0.026238147
204	0xbda70a8f	-0.08156311
205	0xbd819238	-0.06326717
206	0xbd9b34b8	-0.07578415
207	0x3c242949	0.010019609
208	0xbcbaee22	-0.022818629
209	0xbd4e5f44	-0.05038382
210	0xbca8080b	-0.020511648
211	0x3d338423	0.043827187
212	0x3cff9917	0.031200929
213	0xbc3cee33	-0.0115314005
214	0xbd2e6a81	-0.04258204
215	0xbd0042ce	-0.03131371
216	0x3d0a2fe7	0.03373709
217	0xbd4aa3d4	-0.049472645
218	0x3a4a935c	0.0007727647
219	0xbd18f52c	-0.03734319
220	0xbc7522a3	-0.014961871
221	0x3b193f39	0.002338363
222	0xbc56e336	-0.013115695
223	0x3d464d5c	0.04841362
224	0x3d924ff3	0.07144155
225	0x3d7bcc45	0.061474103
226	0xbd2b0d84	-0.041760936
227	0xbd640484	-0.05566837
228	0xbda3f89f	-0.08006405
229	0xbb9c3f0e	-0.004768259
230	0xbc0f6882	-0.008752944
231	0x3d36a3c1	0.04458976
232	0xbd4fd8e8	-0.050743967
233	0x3af536a7	0.0018708304
234	0x3d30b7c1	0.04314399
235	0x3cac34dd	0.0210213
236	0x3d47f4ae	0.04881733
237	0xbc7141d8	-0.014725171
238	0xbd89e321	-0.067327745
239	0x3d3e4bd1	0.046459023
240	0x3d86a4d0	0.06574404
241	0xbcf164ef	-0.029467074
242	0x3d494bec	0.04914467
243	0xbd251693	-0.04030473
244	0xbd8af7f1	-0.06785572
245	0xbd202d46	-0.039105676
246	0xbd6f300c	-0.05839543
247	0x3d57f614	0.052724913
248	0xbc2f7bce	-0.01071067
249	0xbd937652	-0.07200302
250	0x3bb67583	0.0055682077
251	0x3d76c07b	0.060242157
252	0xbd621e27	-0.055204537
253	0xbd02bd6f	-0.03191894
254	0x3d5e4e45	0.054273862
255	0x3dc34da3	0.095362924

layer2.0.bias f4 [32]
0	0x3d79e66f	0.061010774
1	0x3d5a747d	0.053333748
2	0x3d9abf2d	0.07555995
3	0x3d9bb4c6	0.07602839
4	0xbd09d258	-0.033647865
5	0xbd081d4d	-0.03323107
6	0xbd9fe34f	-0.078070275
7	0x3cb29923	0.021801537
8	0xbcdb53a9	-0.02677329
9	0xbc17d385	-0.009266739
10	0x3d6ea296	0.058260523
11	0xbd8bebb8	-0.06832069
12	0x3cad34c9	0.021143334
13	0x3cb9e466	0.022691917
14	0x3d881e50	0.06646407
15	0xbd9d59f6	-0.07683174
16	0x3d8b5431	0.068031676
17	0x3d42574e	0.04744654
18	0x3d550350	0.052005112
19	0xbda397a6	-0.07987909
20	0x3d820273	0.063481234
21	0x3d29d597	0.04146346
22	0xbd9afb01	-0.075674064
23	0x3da2a5da	0.0794179
24	0x3ce00c0c	0.027349494
25	0x3c8d4e1d	0.017249161
26	0x3d9a8091	0.07544053
27	0xbd32055f	-0.043462154
28	0x3ccfe466	0.025377464
29	0xbcc00af7	-0.023442728
30	0x3d7bf58f	0.06151348
31	0xbd8aa182	-0.067690864

layer2.1.weight f4 [32]
0	0x3f7de149	0.9917188
1	0x3f8160d3	1.0107673
2	0x3f7fe26d	0.99954873
3	0x3f7ee02f	0.99560827
4	0x3f8251d7	1.0181226
5	0x3f8035be	1.0016401
6	0x3f802460	1.0011101
7	0x3f7cece4	0.98798966
8	0x3f7a29e6	0.9772018
9	0x3f8091af	1.0044459
10	0x3f7d8a96	0.9903959
11	0x3f7f5202	0.9973451
12	0x3f8087a5	1.0041395
13	0x3f7f3e00	0.9970398
14	0x3f807a1f	1.0037268
15	0x3f8208b0	1.0158901
16	0x3f80b306	1.0054634
17	0x3f7f5148	0.997334
18	0x3f7e80e1	0.99415404
19	0x3f7e182a	0.9925562
20	0x3f7e5eed	0.99363595
21	0x3f8080ee	1.0039346
22	0x3f7e9cac	0.9945781
23	0x3f7eedef	0.9958181
24	0x3f800d67	1.000409
25	0x3f7f5969	0.99745804
26	0x3f7cc7a1	0.9874211
27	0x3f7d5dde	0.98971355
28	0x3f802ac7	1.0013055
29	0x3f811e70	1.0087414
30	0x3f7bcfb4	0.98363805
31	0x3f80d551	1.0065099

layer2.1.bias f4 [32]
0	0x3b495240	0.003071919
1	0xb9651a58	-0.00021848956
2	0xbbe2c5f2	-0.0069205696
3	0xbb7e0b3f	-0.0038764027
4	0x3b46bba6	0.003032425
5	0xbb2327d3	-0.0024895563
6	0xbb9743f6	-0.004616256
7	0xbc31be19	-0.0108485455
8	0xbc2598c0	-0.010107219
9	0xbc411963	-0.011785838
10	0xbbb80707	-0.005616072
11	0xbb444032	-0.002994549
12	0xba3ef1f9	-0.00072839815
13	0xbc76132c	-0.015019219
14	0xbc4366a4	-0.011926327
15	0x3bcba527	0.006214756
16	0x3b9e5b83	0.0048326864
17	0xbc4f24c1	-0.01264304
18	0xbb9ad13c	-0.0047246497
19	0xbc9180ca	-0.017761607
20	0xbbb58468	-0.0055394657
21	0xbc34ea69	-0.011042216
22	0xbbf37f23	-0.0074309274
23	0x39cc09bf	0.00038917174
24	0xbbb1e971	-0.0054294397
25	0xbbb44ae1	-0.0055020903
26	0xbb80bdee	-0.0039288914
27	0xbc4f7ea8	-0.012664475
28	0xbaff22bf	-0.0019465311
29	0x3c331184	0.010929469
30	0xbbe12728	-0.006871123
31	0x3b7ece7d	0.00388804

layer2.1.running_mean f4 [32]
0	0xbe6b24e0	-0.22963285
1	0xbe4918e7	-0.19638406
2	0x3ee75d46	0.4518835
3	0x3eb5e160	0.3552351
4	0x3e8e35e5	0.27775493
5	0x3d57942b	0.05263154
6	0x3ef622a3	0.480733
7	0x3c7df39d	0.015499976
8	0xbed66296	-0.4187209
9	0x3e993f92	0.29931313
10	0x3e9abb4c	0.3022102
11	0x3ee7dcd5	0.4528567
12	0xbef9aaab	-0.48763022
13	0xbd4d0267	-0.05005112
14	0xbe86749e	-0.26260847
15	0xbe0a9b95	-0.13535912
16	0x3e187d31	0.14891507
17	0x3e0b3fe5	0.13598593
18	0xbefd59c3	-0.49482545
19	0xbf0c3b72	-0.54778206
20	0x3f15ff9e	0.58593166
21	0xbe049ccf	-0.12950443
22	0xbdbc0317	-0.09180277
23	0x3dc51970	0.096239924
24	0x3d77edf3	0.06052966
25	0xbec0b595	-0.37638536
26	0x3f0ea785	0.55724365
27	0x3dad225b	0.084538184
28	0xbe3ae978	-0.18253124
29	0x3e587170	0.21137023
30	0xbec57c63	-0.38571462
31	0xbe95108d	-0.2911419

layer2.1.running_var f4 [32]
0	0x3e38f675	0.18062766
1	0x3dfed319	0.124426074
2	0x3e20d401	0.15705873
3	0x3e0f1d9d	0.1397614
4	0x3d7dc2ec	0.06195347
5	0x3e46e922	0.1942487
6	0x3e39cde1	0.18144943
7	0x3e82cc2f	0.25546405
8	0x3ea7cb4e	0.32772297
9	0x3e0ac5fa	0.13552085
10	0x3e6204cc	0.22072142
11	0x3db46bc3	0.088096164
12	0x3e3953b6	0.1809834
13	0x3e17651c	0.14784664
14	0x3dfe3431	0.124122985
15	0x3db74c01	0.089500435
16	0x3e170a9a	0.14750138
17	0x3df5f449	0.12009484
18	0x3e03e369	0.12879719
19	0x3f01a0b9	0.5063587
20	0x3e4578c0	0.19284344
21	0x3e636fed	0.22210665
22	0x3e8da7e8	0.27667165
23	0x3e10f67c	0.14156526
24	0x3df3e4df	0.11908888
25	0x3dc7bf93	0.09753337
26	0x3e1b54a4	0.15169007
27	0x3e251083	0.1611958
28	0x3eb34c63	0.35019216
29	0x3e0bb9a7	0.1364504
30	0x3e4ceb58	0.20011652
31	0x3dbd74c8	0.0925079

layer3.0.weight f4 [64, 32, 3, 3]
0	0x3c396102	0.011314632
1	0x3c502e56	0.01270636
2	0x3cd6fe10	0.026244193
3	0x3d039452	0.03212387
4	0xbc76d517	-0.015065453
5	0x3cabec41	0.020986678
6	0xbbee9395	-0.0072807767
7	0x3bc202cb	0.005920743
8	0x3c91a65b	0.01777952
9	0xbce74cc2	-0.028234843
10	0xbb92267e	-0.004460155
11	0xbd28a2e7	-0.04117098
12	0xbc52578a	-0.012838254
13	0xbd28ac27	-0.041179802
14	0x3d15b7e7	0.036552336
15	0x3d3ff7fb	0.046867352
16	0xbcf2e52f	-0.029650299
17	0x3cbb387b	0.02285408
18	0x3be9bf3c	0.0071333926
19	0xbd338ed4	-0.043837383
20	0xbc19a493	-0.009377616
21	0xbcb11ee4	-0.021621175
22	0xb9a72e48	-0.00031887204
23	0x3d2b18b2	0.0417716
24	0xbd20fab8	-0.039301604
25	0x3d297283	0.041368973
26	0x3c9a93bf	0.018869279
27	0x3d04ce48	0.032423288
28	0xbc25fb91	-0.010130779
29	0xbd2956a2	-0.041342385
30	0xbd700839	-0.05860159
31	0x3d6c9e09	0.0577679
32	0xbcb5bfd8	-0.022186205
33	0x3d0fb2f9	0.03508279
34	0xbd06c0f1	-0.032898847
35	0xbbe5aaae	-0.007008872
36	0xbc6227c1	-0.013803423
37	0xbd4a6294	-0.049410418
38	0x3d8e50f2	0.06949033
39	0xbb9579d5	-0.0045616427
40	0xbd0667db	-0.032813888
41	0x3afeb5d6	0.0019432853
42	0xbd0ee9ba	-0.034890868
43	0xbd5c9ff7	-0.053863492
44	0x3d3d8b06	0.04627516
45	0x3c78ffb2	0.015197681
46	0x39990bf6	0.00029191346
47	0x3c97114b	0.018440863
48	0x3d3ef2a4	0.04661812
49	0x3b6a89b2	0.003578764
50	0xbc7393c2	-0.014866771
51	0xbd79f66f	-0.061026033
52	0x3cc736df	0.024318157
53	0xbd4d62c3	-0.050143015
54	0x3d684d8d	0.056714583
55	0xbcd92833	-0.026508426
56	0xbd27a47a	-0.04092834
57	0xbc3420f8	-0.0109941885
58	0x3ce97709	0.028499143
59	0xbca26610	-0.019824058
60	0x3ce84d3d	0.028357143
61	0x3d25ecd6	0.040509067
62	0xbd076d7c	-0.033063397
63	0x3c2348d0	0.00996609
64	0x3cb3fe24	0.02197177
65	0xbbd71929	-0.0065642786
66	0xbc585813	-0.013204592
67	0x3d3b8d31	0.045788947
68	0xbafcf0cc	-0.0019297837
69	0x3d5ec862	0.05439032
70	0xbd5ad8ab	-0.053429287
71	0x3d063e83	0.03277446
72	0x3bba4d33	0.0056854724
73	0x3ca49274	0.020089366
74	0xbc2700cd	-0.010193062
75	0x3d8aba96	0.0677387
76	0x3cd695b3	0.026194429
77	0xbd24084c	-0.040046975
78	0xbcf7d276	-0.030251723
79	0x3cd5bbf4	0.0260906
80	0x3c5e6f12	0.013576286
81	0x3d027f23	0.03185953
82	0x3d0485f2	0.032354303
83	0x3cbca1dc	0.0230264
84	0xbd081698	-0.033224672
85	0x3c562f5a	0.013072813
86	0x3d7b144e	0.06129866
87	0x3d481aff	0.04885387
88	0xbbb1310e	-0.005407459
89	0x3c825823	0.015911167
90	0x3d7fefec	0.062484667
91	0x3b083e22	0.0020788987
92	0x3c55d2b2	0.013050722
93	0xbceec7ee	-0.029148068
94	0xbd54aba2	-0.051921494
95	0x3d010edd	0.031508315
96	0xbd14613e	-0.03622555
97	0xbd156dbf	-0.036481615
98	0x3c0c1b13	0.008551377
99	0x3d9a4054	0.07531801
100	0xbd870236	-0.065922186
101	0x3d13e8a0	0.03611052
102	0xbd2524ef	-0.040318426
103	0xbd328725	-0.043585915
104	0x3d1b5fbb	0.037933093
105	0xbcd77d2d	-0.026304806
106	0xbd1f10e6	-0.038834475
107	0xbd06fc1a	-0.032955267
108	0xbd3a20d0	-0.04544145
109	0xbbadfdf6	-0.0053098155
110	0xbcab85f8	-0.020937905
111	0x3d2bfc05	0.04198839
112	0x3c893aef	0.016751735
113	0xbc179d25	-0.009253775
114	0xbd2659b5	-0.040612895
115	0x3d554b33	0.05207367
116	0xbcf576b9	-0.029963838
117	0xbc9ecc55	-0.019384542
118	0xbd3de139	-0.046357367
119	0x3af6f328	0.0018840777
120	0xba8a9f62	-0.0010576064
121	0xbd46c694	-0.048529223
122	0xbc28267f	-0.010263084
123	0xbd1c9970	-0.038232267
124	0xbc24485a	-0.010027016
125	0xbca28fb8	-0.019843921
126	0x3d6c038a	0.057620563
127	0xbd4650d6	-0.048416935
128	0xbce5d9ec	-0.028058015
129	0xbd295566	-0.041341208
130	0xbd6ffb20	-0.0585891
131	0xbd4bc91a	-0.049752332
132	0x3d372af9	0.044718716
133	0x3d05b03e	0.03263878
134	0x3ca5de1d	0.020247513
135	0x3d401845	0.046898145
136	0x3c29f0e7	0.010372377
137	0x3d065137	0.032792296
138	0xbcf5adfe	-0.029990193
139	0x3ca0fb04	0.019650944
140	0xbcdaccc8	-0.026708975
141	0x3d83657e	0.064158425
142	0x3bc1580e	0.0059003895
143	0xbd4ce9e3	-0.05002774
144	0x3d8d3e67	0.06896668
145	0x3d877512	0.06614126
146	0xbb1f53bb	-0.0024311382
147	0x3d88bed1	0.0667702
148	0xbd04c2e3	-0.03241242
149	0x3b016e2f	0.0019749512
150	0xbd29eec7	-0.04148748
151	0xbd8bfea0	-0.06835675
152	0xbd172d08	-0.03690818
153	0xbcdb51d7	-0.026772423
154	0x3cf7e3c3	0.030259972
155	0xbc9d5672	-0.01920626
156	0x3bab6111	0.005230077
157	0x3d6408cb	0.055672448
158	0xbd2df8aa	-0.042473473
159	0xbd31b34d	-0.043383885
160	0x3b51a33f	0.0031988171
161	0x3cf67ff1	0.030090304
162	0x3b973eda	0.004615647
163	0x3d1ecf6d	0.038772035
164	0x3b7adcbe	0.0038278545
165	0x3d492974	0.0491118
166	0xbc187d53	-0.009307223
167	0xbd365510	-0.044514716
168	0x3d3ed834	0.046592906
169	0x3d478aad	0.048716236
170	0xbcd8630b	-0.026414415
171	0xbc81d8d9	-0.015850471
172	0x3c3e00f5	0.011596908
173	0xba65eaaf	-0.00087706273
174	0xbbb27364	-0.0054458845
175	0xbd3e8268	-0.046511084
176	0xbd30deda	-0.043181278
177	0xbd097a6b	-0.033564012
178	0xbc7c7853	-0.015409547
179	0xbd1c7937	-0.038201537
180	0xbd1c4ff4	-0.038162187
181	0x3d2c148f	0.042011794
182	0x3d67bb1b	0.056574922
183	0x3c8c479a	0.017123986
184	0x3d4d8c47	0.050182607
185	0x3d695a2c	0.05697076
186	0x3b91a965	0.004445242
187	0x3d5a8acb	0.05335502
188	0x3d645d45	0.05575301
189	0x3c9dc801	0.019260408
190	0x3c87818a	0.016541261
191	0xbc5e4497	-0.013566158
192	0xbd6c7b59	-0.05773482
193	0xbd7d0230	-0.061769664
194	0x3d0312e7	0.03200045
195	0x3ba209a3	0.0049449964
196	0xbd5397e9	-0.051658545
197	0xbd541e1e	-0.051786534
198	0xbd1133c8	-0.035449773
199	0x3bd9dd50	0.006648697
200	0xbcb08af3	-0.021550631
201	0xbb63bb3b	-0.003474905
202	0x3cb4555c	0.022013359
203	0xbc213400	-0.009839058
204	0xbd5c3b02	-0.05376721
205	0xbc89618b	-0.016770145
206	0x3a947ba3	0.001132835
207	0xbc8e2cb6	-0.017355304
208	0xbd601398	-0.054706186
209	0xbd1aba2f	-0.037775215
210	0xbc87327f	-0.01650357
211	0xbd47e15d	-0.048798908
212	0xbbc17cfe	-0.005904793
213	0xbd394184	-0.045228496
214	0x3cc4eb51	0.024037989
215	0x3c1bca85	0.009508734
216	0xbcc13495	-0.023584643
217	0xbd234b44	-0.0398667
218	0xbceba349	-0.028764384
219	0xbc7eddba	-0.015555793
220	0xbcefd997	-0.02927856
221	0x3d015301	0.0315733
222	0x3cae21d5	0.021256367
223	0x3d276eaf	0.04087704
224	0x3c766def	0.015040859
225	0x3d62426b	0.055239122
226	0xbca28922	-0.01984078
227	0x3d2e3c9f	0.04253828
228	0xbcada798	-0.021198079
229	0x3c231545	0.0099538015
230	0x3d4e8ae5	0.05042543
231	0xbd427562	-0.047475226
232	0x3d2cbe69	0.042173777
233	0xbd1a433a	-0.03766177
234	0xbbc8072b	-0.00610437
235	0xbd23a87c	-0.0399556
236	0x3d03b3aa	0.032153763
237	0xbc6362cb	-0.013878535
238	0xbd6204c6	-0.055180334
239	0x3d24751a	0.04015074
240	0xbcf308d1	-0.02966729
241	0x3bf226da	0.0073898854
242	0xbcf6d2ff	-0.030129908
243	0x3c7d890b	0.015474568
244	0x3d1646f5	0.036688764
245	0x3c4cd2a8	0.012501396
246	0xbd274c5d	-0.04084431
247	0xbd43f4ac	-0.04784076
248	0x3c59825d	0.01327571
249	0xbc8444f5	-0.016146163
250	0xbd7372f6	-0.059435807
251	0x3cefb628	0.029261664
252	0x3c32ce61	0.010913462
253	0xbd670e78	-0.056410283
254	0xbd85f5ca	-0.06541021
255	0xbc70e477	-0.014702908

layer3.0.bias f4 [64]
0	0x3ce29dd2	0.027663145
1	0x3d0e5aa5	0.034754414
2	0x3cef55d9	0.02921574
3	0xbb03ba36	-0.0020100004
4	0x3c357995	0.011076351
5	0x3d645423	0.0557443
6	0xbcd46ede	-0.025931772
7	0xbd5ced7c	-0.05393742
8	0x3d59be5e	0.053160064
9	0x3d4c90cf	0.049942788
10	0xba35d868	-0.0006936849
11	0x3a3ff233	0.0007322162
12	0xbd60ef1c	-0.054915532
13	0x3b72931c	0.0037013954
14	0x3d5d11b3	0.053971957
15	0xbd565a00	-0.052331924
16	0xbd4ccb41	-0.049998526
17	0xbcc4da49	-0.024029868
18	0xbd66f733	-0.05638809
19	0x3d25ac1d	0.040447343
20	0x3d452f74	0.048140958
21	0x3c2f36eb	0.010694246
22	0xbd19bfa1	-0.037536267
23	0xbcbcdf55	-0.023055712
24	0x3d6c0493	0.05762155
25	0xbce43724	-0.027858324
26	0x3d24485c	0.04010807
27	0xbc9922cb	-0.018693348
28	0xbd587c6c	-0.052853033
29	0x3c1289b7	0.008943967
30	0xbd601330	-0.0547058
31	0xbd69cdfd	-0.05708121
32	0xbd04bfa7	-0.032409336
33	0xbc4ed15a	-0.0126231555
34	0x3cf63cbc	0.030058257
35	0x3d2fe98f	0.04294735
36	0xbd29beef	-0.041441854
37	0xbab27f04	-0.0013618176
38	0x3c21b069	0.00986872
39	0x3d0af8bd	0.03392862
40	0xbd550b2d	-0.05201261
41	0x3c4a5c1c	0.012351062
42	0xbcdb0473	-0.02673552
43	0xba59a3e7	-0.00083023164
44	0x3ca1174a	0.019664425
45	0xbcf27c86	-0.029600393
46	0xbd239198	-0.03993377
47	0x3d226fc1	0.039657358
48	0x3d57ba6b	0.052668016
49	0xbc2039bc	-0.00977939
50	0x3b1d47cc	0.0023999093
51	0xbd2f0952	-0.042733498
52	0x3cd9b26f	0.026574342
53	0x3d6ca353	0.057772946
54	0xbd3429bc	-0.043985114
55	0xbd423bfd	-0.04742049
56	0xbd4fc5f6	-0.0507259
57	0xbd1ba0c7	-0.037995126
58	0x3b86a668	0.0041091926
59	0xbd34ff49	-0.04418877
60	0xbd0d6384	-0.034518734
61	0xbd42b825	-0.047538895
62	0x3cf4a3f3	0.029863333
63	0xbccbbfaf	-0.024871675

layer3.1.weight f4 [64]
0	0x3f8113bf	1.0084151
1	0x3f82a3ea	1.0206273
2	0x3f7fcd0a	0.9992224
3	0x3f7f853e	0.99812686
4	0x3f7ff221	0.99978834
5	0x3f7e96c8	0.99448824
6	0x3f7faf76	0.9987711
7	0x3f7e2750	0.99278736
8	0x3f800b89	1.000352
9	0x3f7eebfe	0.99578846
10	0x3f7fbbcf	0.9989595
11	0x3f80f1bb	1.007377
12	0x3f7f92fb	0.9983365
13	0x3f800ce8	1.0003939
14	0x3f7ffb92	0.9999324
15	0x3f7ff834	0.999881
16	0x3f81c0c0	1.0136948
17	0x3f808a06	1.0042121
18	0x3f7f51c9	0.9973417
19	0x3f814a3c	1.010078
20	0x3f7f8746	0.99815786
21	0x3f7f5eac	0.9975383
22	0x3f805198	1.00249
23	0x3f7fdeae	0.9994916
24	0x3f7e75b1	0.9939833
25	0x3f7f3c71	0.997016
26	0x3f80b223	1.0054363
27	0x3f7de3f8	0.9917598
28	0x3f7f58bf	0.9974479
29	0x3f818f44	1.0121846
30	0x3f7f8e47	0.99826473
31	0x3f7dd9db	0.99160546
32	0x3f8073ef	1.003538
33	0x3f7f617e	0.99758136
34	0x3f827833	1.0192932
35	0x3f800643	1.0001911
36	0x3f7f0062	0.9960996
37	0x3f7f3e24	0.99704194
38	0x3f7f5d7a	0.9975201
39	0x3f809899	1.0046569
40	0x3f804485	1.002091
41	0x3f804786	1.0021827
42	0x3f7f0905	0.9962314
43	0x3f7f69e0	0.9977093
44	0x3f7f30e8	0.99684
45	0x3f7f674d	0.99767
46	0x3f80a0a5	1.0049025
47	0x3f7e90a1	0.99439436
48	0x3f80e0e1	1.0068628
49	0x3f7f5e82	0.9975358
50	0x3f80056c	1.0001655
51	0x3f7da364	0.9907744
52	0x3f80b3ba	1.0054848
53	0x3f7f2773	0.9966957
54	0x3f803301	1.0015565
55	0x3f801b0b	1.0008253
56	0x3f7c96fb	0.9866788
57	0x3f7f7644	0.99789834
58	0x3f802699	1.0011779
59	0x3f7f6f12	0.99778855
60	0x3f80c62b	1.0060476
61	0x3f805878	1.0026999
62	0x3f801ec3	1.0009388
63	0x3f7f04c5	0.9961665

layer3.1.bias f4 [64]
0	0x3a15ed30	0.00057192426
1	0x3be2534d	0.006906903
2	0xbb24378b	-0.002505752
3	0xbbae5edf	-0.005321368
4	0xbb32c9a8	-0.002728084
5	0xbbb1edba	-0.0054299505
6	0xbb433644	-0.0029786984
7	0xbb91f558	-0.004454296
8	0xbc1d91c1	-0.00961727
9	0xbc202d53	-0.009776431
10	0xba97eafb	-0.0011590415
11	0xb90076d5	-0.000122513
12	0xbb931926	-0.004489082
13	0xbbf94eaf	-0.007608257
14	0xbbba2b62	-0.005681441
15	0xbb16e133	-0.0023022413
16	0x3b585f1f	0.003301568
17	0xbb8b1143	-0.004244001
18	0xbba8a8a9	-0.005147059
19	0x3ad8c4c8	0.0016538138
20	0xbb6c3d3c	-0.003604724
21	0xbc9e7738	-0.019343957
22	0xba3f43dd	-0.0007296184
23	0xbb20373f	-0.0024446992
24	0xbb615346	-0.003438191
25	0xbb6fffda	-0.0036621005
26	0xbb72004f	-0.0036926453
27	0xbbd629fd	-0.006535767
28	0x3b1d077d	0.0023960762
29	0xbb890bde	-0.004182323
30	0xbbeddc3f	-0.0072589214
31	0xbc278063	-0.010223481
32	0xbbddc8e6	-0.0067683337
33	0xbb3cab09	-0.0028788468
34	0x3b0df102	0.0021658544
35	0xbb9d6ff0	-0.0048046038
36	0xbbc4be7b	-0.0060041524
37	0xbb3c6d7d	-0.0028751784
38	0xba18dfeb	-0.0005831706
39	0x3a785927	0.0009473734
40	0x397eea1d	0.00024310542
41	0xb98769e8	-0.00025828113
42	0xba68f63c	-0.00088867894
43	0xbb893913	-0.004187712
44	0xbb97ef23	-0.0046366616
45	0xba855bbf	-0.0010174437
46	0xba3fc79d	-0.00073158165
47	0xba316b37	-0.00067679904
48	0x3b789681	0.0037931504
49	0xbbb2a441	-0.0054517095
50	0xbb82e00d	-0.003993994
51	0xbb6a7f83	-0.003578157
52	0x3ab1c1ce	0.0013561787
53	0xbbce77a6	-0.0063008843
54	0xbb48a93a	-0.0030618445
55	0xbb122ac4	-0.0022303322
56	0xbbf0938f	-0.007341809
57	0xbb2be915	-0.0026231457
58	0xbb67d8db	-0.0035377059
59	0xbaec1500	-0.001801163
60	0x3af199a9	0.0018432635
61	0x3af81c9c	0.0018929425
62	0xba7e306b	-0.0009696546
63	0xbb90d970	-0.004420452

layer3.1.running_mean f4 [64]
0	0xbef7bdb1	-0.4838691
1	0x3e96ae3c	0.29429805
2	0x3e5c124d	0.21491356
3	0xbf253518	-0.6453414
4	0xbd69bc78	-0.057064503
5	0x3d6e9258	0.058245033
6	0xbd5b4da5	-0.053540844
7	0xbf96ace0	-1.1771507
8	0x3e0f54cd	0.13997193
9	0x3e9ad417	0.30239937
10	0x3ee25168	0.44202733
11	0x3eadb599	0.3392761
12	0xbf2a356e	-0.6648778
13	0x3eefc3d4	0.46829093
14	0xbeb85713	-0.36003932
15	0xbe4cd3f3	-0.20002727
16	0xbe59c941	-0.21268179
17	0x3e6d278c	0.23159617
18	0xbf0ca829	-0.5494409
19	0x3f06ed0e	0.52705467
20	0xbcb9500a	-0.022621173
21	0x3f8647da	1.0490677
22	0xbd31654c	-0.043309495
23	0xbe01632c	-0.12635487
24	0xbe50ab81	-0.20377924
25	0xbf392eec	-0.7233722
26	0xbe449cbf	-0.19200419
27	0xbb68ffb1	-0.0035552795
28	0xbf328123	-0.69728297
29	0xbd04f427	-0.032459404
30	0xbe4f7965	-0.20261152
31	0xbee8997a	-0.45429593
32	0xbf50dbdc	-0.8158548
33	0x3eb05164	0.34437096
34	0x3f023b08	0.50871325
35	0xbd9ee392	-0.07758249
36	0x3d4c12e0	0.049822688
37	0x3f3e29bf	0.7428245
38	0xbe09e3de	-0.1346583
39	0x3f4d1475	0.8010934
40	0x3f1a7261	0.6033078
41	0x3fa6cde2	1.303158
42	0x3d57773b	0.05260394
43	0xbe73c035	-0.2380379
44	0xbf32f2aa	-0.69901526
45	0x3e8e946c	0.27847612
46	0xbc5c9256	-0.013462624
47	0xbdc08a2f	-0.094013564
48	0x3f232d75	0.63741237
49	0x3d84a967	0.064776234
50	0xbf05a1ce	-0.5220002
51	0xbf7bc35d	-0.98344976
52	0xbea2f070	-0.31824064
53	0xbe86cb17	-0.2632682
54	0xbef23954	-0.47309363
55	0xbd2c636b	-0.042087
56	0xbecd04eb	-0.40042815
57	0xbeb26b02	-0.34847265
58	0xbe203222	-0.15644124
59	0x3e83bc7b	0.25729737
60	0x3e84c05e	0.25928015
61	0x3e808fdb	0.25109753
62	0xbea4a635	-0.32158056
63	0x3ea49cbb	0.32150826

layer3.1.running_var f4 [64]
0	0x3e5f0008	0.21777356
1	0x3e3af03b	0.18255703
2	0x3e0f98fa	0.140232
3	0x3eb28111	0.34864095
4	0x3e255257	0.16144691
5	0x3e9a4088	0.30127358
6	0x3e48db19	0.19614829
7	0x3ed87e73	0.42283973
8	0x3e366cc2	0.17814925
9	0x3eb559f8	0.35420203
10	0x3e3f6175	0.1868952
11	0x3e5907b2	0.21194342
12	0x3e5a5a5a	0.21323529
13	0x3eb68521	0.35648444
14	0x3eae76c8	0.34074998
15	0x3e8fbd9f	0.28074357
16	0x3e256c41	0.16154577
17	0x3e8eef78	0.27917075
18	0x3e48eafb	0.19620888
19	0x3e2ea304	0.17054373
20	0x3e3873c9	0.18012919
21	0x3f15b080	0.5847244
22	0x3e00d808	0.1258241
23	0x3eb56898	0.3543136
24	0x3ea83326	0.32851523
25	0x3e8acfa5	0.27111545
26	0x3e39ce94	0.1814521
27	0x3e8ead12	0.27866417
28	0x3ecce8eb	0.40021452
29	0x3e1bc011	0.15209986
30	0x3e44a0ca	0.19201961
31	0x3e74958a	0.2388517
32	0x3e5aece6	0.21379432
33	0x3eb25a7f	0.34834668
34	0x3e3068cd	0.17227478
35	0x3e008310	0.12549996
36	0x3e4bf7be	0.19918725
37	0x3e8838fe	0.26605982
38	0x3e1f8e8d	0.15581723
39	0x3e227759	0.1586584
40	0x3e30e289	0.17273916
41	0x3ee42180	0.44556808
42	0x3e743d29	0.23851456
43	0x3e706533	0.23476104
44	0x3ea33bb1	0.31881478
45	0x3e71045e	0.23536822
46	0x3e7c2245	0.24622448
47	0x3e896c49	0.26840428
48	0x3e4b4e29	0.19854034
49	0x3e234a84	0.15946394
50	0x3e902e51	0.28160337
51	0x3ea2b428	0.31778073
52	0x3e044a95	0.12919076
53	0x3ef0a7c7	0.47003004
54	0x3e31072d	0.17287894
55	0x3e2c6238	0.16834342
56	0x3ea33cde	0.31882375
57	0x3f0695c2	0.5257226
58	0x3e348cb1	0.17631795
59	0x3e12076b	0.14260642
60	0x3e714a9d	0.23563619
61	0x3e37f038	0.1796273
62	0x3ef34978	0.4751699
63	0x3e26a2ef	0.16273092

fc.weight f4 [2, 576]
0	0xbcc33360	-0.023828208
1	0xbc14209c	-0.009040978
2	0x3c92624b	0.017869135
3	0x3ceae00d	0.028671289
4	0xbce32157	-0.027725859
5	0xbc9f324b	-0.019433161
6	0x3ccaec63	0.024770921
7	0xbc93d109	-0.018044012
8	0x3c894df9	0.016760813
9	0x3b0de8fc	0.0021653762
10	0xbd131dee	-0.035917215
11	0x3d031a5a	0.032007553
12	0x3ca2a2cb	0.019853016
13	0xbd3acf60	-0.045607924
14	0xbcb9ce50	-0.022681385
15	0xba4a394e	-0.00077142275
16	0xbd332688	-0.04373792
17	0xbc93b27c	-0.018029444
18	0x3cf8389a	0.030300427
19	0xbb04a72a	-0.002024124
20	0x3d2adf45	0.041716833
21	0x3c32c99d	0.010912326
22	0x3d0381dc	0.032106265
23	0xbc07b769	-0.0082834745
24	0xbcac777b	-0.021053066
25	0x3d2021bb	0.039094668
26	0x3d0866c3	0.033301126
27	0x3b9bb23b	0.0047514713
28	0xbd087b1e	-0.03332054
29	0x3d19b930	0.037530124
30	0xbc4b6447	-0.012414045
31	0x3d196822	0.037452824
32	0xbd0b8593	-0.034062933
33	0x3c640e08	0.013919361
34	0xbc31fab8	-0.010862999
35	0xbd0f7853	-0.03502686
36	0x3cbe62cc	0.02324047
37	0xbd089c51	-0.0333522
38	0x3ce97b01	0.028501036
39	0xbc169e7c	-0.009193059
40	0x3cecc7d8	0.028903887
41	0x3cda64e9	0.026659446
42	0xbcbb0111	-0.022827657
43	0x3b5ec374	0.003399101
44	0x3cae5110	0.021278888
45	0xbcc953d6	-0.024576109
46	0x3c45c323	0.01207045
47	0x3c90ac75	0.017660359
48	0xbb70fd7d	-0.0036772185
49	0x3b8de558	0.0043303184
50	0xbd44d2ac	-0.048052475
51	0xbcb6704b	-0.022270342
52	0xbbd4efb6	-0.0064983023
53	0x3b89ea4a	0.0042088376
54	0x3d167f86	0.03674271
55	0x3b078c54	0.0020683007
56	0xbcb93144	-0.0226065
57	0x3d322115	0.04348858
58	0x3c49f917	0.012327454
59	0x3c4babba	0.0124310795
60	0x3ce3cc86	0.027807485
61	0xbc9868af	-0.018604605
62	0xbb76da4e	-0.003766674
63	0xbcf1789b	-0.029476454
64	0x3c5379fc	0.012907501
65	0xbc44484e	-0.011980129
66	0xbc881f4f	-0.016616492
67	0x3cf7e157	0.030258818
68	0x3d05ff57	0.032714214
69	0x3d1eb735	0.03874894
70	0x3ca454d3	0.020059979
71	0x3b5d1f80	0.00337407
72	0xbb6a5dec	-0.0035761548
73	0x3d1d9d07	0.03847983
74	0xbad6d0cf	-0.0016389134
75	0x3c776239	0.015099102
76	0x3cd3eca3	0.025869673
77	0xbb0381c0	-0.002006635
78	0x3ccf4e93	0.025306022
79	0x3c96bddf	0.018401084
80	0xbce91345	-0.028451571
81	0x3cd32229	0.025773125
82	0x3cb66115	0.02226309
83	0x3d0cb333	0.034350585
84	0x3c042285	0.008064871
85	0x3a94a862	0.0011341686
86	0xbd17e2fe	-0.03708171
87	0xbb6e69b8	-0.0036378931
88	0x3c89c14b	0.016815802
89	0xbba18e0e	-0.0049302643
90	0x3bf22d65	0.0073906654
91	0xbd26dab6	-0.040735923
92	0x3d0cfa8c	0.034418628
93	0x3ca4207e	0.020035025
94	0x3d10fa4e	0.03539496
95	0x3c9e8288	0.019349352
96	0xbade7171	-0.0016971064
97	0x3ceb1f08	0.02870132
98	0xbc65419d	-0.013992694
99	0x3ca07f4c	0.01959195
100	0x3b4749f6	0.0030409074
101	0xbc0b506c	-0.008503061
102	0xbc0e0144	-0.008667294
103	0x3d2afac5	0.04174306
104	0xbc08b907	-0.008344895
105	0xbcfb133d	-0.030648822
106	0x3c46ad5c	0.012126293
107	0xbaf419b2	-0.001862338
108	0x3d2903bc	0.041263327
109	0xbac00af8	-0.0014651706
110	0xba929b31	-0.0011185167
111	0x3ac83f9c	0.0015277746
112	0xbcdd6990	-0.027027875
113	0x393940c1	0.00017667098
114	0x3c148d38	0.009066872
115	0xbd27f681	-0.04100657
116	0xbcc654b4	-0.024210311
117	0x3cb6a31b	0.022294572
118	0x3c2c61dc	0.010521378
119	0x3d151478	0.036396474
120	0x3cf61e2e	0.030043688
121	0xbc35ba25	-0.011091744
122	0xbd0b5251	-0.03401405
123	0xbd389585	-0.045064468
124	0xbd2cc595	-0.042180616
125	0x3c27dbd2	0.01024528
126	0x3b30fc8d	0.0027006
127	0xbce720ad	-0.028213823
128	0x3aab323e	0.0013061238
129	0x3caba334	0.020951845
130	0x3c642eb5	0.013927151
131	0x3d0dfa41	0.03466249
132	0x3b21a87c	0.0024667075
133	0x3c024e9d	0.007953313
134	0xbc8f8f43	-0.017524367
135	0x3c3ab790	0.011396304
136	0xbc9215a9	-0.017832594
137	0xbb869503	-0.004107119
138	0x3af73a62	0.0018862004
139	0x3cded2b4	0.02720008
140	0xbcceee4b	-0.025260111
141	0xbd1172fc	-0.03551005
142	0x3cbe7581	0.02324939
143	0x3cda7099	0.026665019
144	0x3c95f3dd	0.01830476
145	0xbcef0788	-0.029178396
146	0xbd2279a9	-0.039666805
147	0x3d1e3f4d	0.038634587
148	0xbd1f5c65	-0.038906474
149	0xbd0831d1	-0.033250634
150	0xbc2d6882	-0.010583999
151	0x3a570b57	0.0008203289
152	0xbcfc1164	-0.030770011
153	0xbcdf6603	-0.027270323
154	0xbc728d62	-0.014804216
155	0xbc6e9dc9	-0.014563986
156	0x3d2fb020	0.042892575
157	0xbd3d6b5e	-0.04624497
158	0xbc46e16c	-0.012138706
159	0x3ce481ef	0.027893988
160	0xbc52c56c	-0.012864452
161	0xbc1f2e34	-0.0097156055
162	0xbd17e815	-0.037086565
163	0xbc4b0cf9	-0.01239323
164	0x3c03bf73	0.0080412505
165	0xbceade15	-0.02867035
166	0x3cbc75bd	0.02300536
167	0x3cba486e	0.022739615
168	0xbbe7dc98	-0.0070758574
169	0xbc87bd5c	-0.016569786
170	0xbc9708ce	-0.018436816
171	0x3a16f68e	0.00057587854
172	0x3ce3a2bc	0.027787559
173	0xbd0861a7	-0.033296254
174	0xbcad6dc8	-0.021170512
175	0xbc7cf40b	-0.015439044
176	0xbd52ea44	-0.051492944
177	0x3cb9c271	0.022675725
178	0x3c55d387	0.01305092
179	0xbc333d1b	-0.010939862
180	0x3bf75090	0.0075474456
181	0xbc97702d	-0.018486107
182	0x3c7b134e	0.015324427
183	0x3d006cc6	0.031353734
184	0x3b71a43e	0.0036871578
185	0xbcc6f34a	-0.024285931
186	0xbccd01b8	-0.025025234
187	0xbcf6772c	-0.030086122
188	0xbd226d7b	-0.03965519
189	0xbc6cb9cb	-0.014448593
190	0x3ce39c81	0.027784588
191	0x3ceb8e85	0.028754482
192	0x3bc48f23	0.0059985085
193	0xbcb3ad15	-0.021933118
194	0xbcc308ef	-0.02380797
195	0xbd21168f	-0.039328154
196	0xbd012c79	-0.031536553
197	0x3c56f2ab	0.01311938
198	0x3d16efb7	0.036849704
199	0x3abb8580	0.0014306754
200	0xbaf2cc07	-0.001852394
201	0x3c24705d	0.010036555
202	0x3c875031	0.01651773
203	0xbca5aea3	-0.020224875
204	0x3d275ddc	0.040860996
205	0xbcce9ba4	-0.0252207
206	0xbcf26599	-0.029589461
207	0x3cf904e6	0.030397844
208	0xbb6fbbdb	-0.0036580476
209	0x3cdbcd13	0.026831185
210	0x3c0c739b	0.008572484
211	0x3d07be6d	0.03314059
212	0x3d2901a4	0.04126133
213	0xbc7363ee	-0.014855368
214	0x3cf0a223	0.029374188
215	0x3d1ab261	0.03776777
216	0xbd294127	-0.0413219
217	0xbcafdf4a	-0.021468777
218	0x3c566741	0.013086141
219	0x3cd30a94	0.02576188
220	0xbc55b781	-0.013044239
221	0xba7b375c	-0.00095831393
222	0xbc987b5a	-0.018613506
223	0xbb965db9	-0.0045888093
224	0xbc3f17d7	-0.011663399
225	0x3bb9f7d0	0.0056752935
226	0x3d0fb7f9	0.03508756
227	0x3cb0296a	0.021504123
228	0xbd1d2011	-0.03836066
229	0x3b8bb253	0.0042632013
230	0xbc07c1b2	-0.008285927
231	0x3a7a1e84	0.00095412903
232	0x3bb6f3b1	0.0055832495
233	0x3bd5062c	0.00650098
234	0xbd04fb48	-0.032466203
235	0x3b7d563c	0.0038656136
236	0xbcd9cf1b	-0.026588013
237	0xbc01f4f5	-0.007931937
238	0xbd11aba5	-0.035564084
239	0x3d2c5775	0.042075593
240	0xbd155137	-0.036454406
241	0xbd0559ca	-0.032556333
242	0x3ce9bd14	0.028532542
243	0xbca6e8b7	-0.020374639
244	0xb9a28086	-0.00030994805
245	0x3d060a5b	0.03272472
246	0x3bcd5746	0.0062665073
247	0x3af9167d	0.0019003894
248	0x3babe757	0.0052460837
249	0xbbe7907a	-0.0070667835
250	0xbb9cd29a	-0.004785848
251	0x3c87bbfe	0.016569134
252	0xbc71270e	-0.014718784
253	0xbd2370b4	-0.039902404
254	0x3befe07a	0.007320461
255	0xbcd4ea5e	-0.025990661

fc.bias f4 [2]
0	0x3c280928	0.010256089
1	0xbc335eee	-0.010947926
