trained_models/pneumoniamnist/model.pth (torch, 106011 bytes, 20 tensors)

layer1.0.weight f4 [16, 1, 3, 3]
0.024780573 -0.06528121 0.14571454 -0.018632272 -0.024788808 0.08767233 -0.030418528 0.18898898
0.32613775 0.30810672 0.15766007 0.060138997 -0.28837058 0.32591453 0.32269523 -0.07428498
-0.22035702 0.27411067 -0.17092513 0.231456 0.004206261 0.057118814 -0.25775012 -0.06183009
-0.024150077 0.24334945 0.059825525 0.08058142 -0.18964277 0.33316663 0.13282527 0.16902167
-0.27848932 -0.09587608 0.20824896 -0.20106141 0.22518182 0.1756771 -0.29559448 -0.27557692
0.04491076 -0.313822 0.31497657 -0.23284058 0.091276504 0.099882945 -0.03190226 -0.19032103
-0.2965747 -0.09301378 -0.21531768 0.21995571 -0.26359457 -0.3470823 0.19913691 -0.18553095
0.08099872 -0.31154984 -0.321122 -0.006338856 -0.11989987 0.27811393 -0.21670145 0.09438535
-0.1659307 -0.06472949 0.07780926 0.18013181 -0.17757706 0.096307024 0.0322927 -0.063426636
0.1131631 -0.12756163 0.31218287 0.15311244 0.25410557 0.10313214 -0.15626745 -0.035110857
0.18412027 0.28022277 0.11879792 0.25676417 -0.1993425 -0.2813111 0.19151889 0.1289053
0.11728769 -0.11210414 -0.26689965 0.26108512 -0.2083366 0.11659607 0.2996646 0.18380547
0.20314012 0.27931538 -0.20829539 0.21843858 -0.005354577 0.3060545 -0.21196786 -0.07935936
-0.08971016 0.29282856 0.2758358 0.03240127 -0.12098391 0.12647364 0.060504813 -0.03313968
-0.3107242 -0.2978349 0.04386485 -0.10562176 0.20076421 0.11710861 -0.10738817 -0.05702242
-0.26524082 0.30236194 0.29485226 -0.11382698 -0.3421096 -0.31524885 -0.074330166 -0.2657125
0.33510333 -0.1946063 0.14838393 0.15830667 0.31994832 -0.20286387 -0.2605471 0.23846431
0.019471405 -0.10875711 -0.038246498 -0.14270264 -0.11449852 0.06210931 -0.046973683 0.14943121
00000000: a100 cb3c 28b2 85bd 3136 153e b5a2 98bc
00000010: e611 cbbc 8d8d b33d 4730 f9bc 5486 413e
00000020: 87fb a63e 2ac0 9d3e a471 213e 4f54 763d
00000030: 4fa5 93be 45de a63e 4f38 a53e b922 98bd
00000040: 45a5 61be 3c58 8c3e ff06 2fbe cd02 6d3e
00000050: add4 893b 6bf5 693d d3f7 83be 8c41 7dbd
00000060: 62d6 c5bc 9930 793e 9c0b 753d df07 a53d
00000070: b731 42be d194 aa3e 5903 083e 0414 2d3e
00000080: 2796 8ebe ae5a c4bd 373f 553e 0be3 4dbe
00000090: 1096 663e b3e4 333e 2958 97be 6b18 8dbe
000000a0: 58f4 373d 47ad a0be 9c44 a13e c36d 6ebe
000000b0: 2def ba3d 6e8f cc3d f2ab 02bd 84e3 42be
000000c0: a4d8 97be 027e bebd 3d7c 5cbe 123c 613e
000000d0: def5 86be c5b4 b1be 8cea 4b3e d3fb 3dbe
000000e0: a8e2 a53d 7683 9fbe 1a6a a4be 2eb6 cfbb
000000f0: 108e f5bd f364 8e3e fce6 5dbe 1b4d c13d
00000100: bde9 29be e590 84bd 765a 9f3d 7974 383e
00000110: c3d6 35be 9e3c c53d 5a45 043d d3e5 81bd
00000120: 0ec2 e73d 849f 02be 6fd6 9f3e 82c9 1c3e
00000130: 201a 823e f236 d33d 9304 20be 67d0 0fbd
00000140: 068a 3c3e 5c79 8f3e 534c f33d 9876 833e
00000150: 7120 4cbe 0208 90be 871d 443e c0ff 033e
00000160: 8734 f03d db96 e5bd 12a7 88be f3ac 853e
00000170: 3156 55be ecc9 ee3d a36d 993e 8037 3c3e
00000180: f703 503e 6d02 8f3e 634b 55be 5dae 5f3e
00000190: 7375 afbb 2db3 9c3e 1a0e 59be 2987 a2bd
000001a0: f6b9 b7bd a0ed 953e 5a3a 8d3e 32b7 043d
000001b0: 6ac6 f7bd 4e82 013e e5d3 773d 79bd 07bd
000001c0: 3e17 9fbe d17d 98be a1ab 333d 3950 d8bd
000001d0: 2295 4d3e a4d6 ef3d 54ee dbbd 5790 69bd
000001e0: a5cd 87be 2fcf 9a3e e0f6 963e 1f1e e9bd
000001f0: fd28 afbe 4c68 a1be 6a3a 98bd 780b 88be
00000200: aa92 ab3e e046 47be f5f1 173e 251b 223e
00000210: 44d0 a33e 8cbb 4fbe 6e66 85be fd2f 743e
00000220: 7f82 9f3c 0cbc debd 5ca8 1cbd a420 12be
00000230: 337e eabd 5566 7e3d 7a67 40bd 7f04 193e

layer1.0.bias f4 [16]
0.074992016 0.052122936 -0.23193842 0.05106926 0.19838127 -0.042402364 -0.32940498 -0.1877306
-0.1113373 -0.2721324 0.22825429 -0.22494869 0.0066655776 -0.14193141 0.20668322 -0.22645786
00000000: 6a95 993d dc7e 553d 4481 6dbe 002e 513d
00000010: 7624 4b3e 1aae 2dbd c5a7 a8be 733c 40be
00000020: cf04 e4bd f054 8bbe 7ebb 693e f358 66be
00000030: eb6a da3b 7856 11be c4a4 533e 92e4 67be

layer1.1.weight f4 [16]
0.99699974 1.0143701 1.0175477 1.0096899 0.9941538 0.9618552 0.9871117 1.0228949
0.9917736 0.9997992 1.0050228 0.96902984 0.9970438 0.9739994 1.016414 1.0198655
00000000: 603b 7f3f e1d6 813f 013f 823f 853d 813f
00000010: dd80 7e3f 243c 763f 5ab3 7c3f 38ee 823f
00000020: e0e4 7d3f d7f2 7f3f 96a4 803f 5712 783f
00000030: 433e 7f3f 0658 793f db19 823f f48a 823f

layer1.1.bias f4 [16]
-0.029931476 -0.003749505 0.035661925 0.0013721886 -0.010100433 -0.04852687 -0.029889314 -0.028740035
-0.025312299 -0.026674865 -0.01763661 -0.028946146 0.003930659 -0.023317734 -0.0016132187 0.03244507
00000000: db32 f5bc 41ba 75bb 3d12 123d 02db b33a
00000010: 497c 25bc 1cc4 46bd 6fda f4bc 3970 ebbc
00000020: bd5b cfbc 3f85 dabc a77a 90bc 7820 edbc
00000030: c2cc 803b d504 bfbc a372 d3ba 1fe5 043d

layer1.1.running_mean f4 [16]
0.16640948 0.17134248 -0.22352128 0.067051955 0.15864567 -0.20209989 -0.41835517 -0.1843593
0.0008952358 -0.20760033 0.32593563 -0.12415328 -0.056569528 -0.21263579 0.20160837 -0.2266631
00000000: 3f67 2a3e 6774 2f3e c3e2 64be 8952 893d
00000010: 0374 223e 46f3 4ebe a632 d6be afc8 3cbe
00000020: 42ae 6a3a 2e95 54be 09e1 a63e 1344 febd
00000030: 73b5 67bd 32bd 59be 6d72 4e3e 5f1a 68be

layer1.1.running_var f4 [16]
0.039490227 0.079102926 0.0020080898 0.0042766174 0.015045461 0.12097916 0.03817605 0.004198116
0.06174754 0.02263288 0.054639056 0.047284722 0.022977637 0.0250649 0.0036864446 0.002371418
00000000: 81c0 213d b700 a23d 289a 033b de22 8c3b
00000010: 3d81 763c ecc3 f73d 7d5e 1c3d 5990 893b
00000020: fdea 7c3d 9768 b93c 34cd 5f3d a0ad 413d
00000030: 993b bc3c e854 cd3c 4798 713b cb69 1b3b

layer2.0.weight f4 [32, 16, 3, 3]
-0.017383335 0.057920765 0.04427466 -0.050207976 -0.080624886 -0.04878797 0.059319716 0.02864248
-0.03583113 -0.05190561 -0.021077441 -0.06544359 -0.016906649 0.028577643 0.032216813 -0.06675003
0.0717488 -0.08004638 0.05107382 -0.09636358 -0.0043149693 -0.0054483856 0.057755604 0.032022312
-0.023734137 0.069316454 -0.04721202 0.092209846 0.07561913 -0.024848877 0.08014874 0.010319264
-0.041608676 0.05047666 0.05556637 0.064394444 -0.08661867 0.029964205 -0.0132390205 -0.08006009
0.04812849 -0.051806103 -0.039200954 0.07869844 0.0049631237 0.040074512 0.012709012 -0.07061727
-0.013469043 0.06756612 -0.054660764 0.07364177 -0.0066111046 0.00089897576 0.052743655 -0.081085615
0.052637354 0.036406536 -0.0053646 0.035072837 0.0028927783 -0.013271522 -0.04776896 -0.05022958
-0.0700414 0.042910162 -0.023902679 -0.04792341 0.0049447003 -0.049763136 0.038730927 0.0044829445
0.04728718 -0.0028194047 0.0018918068 -0.08233555 -0.083495334 -0.08911113 -0.08460653 0.033871435
-0.080534995 -0.037418716 0.049891625 0.052982163 -0.03515434 0.009485691 -0.074998975 -0.029871386
0.013674394 0.006072742 0.0055216686 -0.08144669 -0.004873743 -0.025702015 -0.062448055 -0.041384347
0.018179968 0.0027233132 0.040109992 -0.037748124 0.018489603 -0.053259898 -0.07021533 0.0033526926
0.018450953 -0.06491587 0.043112636 0.00057473325 -0.020688027 -0.050733753 0.00072270853 -0.037735257
0.028398314 -0.06262657 -0.012365375 -0.04905109 0.051004432 -0.053995032 -0.050851736 0.041629627
0.07538123 0.014774747 -0.057473537 -0.07485646 0.07270486 0.052228633 0.075276054 -0.01648605
0.07093247 -0.020150699 -0.042617403 0.017710716 -0.04094505 0.07241203 -0.012757406 0.04135556
-0.0085692955 0.079312675 0.04887672 -0.0694371 -0.035826914 -0.02240331 0.054970272 -0.062476166
0.021514036 0.0035362856 -0.026645496 -0.027004102 0.020411411 -0.03947366 0.0083721625 -0.07449415
-0.0596099 -0.023376353 0.025315467 0.041511394 -0.021717248 0.020773921 -0.010682939 -0.07198212
0.0918432 -0.07554221 0.08666628 -0.009211237 -0.008183031 0.01839 -0.019946966 -0.009539704
0.062913604 0.07296226 -0.023680536 -0.056091774 -0.005076558 0.023887623 -0.00520155 0.012468051
0.007673044 -0.03854424 0.116665184 0.072959624 0.029922571 0.015029249 0.023034275 0.046129376
-0.030633627 0.008744754 0.07366655 0.0010409587 -0.024080426 -0.058590293 -0.007858577 -0.054685324
0.004537479 -0.09259907 0.06903302 0.011354903 -0.073579036 -0.024578735 0.015921095 0.028928714
-0.05976947 -0.09646884 0.040869005 0.014513567 0.0628904 -0.08254127 -0.049918864 -0.021285135
0.058615603 0.06587843 -0.081547685 -0.047924478 0.07994043 -0.060488783 -0.07928397 0.040320404
0.025672603 0.05788667 0.001411047 0.08292931 0.009550709 -0.023667037 -0.052324668 -0.023608347
-0.06823499 0.07113124 0.011411438 0.0094280075 0.029806007 0.09205065 -0.027405737 0.008407123
-0.009686855 -0.07226931 -0.011949961 0.07059629 0.05169777 0.02011528 0.09845249 0.06663763
0.045651436 -0.012008887 -0.09486064 -0.0077902633 -0.071007684 -0.041236088 0.037466567 0.06254542
-0.014428902 0.053419713 -0.077025205 0.034133274 0.0721482 0.09146587 0.04202145 0.047936477
00000000: 7f67 8ebc 533e 6d3d 5959 353d e1a6 4dbd
00000010: a91e a5bd e5d5 47bd 3bf9 723d a2a3 ea3c
00000020: aac3 12bd fa9a 54bd 99aa acbc 4a07 86bd
00000030: d07f 8abc a91b ea3c c7f5 033d 3db4 88bd
00000040: 09f1 923d 5bef a3bd c832 513d 455a c5bd
00000050: 9664 8dbb 5f88 b2bb 2491 6c3d d429 033d
00000060: 186e c2bc c9f5 8d3d 6461 41bd 84d8 bc3d
00000070: 34de 9a3d df8f cbbc 0625 a43d 2112 293c
00000080: dc6d 2abd 9dc0 4e3d 9099 633d 3ce1 833d
00000090: 2165 b1bd 7e77 f53c 7ae8 58bc 8bf6 a3bd
000000a0: 6122 453d a332 54bd 2e91 20bd a62c a13d
000000b0: b3a1 a23b 2c25 243d 7639 503c ca9f 90bd
000000c0: 43ad 5cbc 1b60 8a3d f7e3 5fbd 7fd1 963d
000000d0: f7a1 d8bb 3ea9 6b3a bb09 583d 3710 a6bd
000000e0: 449a 573d 051f 153d 87c9 afbb 89a8 0f3d
000000f0: c494 3d3b cc70 59bc 63a9 43bd 88bd 4dbd
00000100: de71 8fbd 91c2 2f3d 8dcf c3bc 564b 44bd
00000110: 2707 a23b 6ed4 4bbd 52a4 1e3d aae5 923b
00000120: 34b0 413d c3c5 38bb 81f6 f73a 8a9f a8bd
00000130: 9aff aabd e57f b6bd 3046 adbd c6bc 0a3d
00000140: 88ef a4bd 5e44 19bd 295b 4c3d d303 593d
00000150: fffd 0fbd df69 1b3c 1099 99bd d6b4 f4bc
00000160: 910a 603c dafd c63b 1def b43b 86cd a6bd
00000170: ebb3 9fbb 088d d2bc 88c9 7fbd a282 29bd
00000180: 28ee 943c 9d79 323b 604a 243d c79d 1abd
00000190: 8277 973c 0d27 5abd 0ecd 8fbd d9b8 5b3b
000001a0: 7426 973c 9df2 84bd e096 303d b2a9 163a
000001b0: f079 a9bc 32ce 4fbd 2674 3d3a 4990 1abd
000001c0: 95a3 e83c 5c42 80bd 2498 4abc cce9 48bd
000001d0: 06ea 503d e529 5dbd e949 50bd d483 2a3d
000001e0: 7961 9a3d c811 723c 5f69 6bbd 584e 99bd
000001f0: 49e6 943d b1ed 553d 552a 9a3d c10d 87bc
00000200: 0b45 913d 1413 a5bc 968f 2ebd 1016 913c
00000210: ffb5 27bd c24c 943d 7004 51bc 7364 293d
00000220: 3b66 0cbc af6e a23d f532 483d 0a35 8ebd
00000230: 3ebf 12bd 2587 b7bc 8228 613d 02e7 7fbd
00000240: 343e b03c 07c1 673b a847 dabc b537 ddbc
00000250: d535 a73c 22af 21bd 652b 093c 6490 98bd
00000260: 8329 74bd c47f bfbc 6262 cf3c da07 2a3d
00000270: 5fe8 b1bc 122e aa3c 7e07 2fbc 5d6b 93bd
00000280: 4a18 bc3d e0b5 9abd 177e b13d baea 16bc
00000290: 1f12 06bc a0a6 963c d267 a3bc 6b4c 1cbc
000002a0: d9d8 803d 3d6d 953d affd c1bc 7dc0 65bd
000002b0: 4159 a6bb faaf c33c c471 aabb cc46 4c3c
000002c0: 296e fb3b 91e0 1dbd 28ee ee3d db6b 953d
000002d0: 2e20 f53c 3d3d 763c 60b2 bc3c 28f2 3c3d
000002e0: 5ff3 fabc 2846 0f3c 7dde 963d c770 883a
000002f0: 5044 c5bc 60fc 6fbd 43c1 00bc b8fd 5fbd
00000300: 22af 943b 95a4 bdbd 2f61 8d3d ea09 3a3c
00000310: 9bb0 96bd 5859 c9bc f56c 823c e9fb ec3c
00000320: d5d0 74bd 7591 c5bd 4266 273d 50ca 6d3c
00000330: afcc 803d 660b a9bd b977 4cbd 2a5e aebc
00000340: ea16 703d 45eb 863d 7902 a7bd 754c 44bd
00000350: cfb7 a33d 16c3 77bd a25f a2bd 0227 253d
00000360: 5a4f d23c 931a 6d3d e1f2 b83a d8d6 a93d
00000370: 947a 1c3c 60e1 c1bc 6452 56bd 4b66 c1bc
00000380: c9be 8bbd 41ad 913d 0af7 3a3c ee77 1a3c
00000390: ba2b f43c 0d85 bc3d ff81 e0bc 08be 093c
000003a0: 9db5 1ebc ef01 94bd c5c9 43bc ca94 903d
000003b0: 0ac1 533d cdc8 a43c 76a1 c93d 4f79 883d
000003c0: 00fd 3a3d ecc0 44bc 4c46 c2bd 7745 ffbb
000003d0: 7a6c 91bd 2ce7 28bd 8b76 193d d017 803d
000003e0: 3467 6cbc a1ce 5a3d 64bf 9dbd 55cf 0b3d
000003f0: 6fc2 933d 7552 bb3d af1e 2c3d 0a59 443d

layer2.0.bias f4 [32]
-0.024356604 0.078883514 -0.059677083 0.061756067 -0.048792705 0.04048336 0.036473945 0.019560875
-0.05975159 0.047357585 0.019635197 -0.010968056 -0.0034193478 -0.01937315 0.07385816 0.06127843
-0.018242355 0.014739667 -0.021403369 0.07939202 0.038624432 0.029081484 0.017884545 -0.004422616
-0.023791712 -0.03394993 0.080676965 0.07195893 -0.08452208 -0.08146288 -0.024059456 0.038535774
00000000: 8087 c7bc ae8d a13d f56f 74bd eef3 7c3d
00000010: dcda 47bd e1d1 253d b465 153d 213e a03c
00000020: 15be 74bd 07fa 413d fed9 a03c 5cb3 33bc
00000030: 2317 60bb 71b4 9ebc f242 973d 17ff 7a3d
00000040: fe70 95bc a57e 713c 1e56 afbc 4998 a23d
00000050: a734 1e3d 4b3c ee3c 9c82 923c 98eb 90bb
00000060: d6e6 c2bc 150f 0bbd f739 a53d 345f 933d
00000070: ea19 adbd 03d6 a6bd 5618 c5bc b0d7 1d3d

layer2.1.weight f4 [32]
0.9720231 1.005335 1.0002723 1.0280656 1.0169814 1.011056 0.9530135 0.97704005
1.0364469 0.9995434 1.0220805 1.0148911 0.98933786 1.0111827 0.99047637 0.9879234
1.028609 0.9735817 1.0079651 1.0181512 1.0007603 0.9866422 1.0059218 1.0231298
0.9725237 1.0081509 0.98270994 0.99844134 0.9937067 0.98644894 0.984998 0.978309
00000000: 82d6 783f d1ae 803f ec08 803f a797 833f
00000010: 722c 823f 486a 813f b1f8 733f 4c1f 7a3f
00000020: 4baa 843f 14e2 7f3f 89d3 823f f4e7 813f
00000030: 3f45 7d3f 6f6e 813f dc8f 7d3f 8ce8 7c3f
00000040: 76a9 833f a63c 793f 0005 813f c752 823f
00000050: ea18 803f 9594 7c3f 0cc2 803f ebf5 823f
00000060: 50f7 783f 170b 813f e192 7b3f da99 7f3f
00000070: 9063 7e3f eb87 7c3f d428 7c3f 7572 7a3f

layer2.1.bias f4 [32]
-0.030739948 -0.002547762 -0.039022345 0.022217 -0.013878144 -0.03609106 -0.061300006 -0.02687385
-0.0006943565 -0.01943052 -0.017721092 -0.0512149 -0.0015165753 0.008879226 -0.03212846 -0.043222625
-0.053927697 -0.06250005 -0.04181596 -0.010180219 -0.010099906 -0.014353684 -0.022674326 -0.008230845
-0.049449675 -0.051987704 0.010059657 -0.00847253 -0.018949276 -0.011736834 0.025343236 -0.06655915
00000000: 58d2 fbbc 5af8 26bb e5d5 1fbd 6d00 b63c
00000010: 2861 63bc 38d4 13bd b715 7bbd 8c26 dcbc
00000020: 7a05 36ba c12c 9fbc d32b 91bc b7c6 51bd
00000030: d3c7 c6ba 2c7a 113c 2299 03bd 350a 31bd
00000040: 4ae3 5cbd 0700 80bd 3647 2bbd efca 26bc
00000050: 137a 25bc b72b 6bbc 82bf b9bc abda 06bc
00000060: be8b 4abd 0ff1 54bd 42d1 243c 5ed0 0abc
00000070: 833b 9bbc da4b 40bc 9e9c cf3c 2a50 88bd

layer2.1.running_mean f4 [32]
-0.28581846 0.28335902 -0.29101834 0.08701646 -0.4091505 -0.18465176 -0.2097197 0.2733174
-0.6530498 -0.28664312 -0.19097006 -0.4215194 -0.56787694 -0.44131908 0.3687889 -0.077779606
-0.17602666 -0.122478634 0.40086353 -0.41175935 -0.20480408 -0.087260656 -0.5636521 0.018954553
-0.30415395 0.29995078 -0.045533735 0.013403285 -0.5314948 -0.021746436 0.001676077 -0.5891241
00000000: cc56 92be 6f14 913e 5b00 95be b035 b23d
00000010: 2d7c d1be 5a15 3dbe c3c0 56be 42f0 8b3e
00000020: 462e 27bf e3c2 92be a88d 43be 64d1 d7be
00000030: 6260 11bf 93f4 e1be e6d1 bc3e ea4a 9fbd
00000040: 5540 34be 14d6 fabd fc3d cd3e 1fd2 d2be
00000050: 29b8 51be b7b5 b2bd 814b 10bf 9446 9b3c
00000060: 11ba 9bbe 2693 993e 9581 3abd 7499 5b3c
00000070: 0b10 08bf 9525 b2bc d0af db3a d6d0 16bf

layer2.1.running_var f4 [32]
0.09756561 0.1592784 0.11983254 0.12231842 0.09672662 0.12235167 0.29043525 0.10458379
0.23733456 0.15407994 0.2149278 0.22582354 0.28614688 0.14909652 0.16815588 0.18883042
0.119702436 0.1853352 0.19020858 0.09874045 0.07571034 0.11198706 0.18917552 0.06108745
0.6845974 0.12761725 0.7620254 0.11373949 0.2854052 0.12923905 0.121061996 0.23638284
00000000: 7bd0 c73d e019 233e c36a f53d 1482 fa3d
00000010: 9b18 c63d 8393 fa3d eeb3 943e 0730 d63d
00000020: d507 733e 22c7 1d3e 0916 5c3e 493e 673e
00000030: d881 923e c2ac 183e 0e31 2c3e c35c 413e
00000040: 8d26 f53d 83c8 3d3e 0ac6 423e 6f38 ca3d
00000050: 060e 9b3d 7959 e53d 3ab7 413e d536 7a3d
00000060: c641 2f3f 19ae 023e 1914 433f 40f0 e83d
00000070: a120 923e 3e57 043e 5aef f73d 580e 723e

layer3.0.weight f4 [64, 32, 3, 3]
-0.025419734 -0.019206654 -0.027934836 -0.013265209 -0.042760625 -0.050879013 0.0023364872 -0.019320268
0.014206973 0.048115965 0.009881346 -0.029898182 -0.043788534 -0.05059382 0.017120996 -0.03755675
-0.0155176185 -0.007241644 0.04810547 0.0413596 -0.031572774 0.00895517 0.047930367 -0.031164972
-0.015847648 -0.061996408 -0.049587984 -0.044625558 -0.06794174 -0.018165503 -0.03965153 -0.008165594
-0.025420476 -0.018111018 0.05345189 0.057925306 -0.05706179 0.010883145 -0.021873258 -0.036682554
0.03918101 -0.05825695 0.02218096 -0.0059998697 -0.04481912 0.04056886 -0.0012487728 -0.048092574
-0.00880167 0.048708223 -0.030528136 0.06649602 0.018153755 0.04309315 0.026267799 -0.018192843
-0.013807655 0.025619151 -0.0019451546 0.013037235 0.03348586 -0.026681568 0.005795483 -0.034357257
-0.026295416 0.03251162 -0.04608664 0.04639458 0.008024703 0.015697032 -0.048735943 -0.056026414
0.030692738 0.046517216 0.0031902015 0.005852983 -0.050002757 0.057020094 0.046369214 0.03660898
-0.0048691686 0.044827815 -0.044194955 -0.00922274 0.014459952 -0.062239476 0.027415462 0.01930212
-0.015456412 0.04462461 -0.019800814 -0.015623886 -0.008194193 -0.019498387 0.04423786 0.029340263
0.054767072 0.019586055 -0.044129454 0.056790024 0.0050825435 -0.0086186705 -0.01192673 -0.038878053
0.029401608 -0.004845816 -0.07101758 -0.030147016 -0.013561174 0.014182911 -0.062413283 0.06760692
-0.05212748 -0.016865766 -0.014433789 0.04299371 0.026812086 0.022420743 -0.07205283 -0.03827075
-0.029408233 0.0070471982 0.0076241503 0.03518233 -0.020849422 0.05715375 0.042282246 0.022490349
-0.03016711 0.053070683 -0.017126018 -0.055409856 0.053293742 -0.012259489 -0.05218271 -0.030293709
-0.02540461 0.041657418 0.039222676 0.037196677 0.048241314 -0.056263845 0.008013734 -0.0267886
-0.029923327 0.02039343 -0.03813766 -0.05407822 -0.05215724 -0.050415233 -0.0129985185 0.021242632
0.024875162 -0.03498914 0.061857596 -0.005637965 -0.02010174 0.05723906 0.060816523 -0.02363705
-0.023585882 -0.00978871 -0.023625525 0.025336137 0.038689345 0.0132857645 0.056823503 0.00035490998
-0.049094107 -0.06535237 0.0030598808 -0.03016794 0.021188743 -0.04377819 -0.044883788 0.002583325
-0.040893435 -0.035624776 -0.03954827 -0.028360767 -0.0019083694 -0.06839754 -0.016715422 0.002580284
-0.028105412 0.01609548 0.037085716 -0.056676134 0.050371535 0.0492873 0.0407926 0.0266966
-0.0065122596 0.014798406 0.0520766 -0.005439251 0.043888915 0.032738294 -0.08249929 -0.009495224
0.042215426 0.008651136 -0.01155311 0.01082945 0.007824526 0.029672353 0.05050648 0.081245944
0.035993736 -0.017757267 0.06776375 -0.02185813 -0.03132727 0.068655916 0.036646735 -0.0734124
-0.010847435 0.0028120142 0.0051089674 -4.718223e-05 0.040847242 0.06541301 -0.027521007 0.0641786
0.06297243 -0.03277398 -0.022028774 0.024553478 0.04037304 -0.037819024 -0.017481778 0.022840157
0.029545369 -0.049777966 -0.02275094 0.011358771 0.049657002 -0.047491405 -0.04302915 0.0057636485
0.064286694 0.035526138 -0.056147985 -0.019501729 -0.054605737 0.01932244 -0.007521192 -0.0027855518
0.04831944 -0.015452407 0.049794693 -0.0067380434 -0.014620003 -0.02748391 -0.007836246 -0.06208775
00000000: 0c3d d0bc 4657 9dbc 99d7 e4bc 5256 59bc
00000010: c425 2fbd 8366 50bd c01f 193b 8a45 9ebc
00000020: 5dc4 683c 3f15 453d 5ee5 213c 08ed f4bc
00000030: 9b5b 33bd 773b 4fbd 5541 8c3c 1bd5 19bd
00000040: 9c3d 7ebc 504b edbb 3e0a 453d af68 293d
00000050: 7452 01bd b5b8 123c a252 443d af4d ffbc
00000060: edd2 81bc f2ef 7dbd c51c 4bbd 4ac9 36bd
00000070: 0a25 8bbd d2cf 94bc a569 22bd fcc8 05bc
00000080: 9a3e d0bc 8f5d 94bc 5ef0 5a3d 1643 6d3d
00000090: a0b9 69bd 384f 323c 8c2f b3bc 7240 16bd
000000a0: 447c 203d d79e 6ebd d8b4 b53c 8e9a c4bb
000000b0: 4194 37bd 882b 263d ddad a3ba b8fc 44bd
000000c0: e134 10bc 4682 473d 2416 fabc 112f 883d
000000d0: 2fb7 943c 7182 303d 912f d73c 2809 95bc
000000e0: 8139 62bc 41df d13c 8ff4 feba 209a 553c
000000f0: 7828 093d 4e93 dabc 09e8 bd3b 32ba 0cbd
00000100: 7c69 d7bc e82a 053d 58c5 3cbd 3e08 3e3d
00000110: 0b7a 033c 1097 803c 579f 47bd f47b 65bd
00000120: 566f fb3c d688 3e3d b312 513b 61ca bf3b
00000130: b1cf 4cbd e78d 693d a5ed 3d3d 4cf3 153d
00000140: 8c8d 9fbb 5f9d 373d c505 35bd fa1a 17bc
00000150: 6fe9 6c3c d2ee 7ebd 6496 e03c 7b1f 9e3c
00000160: e43c 7dbc 4cc8 363d 5135 a2bc 54fb 7fbc
00000170: f040 06bc 15bb 9fbc c232 353d fe5a f03c
00000180: 7053 603d ef72 a03c 16c1 34bd a89c 683d
00000190: 778b a63b 5335 0dbc 5568 43bc 983e 1fbd
000001a0: a4db f03c a7c9 9ebb aa71 91bd e0f6 f6bc
000001b0: b02f 5ebc 715f 683c 12a5 7fbd 7f75 8a3d
000001c0: a083 55bd 132a 8abc b37b 6cbc 2c1a 303d
000001d0: 05a5 db3c b5ab b73c 6f90 93bd cac1 1cbd
000001e0: 89e9 f0bc 2fec e63b 02d4 f93b 591b 103d
000001f0: 68cc aabc 0d1a 6a3d 2630 2d3d ae3d b83c
00000200: 0421 f7bc a560 593d dd4b 8cbc 72f5 62bd
00000210: 8a4a 5a3d 06dc 48bc 8abd 55bd 832a f8bc
00000220: 541d d0bc f8a0 2a3d f5a7 203d 8b5b 183d
00000230: af98 453d eb74 66bd 094c 033c c473 dbbc
00000240: c421 f5bc 1f10 a73c 3c36 1cbd 2081 5dbd
00000250: d5a2 55bd 3480 4ebd bdf7 54bc 0705 ae3c
00000260: ffc6 cb3c c650 0fbd 645e 7d3d aebe b8bb
00000270: 67ac a4bc 8173 6a3d bf1a 793d 7da2 c1bc
00000280: 2e37 c1bc d360 20bc 518a c1bc bb8d cf3c
00000290: b878 1e3d 89ac 593c c3bf 683d 3613 ba39
000002a0: e716 49bd 77d7 85bd 4888 483b c122 f7bc
000002b0: 0494 ad3c c250 33bd 10d8 37bd 004d 293b
000002c0: e07f 27bd 49eb 11bd 5efd 21bd d754 e8bc
000002d0: 4022 faba 0214 8cbd c8ee 88bc fb19 293b
000002e0: 523d e6bc abda 833c 31e7 173d 3c25 68bd
000002f0: 6252 4e3d 7be1 493d 2416 273d d4b2 da3c
00000300: cb64 d5bb 0375 723c 464e 553d bf3b b2bb
00000310: ddc4 333d 9718 063d 63f5 a8bd db91 1bbc
00000320: 15ea 2c3d 7fbd 0d3c 4149 3dbc 016e 313c
00000330: 7132 003c 6f13 f33c e2df 4e3d 4664 a63d
00000340: 2b6e 133d b077 91bc b9c7 8a3d d20f b3bc
00000350: 0651 00bd 799b 8c3d e31a 163d 3e59 96bd
00000360: 71b9 31bc c549 383b 2069 a73b 89e5 45b8
00000370: 704f 273d 42f7 853d bc73 e1bc 1270 833d
00000380: b0f7 803d 023e 06bd b075 b4bc 6024 c93c
00000390: 335e 253d 1fe8 1abd f235 8fbc 481b bb3c
000003a0: 2109 f23c fbe3 4bbd 2e60 babc 231a 3a3c
000003b0: 2465 4b3d 5986 42bd 563f 30bd fddc bc3b
000003c0: bea8 833d db83 113d 6efb 65bd 17c2 9fbc
000003d0: 44aa 5fbd 184a 9e3c 5574 f6bb ce8d 36bb
000003e0: 9bea 453d 182c 7dbc 85f5 4b3d ceca dcbb
000003f0: bd88 6fbc f025 e1bc 9963 00bc b94f 7ebd

layer3.0.bias f4 [64]
0.024354544 -0.04724445 0.0136357965 -0.017731266 -0.010495907 0.053304095 -0.002209347 0.031096658
0.007162303 -0.0005415498 0.023749806 0.0048116394 -0.0150050195 -0.038577083 0.035468325 -3.1300944e-05
-1.86585e-05 0.0049519497 -0.046843156 -0.004072856 0.003970624 -0.042558745 0.03112339 -0.0045540575
-0.021003729 0.051120535 0.048294824 0.031396195 -0.031862814 -0.05221321 -0.0050073485 -0.013765084
-0.006514724 0.019575171 -0.030387457 0.044823565 0.010680823 0.00041671685 0.048703168 0.035436068
0.05334691 -0.048778735 0.056683455 -0.052193496 -0.01142383 0.050067753 0.02582204 -0.055175304
-0.022044403 -0.03879697 -0.008460796 0.040356666 -0.007835659 -0.0017098043 0.013851586 -0.018141797
-0.02649769 0.06195248 -0.051739555 -0.015399246 -0.03987495 0.03416917 0.030255847 -0.048881803
00000000: 2e83 c73c 6583 41bd ad68 5f3c 2941 91bc
00000010: 06f7 2bbc 6555 5a3d b1ca 10bb 6bbe fe3c
00000020: c1b1 ea3b cbf6 0dba f48e c23c f5aa 9d3b
00000030: 9dd7 75bc 0103 1ebd 3c47 113d 2249 03b8
00000040: d384 9cb7 f743 a23b 9cde 3fbd 9875 85bb
00000050: 021c 823b 1452 2ebd 7bf6 fe3c 343a 95bb
00000060: 0310 acbc c463 513d cbd0 453d 4c99 003d
00000070: 9582 02bd 85dd 55bd af14 a4bb f286 61bc
00000080: 7779 d5bb 1c5c a03c 1eef f8bc ea98 373d
00000090: 9efe 2e3c ca7a da39 f97c 473d 6925 113d
000000a0: 4a82 5a3d 36cc 47bd e92c 683d d9c8 55bd
000000b0: 042b 3bbc d813 4d3d be88 d33c 80ff 61bd
000000c0: 7796 b4bc 92e9 1ebd 279f 0abc 084d 253d
000000d0: 2361 00bc 831b e0ba c3f1 623c 1b9e 94bc
000000e0: af11 d9bc e2c1 7d3d dbec 53bd 1e4d 7cbc
000000f0: ea53 23bd f9f4 0b3d 1cdb f73c 4938 48bd

layer3.1.weight f4 [64]
1.0215567 1.0257753 1.0697197 1.0345389 1.043153 1.0461613 1.0547918 1.035672
1.040203 1.0357027 1.0096773 1.0994858 1.0595496 1.0273414 1.0312215 1.0296242
1.0357574 1.067236 1.0451099 1.0031114 1.0287033 1.0295012 1.0613524 1.0132172
1.0202812 1.0661037 1.0791383 1.0009211 1.0318525 1.0145968 1.044609 0.9994703
1.0115714 1.0506346 1.0384218 1.0289305 1.0025595 1.0407945 1.0707729 1.0515009
1.0486175 1.0215559 1.0729014 0.99944675 1.0380523 1.0349253 1.1242958 1.0182834
1.0271269 1.0200499 0.9987767 1.0053936 1.0048912 1.0157593 1.0290798 1.0195901
1.0774796 1.103972 1.0200301 1.0177056 1.0217886 1.057493 1.0659683 1.0180587
00000000: 5fc2 823f 9b4c 833f 93ec 883f c56b 843f
00000010: 0a86 853f 9de8 853f 6b03 873f e690 843f
00000020: 5f25 853f e891 843f 1b3d 813f f3bb 8c3f
00000030: 529f 873f ec7f 833f 11ff 833f baca 833f
00000040: b393 843f 309b 883f 29c6 853f f465 803f
00000050: 8dac 833f b2c6 833f 65da 873f 1ab1 813f
00000060: 9398 823f 1676 883f 3421 8a3f 2f1e 803f
00000070: be13 843f 4fde 813f bfb5 853f 49dd 7f3f
00000080: 2c7b 813f 327b 863f 01eb 843f ffb3 833f
00000090: df53 803f c138 853f 160f 893f 9597 863f
000000a0: 1939 863f 58c2 823f d554 893f bedb 7f3f
000000b0: e6de 843f 6f78 843f ede8 8f3f 1c57 823f
000000c0: e578 833f ff90 823f d4af 7f3f bdb0 803f
000000d0: 46a0 803f 6704 823f e3b8 833f ee81 823f
000000e0: daea 893f f44e 8d3f 5990 823f 2d44 823f
000000f0: f8c9 823f ee5b 873f a671 883f bf4f 823f

layer3.1.bias f4 [64]
0.012393413 0.0025263608 -0.0052453866 0.009188433 0.011410667 0.008562989 -0.0029056864 0.012637623
0.003740601 0.0120728295 -0.0064873123 0.023385527 -0.009417504 0.010551151 0.010305782 0.003982756
0.008658799 0.00809476 -1.0361624e-05 0.011293899 0.0038326373 -0.0019548188 -0.0073086335 0.0051585967
-0.002954598 0.017188359 -0.0014335624 -0.01474985 -0.0075339107 -0.0036455651 0.010056283 -0.008133193
-0.0032874125 -0.0077528832 -0.008575078 -0.004480067 -0.009359728 -0.013463718 -0.00236209 0.008139233
-0.0026248666 0.012358065 0.031632897 -0.007492227 0.006162581 0.009368011 0.0034858126 -0.006758291
0.005190546 -0.0034227814 0.021191284 0.006115441 -0.010980441 -0.005081206 -0.0036895943 0.002641855
0.017643034 0.018060418 0.0097981 -0.010220438 0.014368689 0.014857828 0.01864314 0.009506722
00000000: be0d 4b3c 4d91 253b 7ee1 abbb 158b 163c
00000010: cef3 3a3c c74b 0c3c 546d 3ebb 080e 4f3c
00000020: df24 753b 1ecd 453c 8593 d4bb 0193 bf3c
00000030: e04b 1abc bcde 2c3c 95d9 283c c781 823b
00000040: a3dd 0d3c e29f 043c d6d6 2db7 0c0a 393c
00000050: fc2c 7b3b 6b1c 00bb 437d efbb 7209 a93b
00000060: eea1 41bb 9ace 8c3c 5fe6 bbba 5ba9 71bc
00000070: 06df f6bb 6fea 6ebb 1cc3 243c 1541 05bc
00000080: a171 57bb e60b febb 7c7e 0cbc 87cd 92bb
00000090: 8b59 19bc ed96 5cbc 4bcd 1abb 6b5a 053c
000000a0: f405 2cbb 7b79 4a3c 7f91 013d 5b81 f5bb
000000b0: 7aef c93b 497c 193c 3b72 643b a774 ddbb
000000c0: 7515 aa3b be50 60bb 5899 ad3c 0a64 c83b
000000d0: 4fe7 33bc 3f80 a6bb 1fcd 71bb f922 2d3b
000000e0: 2088 903c 71f3 933c 3688 203c a073 27bc
000000f0: a66a 6b3c 3f6e 733c 80b9 983c 15c2 1b3c

layer3.1.running_mean f4 [64]
-0.42674884 -0.3642042 0.17885087 -0.0072910436 -0.4734234 -0.05725319 -0.39997208 -0.2710342
-0.062460877 -0.79879856 0.5626644 0.2826147 0.08333778 -0.92193 -0.19569619 -0.35003448
-0.21596755 0.10020237 0.5475312 -0.23474666 -0.30753517 0.32979593 0.07940169 -0.66820085
0.26522052 0.4465273 -1.1291709 0.3603445 0.057411004 0.25302446 0.099531874 0.22225997
-0.6441443 0.14318942 -0.53181696 0.1922717 0.11207054 -0.5015288 0.12243133 -0.17537433
-0.19310233 -0.21469873 0.032323457 0.63364166 0.22099103 -0.53593075 -0.18936966 0.099269114
-0.32630974 0.5797076 0.27872545 -0.4268525 0.3175109 0.10630358 0.14738747 0.04065346
-0.24097376 -0.17054352 -0.505595 -0.09231887 -0.07012586 -0.40123385 0.3042807 -0.87452793
00000000: d37e dabe f978 babe af24 373e b5e9 eebb
00000010: 8d64 f2be 5282 6abd 24c9 ccbe ffc4 8abe
00000020: fad6 7fbd 107e 4cbf c60a 103f e0b2 903e
00000030: ffac aa3d 9b03 6cbf 9564 48be b837 b3be
00000040: 9926 5dbe e636 cd3d 012b 0c3f 6e61 70be
00000050: 4075 9dbe 03db a83e 5a9d a23d 360f 2bbf
00000060: fcca 873e 3a9f e43e ac88 90bf 137f b83e
00000070: cd27 6b3d 6c8c 813e 5ed7 cb3d 1e98 633e
00000080: a4e6 24bf 3fa0 123e 2825 08bf dfe2 443e
00000090: 3d85 e53d 3164 00bf 47bd fa3d 5495 33be
000000a0: 9ebc 45be fcd9 5bbe 9a65 043d 5736 223f
000000b0: 794b 623e c232 09bf 1fea 41be 9b4d cb3d
000000c0: 1212 a7be b867 143f 1ab5 8e3e 698c dabe
000000d0: ca90 a23e b1b5 d93d beec 163e 3e84 263d
000000e0: d3c1 76be f6a2 2ebe ad6e 01bf ad11 bdbd
000000f0: 269e 8fbd 866e cdbe aeca 9b3e 10e1 5fbf

layer3.1.running_var f4 [64]
0.15010263 0.21006648 0.195771 0.1566507 0.22383115 0.11020905 0.12805669 0.102062285
0.15172501 0.32800758 0.16194628 0.12448501 0.1954267 0.26173007 0.0975318 0.1676065
0.103395194 0.097148396 0.10513575 0.14168783 0.19477409 0.11403495 0.17518249 0.24046576
0.1259542 0.17552581 0.18449953 0.19670103 0.10238486 0.20820047 0.13749571 0.13655575
0.18693598 0.12723036 0.13539135 0.18390015 0.1099987 0.21249308 0.11522912 0.22065958
0.16394442 0.17731726 0.14870736 0.20607212 0.13851693 0.13388707 0.1441059 0.1062684
0.18490562 0.18170714 0.17972769 0.23414719 0.14374961 0.17088065 0.10141846 0.22342105
0.112025715 0.13387859 0.23640853 0.11406881 0.166928 0.15006201 0.13449034 0.2788966
00000000: 81b4 193e ab1b 573e 3178 483e 0b69 203e
00000010: fe33 653e 48b5 e13d 4b21 033e 0806 d13d
00000020: cd5d 1b3e 9cf0 a73e 3fd5 253e fff1 fe3d
00000030: f01d 483e 7c01 863e c1be c73d 0aa1 2b3e
00000040: dcc0 d33d bdf5 c63d 6951 d73d 9d16 113e
00000050: dc72 473e 288b e93d 0a63 333e a83c 763e
00000060: 23fa 003e 0abd 333e 72ed 3c3e ff6b 493e
00000070: 27af d13d 8132 553e adcb 0c3e 45d5 0b3e
00000080: 256c 3f3e ad48 023e 08a4 0a3e 5250 3c3e
00000090: 0047 e13d c997 593e 3ffd eb3d 96f4 613e
000000a0: 0ce1 273e a892 353e be46 183e 9204 533e
000000b0: 62d7 0d3e b119 093e 7f90 133e 3fa3 d93d
000000c0: e657 3d3e 7011 3a3e 890a 383e 48c4 6f3e
000000d0: 1933 133e 56fb 2e3e 7bb4 cf3d 7dc8 643e
000000e0: bd6d e53d 7817 093e 1415 723e e99c e93d
000000f0: 2cef 2a3e dba9 193e d6b7 093e 89cb 8e3e

fc.weight f4 [2, 576]
-0.012626762 -0.051532403 0.016943803 -0.043674067 0.011293809 0.004671005 -0.0058053043 -0.0055352557
0.023492381 0.0026680762 -0.021440493 0.034866933 -0.045712788 0.053445958 0.012050538 -0.04881676
0.002758516 -0.031491388 -0.023812728 0.009667232 0.04073692 0.019665945 0.028720584 0.028427137
-0.027698854 -0.03293957 0.06064186 0.029373985 -0.004550738 -0.04636051 0.026657403 -0.033384617
-0.021835783 -0.015374598 0.026846442 -0.024588414 0.0060149147 0.014049887 -0.00049158 -0.023437103
-0.025372319 -0.04607675 -0.06283728 -0.029032666 -0.09564782 -0.027773935 0.05290485 -0.04655815
-0.027835656 -0.030493744 0.037947983 -0.05486089 0.008676952 0.016735442 0.03127545 -0.025502946
-0.02277401 0.045467246 -0.023184042 -0.03176713 0.029987732 -0.009232302 0.054203674 -0.04235536
-0.07356851 0.034561202 -0.035818476 0.04053339 0.038007617 0.0035108202 -0.022945488 -0.023559118
0.009844206 0.046908725 -0.05886288 0.023527173 0.0032744193 -0.03624979 -0.008619925 0.04611541
0.061149348 -0.04917063 -0.059825677 -0.04747474 -0.022657854 -0.054460734 -0.0629435 -0.056114107
-0.0016652052 -0.013040169 0.032294348 -0.0053298296 0.017657643 -0.022552662 0.018850924 -0.026703628
0.042410374 0.028608598 -0.03457207 -0.05495726 -0.021068357 0.028646765 -0.02952295 0.029155338
-0.064319946 -0.015049965 0.06468817 0.09405994 0.0014457109 0.04577014 0.012978845 0.00992332
0.015935497 -0.039225288 -0.04627905 -0.029938448 -0.018132726 -0.0412345 -0.056642234 0.01787313
-0.029514514 -0.031272236 0.007372083 -0.08303493 -0.060214024 -0.0228566 -0.06731093 -0.0049847234
0.013394752 -0.0049124993 0.005847258 -0.041006707 -0.011271719 0.0077258316 -0.021196498 0.030418338
-0.05333466 -0.038819503 0.0011760652 -0.021907033 -0.061496496 0.040114503 0.008120851 -0.065610565
0.04580032 0.041760605 -0.049287017 0.028177965 -0.012147602 -0.06473121 -0.042397946 -0.044053372
-0.011024408 -0.006276566 0.023950376 -0.04291518 -0.04752288 0.030888949 -0.0012807074 0.04556289
-0.054659504 0.014981779 -0.026878286 0.005378219 -0.0014474258 0.0147749465 0.01783556 -0.004864205
-0.00057577185 0.06789519 -0.0072715925 -0.032184657 -0.019888991 -0.03488074 -0.030747266 0.004993739
0.018326152 -0.019870264 0.016259804 -0.003686226 -0.035072006 -0.034454912 0.014932312 0.041455388
0.004338939 -0.043808244 -0.0011351459 -0.0057410463 0.009924328 -0.026522724 0.021708604 -0.016816828
0.020510428 -0.035863306 0.0078760525 -0.014568488 0.06336522 0.063340716 -0.036345057 0.016455097
-0.050489087 0.04891664 0.013353 -0.06886454 -0.048084103 0.028455537 -0.022113184 0.018223027
-0.04428129 0.0066777556 -0.015923617 -0.028689386 -0.031656433 -0.02085895 -0.010331162 -0.032192353
-0.006612148 0.009549935 -0.012484072 -0.003881519 -0.010133455 0.044008255 -0.013896596 -0.0025468643
0.02245278 -0.0136616565 0.041494608 -0.025330434 -0.00998614 0.029644907 0.009204624 0.018876284
0.0019207674 -0.070901334 -0.009163661 0.02011889 -0.07313718 0.054673452 -0.012042726 -0.015242885
-0.033344958 -0.02398727 -0.05696592 -0.030350873 0.011212556 0.020955808 0.011819942 0.022342073
0.013825843 -0.0076041427 -0.010044112 -0.01203949 0.033906665 0.039158233 -0.00036755842 -0.03287507
00000000: 7ae0 4ebc a413 53bd bbcd 8a3c 94e3 32bd
00000010: ab09 393c 3b0f 993b 6c3a bebb 1761 b5bb
00000020: 1873 c03c e4da 2e3b f9a3 afbc a1d0 0e3d
00000030: 553d 3bbd 26ea 5a3d 9f6f 453c 15f4 47bd
00000040: 38c8 343b 1dfd 00bd e912 c3bc 4f63 1e3c
00000050: c2db 263d 7a1a a13c 6e47 eb3c 07e0 e83c
00000060: b5e8 e2bc a4eb 06bd 9963 783d b6a1 f03c
00000070: 5b1e 95bb 85e4 3dbd a060 da3c 4fbe 08bd
00000080: f5e0 b2bc bde5 7bbc 12ed db3c a46d c9bc
00000090: c318 c53b 7f31 663c 60dd 00ba 2bff bfbc
000000a0: 9cd9 cfbc f9ba 3cbd d5b0 80bd ead5 edbc
000000b0: 01e3 c3bd 2a86 e3bc c2b2 583d c2b3 3ebd
000000c0: 9a07 e4bc 04ce f9bc 586f 1b3d d0b5 60bd
000000d0: c629 0e3c c418 893c b01a 003d 8eeb d0bc
000000e0: 9090 babc dd3b 3a3d 76ec bdbc 401e 02bd
000000f0: d5a8 f53c 1543 17bc ac04 5e3d d07c 2dbd
00000100: 16ab 96bd 0c90 0d3d 65b6 12bd 5706 263d
00000110: e0ad 1b3d ca15 663b 2df8 bbbc 0dff c0bc
00000120: 9849 213c 5d23 403d 341a 71bd 0fbc c03c
00000130: a497 563b a97a 14bd 963a 0dbc 83e3 3c3d
00000140: bd77 7a3d 2467 49bd c50b 75bd df74 42bd
00000150: f79c b9bc 3812 5fbd 86e8 80bd e8d7 65bd
00000160: 0443 daba 6fa6 55bc 1447 043d daa5 aebb
00000170: c3a6 903c 5cc0 b8bc 416d 9a3c 91c1 dabc
00000180: 80b6 2d3d 945c ea3c 719b 0dbd dd1a 61bd
00000190: 8c97 acbc 9fac ea3c 1dda f1bc 2dd7 ee3c
000001a0: 2dba 83bd 2194 76bc 3b7b 843d 7fa2 c03d
000001b0: 027e bd3a 7879 3b3d 39a5 543c 6c95 223c
000001c0: 298b 823c b2aa 20bd 1a8f 3dbd 7a41 f5bc
000001d0: 158b 94bc 82e5 28bd b001 68bd ac6a 923c
000001e0: 6cc8 f1bc 5117 00bd 8491 f13b 380e aabd
000001f0: fba2 76bd c43d bbbc 50da 89bd e456 a3bb
00000200: a975 5b3c 08f9 a0bb 5b9a bf3b a6f6 27bd
00000210: 04ad 38bc f928 fd3b 47a4 adbc e12f f93c
00000220: 7275 5abd 3301 1fbd 3326 9a3a 6176 b3bc
00000230: c0e3 7bbd 1b4f 243d 510d 053c d55e 86bd
00000240: 1e99 3b3d 2b0d 2b3d 2fe1 49bd 7ad5 e63c
00000250: bc06 47bc cc91 84bd 78a9 2dbd 4f71 34bd
00000260: b89f 34bc a7ab cdbb 9433 c43c d4c7 2fbd
00000270: 5aa7 42bd d20a fd3c 69dd a7ba 27a0 3a3d
00000280: a5e2 5fbd 2376 753c da2f dcbc c53b b03b
00000290: 8db7 bdba 9e12 723c e11b 923c e963 9fbb
000002a0: 65ef 16ba a20c 8b3d 8a46 eebb 0fd4 03bd
000002b0: 3dee a2bc 1bdf 0ebd b1e1 fbbc 85a2 a33b
000002c0: ba20 963c f7c6 a2bc 4833 853c 9c94 71bb
000002d0: aaa7 0fbd 9820 0dbd a8a6 743c 20cd 293d
000002e0: a92d 8e3b 4670 33bd 2dc9 94ba 631f bcbb
000002f0: a699 223c 2f46 d9bc 3ed6 b13c 72c3 89bc
00000300: 7c05 a83c 67e5 12bd 8f0a 013c abb0 6ebc
00000310: a0c5 813d c7b8 813d 8ede 14bd d7cc 863c
00000320: a5cd 4ebd d15c 483d 8bc6 5a3c da08 8dbd
00000330: d6f3 44bd 961b e93c b526 b5bc 7548 953c
00000340: 4c60 35bd 13d1 da3b 3f72 82bc 0106 ebbc
00000350: 2daa 01bd 64e0 aabc 0944 29bc 21dc 03bd
00000360: b8aa d8bb 5577 1c3c fe89 4cbc 1561 7ebb
00000370: ca06 26bc 0042 343d 8cae 63bc 4be9 26bb
00000380: e4ee b73c 24d5 5fbc 40f6 293d c581 cfbc
00000390: e89c 23bc e0d9 f23c fece 163c 70a2 9a3c
000003a0: 42c2 fb3a b834 91bd 2e23 16bc 5fd0 a43c
000003b0: f2c8 95bd 45f1 5f3d db4e 45bc 4bbd 79bc
000003c0: b994 08bd f480 c4bc 1955 69bd 65a2 f8bc
000003d0: deb4 373c 84ab ab3c 6ea8 413c b906 b73c
000003e0: ca85 623c 2c2c f9bb 0f90 24bc 4841 45bc
000003f0: b7e1 0a3d 6264 203d dbb4 c0b9 02a8 06bd

fc.bias f4 [2]
0.017598983 0.0020622343
00000000: be2b 903c 8d26 073b
