trained_models/chestmnist/model.pth (torch, 133659 bytes, 20 tensors)

layer1.0.weight f4 [16, 1, 3, 3]
0	0xbdfe4e09	-0.12417228
1	0xbe5ff06b	-0.21869056
2	0x3e24f74a	0.16109958
3	0xbd97cf29	-0.074125595
4	0xbe895412	-0.26821953
5	0xbc2ad21e	-0.010426072
6	0x3ecd1916	0.40058202
7	0x3e89a64a	0.2688468
8	0xbe1aac18	-0.15104711
9	0xbe2b58da	-0.16733113
10	0xbe33748b	-0.17524926
11	0x3db679f7	0.08909982
12	0xbe89da97	-0.26924583
13	0x3e9cc96e	0.3062243
14	0x3e742c5f	0.23845051
15	0xbe333832	-0.17501906
16	0x3e1befa3	0.15228133
17	0x3e61247b	0.21986572
18	0xbe868922	-0.262765
19	0x3dd78f34	0.10525361
20	0xbe9ccc75	-0.30624738
21	0xbdcccb26	-0.09999685
22	0x3e1fb6a1	0.15597011
23	0xbd5a9a5a	-0.053369857
24	0x3e15f2b2	0.14643362
25	0x3e3e66f1	0.18593957
26	0x3e48eff9	0.19622792
27	0xbe881e60	-0.26585674
28	0xbe3cb9cd	-0.18430252
29	0x3e00f6d6	0.1259416
30	0xbe415cd4	-0.18883067
31	0x3e13763c	0.14400572
32	0x3dd68060	0.10473704
33	0xbe1f365a	-0.15548077
34	0x3e325650	0.17415738
35	0x3eb2e473	0.34939918
36	0xbe5b56e8	-0.21419871
37	0xbe8ee3e7	-0.2790825
38	0x3d528af1	0.051402036
39	0x3ca3ca45	0.01999391
40	0x3e184523	0.14870124
41	0x3e35688a	0.1771566
42	0xbe6e026b	-0.2324311
43	0xbe92cf2a	-0.2867368
44	0xbbcd0b49	-0.006257449
45	0x3ec79df3	0.38987693
46	0x3dcb8380	0.09937191
47	0xbe8e8f41	-0.2784367
48	0xbe8c55d1	-0.27409223
49	0xbc207a98	-0.009794854
50	0x3e439d9c	0.19103092
51	0x3b5e4596	0.0033915988
52	0xbdbe9726	-0.09306173
53	0xbe2135b6	-0.15743145
54	0xbd476478	-0.0486798
55	0x3e8cab82	0.274746
56	0xbeb79d7b	-0.35862336
57	0x3d9bb7d9	0.076034255
58	0xbe5dd65e	-0.21663806
59	0x3e88f6a0	0.2675066
60	0xbeb42198	-0.3518188
61	0x3e16c837	0.14724813
62	0xbdf69174	-0.12039462
63	0xbe40ccc3	-0.1882811
64	0xbe8f5189	-0.27991894
65	0xbe584364	-0.21119457
66	0xbe0efb26	-0.13962993
67	0x3ea37347	0.31923887
68	0xbd94a3b3	-0.07257786
69	0x3e6da6aa	0.23208109
70	0x3da1644c	0.07880458
71	0x3e876c98	0.26450038
72	0x3ebfbf2b	0.37450537
73	0x3ecd7a81	0.40132526
74	0xbba81ae7	-0.00513016
75	0xbe547a2b	-0.20749728
76	0xb9ac8677	-0.0003290658
77	0x3dfe51d9	0.12417955
78	0x3e54fd17	0.20799671
79	0xbebe09cd	-0.37116852
80	0xbd20175d	-0.03908478
81	0xbe49bf82	-0.1970196
82	0xbe3b1fbc	-0.18273824
83	0x3d2e155e	0.042500846
84	0x3e2ae3c9	0.16688456
85	0x3dc92f4c	0.09823474
86	0x3c3183f0	0.010834679
87	0x3dd79fc9	0.105285235
88	0xbb67a296	-0.0035344712
89	0xbc14b362	-0.009075971
90	0x3e7b8632	0.2456291
91	0x3df76dc2	0.120814815
92	0x3e2b7a83	0.16745953
93	0x3e6ca0fa	0.23108283
94	0xbe892d92	-0.2679258
95	0xbde299b6	-0.11064474
96	0xbe81022c	-0.2519697
97	0xbe7541c5	-0.2395087
98	0x3e41ba9f	0.18918847
99	0x3e17a269	0.14808048
100	0x3db606d9	0.08888025
101	0xbe810e73	-0.25206336
102	0x3e880e6a	0.26573497
103	0x3e884c95	0.26620927
104	0xbea8a0b5	-0.3293511
105	0xbc89b18a	-0.01680829
106	0x3e21acf0	0.15788627
107	0xbe862171	-0.2619739
108	0xbd287800	-0.041130066
109	0xbdd032f1	-0.10165966
110	0x3e52d5e1	0.20589401
111	0xbe3beb01	-0.18351366
112	0xbe6570b2	-0.22406271
113	0x3e7fcf7e	0.24981496
114	0x3e53a2cd	0.20667572
115	0x3e640468	0.22267306
116	0xbeacfea3	-0.33788022
117	0xbe3eb69a	-0.18624344
118	0xbe67979f	-0.22616433
119	0x3ec02b27	0.37532923
120	0x3e81907d	0.25305548
121	0x3e6cf9f4	0.23142225
122	0xbb9ded81	-0.0048195724
123	0xbe0ab8cd	-0.13547058
124	0xbe762ba5	-0.24040087
125	0xbe239b48	-0.15977204
126	0xbca50b9a	-0.020147134
127	0x3db77f12	0.089597836
128	0x3e5075b4	0.203574
129	0x3ddac442	0.106819645
130	0xbeb82d12	-0.35971886
131	0x3e104519	0.14088859
132	0x3e90e5a4	0.28300202
133	0xbea7a6b1	-0.32744363
134	0xba4f81eb	-0.00079157826
135	0x3e511fe5	0.20422323
136	0xbe437ac8	-0.19089806
137	0x3d9eaa2e	0.07747303
138	0x3e8f0924	0.2793666
139	0x3e3507c6	0.17678747
140	0x3ecb1716	0.3966605
141	0x3dc0d4e4	0.09415606
142	0xbd74c71c	-0.059760198
143	0x3e1899b1	0.14902379

layer1.0.bias f4 [16]
0	0x3e0866d4	0.13320476
1	0x3e8a7634	0.27043307
2	0xbe2c7ffd	-0.16845699
3	0xbe8255f4	-0.25456202
4	0x3e9012ee	0.28139442
5	0x3d81a2d4	0.06329885
6	0x3d826819	0.06367511
7	0x3e9b0522	0.30277354
8	0x3cf3f512	0.029779945
9	0xbe8c231e	-0.27370542
10	0x3e5059ff	0.20346831
11	0x3e23389c	0.15939564
12	0xbe03df1a	-0.12878075
13	0xbeb2b546	-0.34903926
14	0xbe164435	-0.14674456
15	0xbe13c150	-0.14429212

layer1.1.weight f4 [16]
0	0x3f8eaf47	1.114724
1	0x3f94ba41	1.161934
2	0x3f72deae	0.9487103
3	0x3f8ad9bb	1.0847696
4	0x3f56fcdd	0.8397959
5	0x3f6a63c4	0.9155848
6	0x3f5c8755	0.86144
7	0x3f8ce887	1.1008462
8	0x3f62ade9	0.88546616
9	0x3f713bbb	0.94231766
10	0x3f86fd0d	1.0545975
11	0x3f9b5ecc	1.2138305
12	0x3f89fae9	1.0779697
13	0x3f6c42bb	0.9228932
14	0x3f5b6685	0.8570331
15	0x3f611a77	0.8793101

layer1.1.bias f4 [16]
0	0xbd34135a	-0.043963768
1	0x3d5bb200	0.05363655
2	0x3c0203d2	0.007935481
3	0x3dc71036	0.09719889
4	0xbe411634	-0.18856126
5	0xbd990780	-0.07472134
6	0xbe2ea194	-0.17053825
7	0x3db91b3c	0.09038398
8	0xbd90648d	-0.070504285
9	0x3df72971	0.12068451
10	0x3e487658	0.19576395
11	0xbdce1306	-0.10062222
12	0x3d963c3f	0.0733571
13	0x3cd841b5	0.026398519
14	0x3d165cb5	0.036709506
15	0xbd238db0	-0.039930046

layer1.1.running_mean f4 [16]
0	0x3e16e34e	0.14735147
1	0x3e8a9e83	0.2707406
2	0xbe254d4d	-0.16142769
3	0xbe7ce016	-0.24694857
4	0x3e925982	0.28583914
5	0x3d696932	0.056985088
6	0x3d7607d2	0.06006605
7	0x3ea2f312	0.31826073
8	0x3c7bfccc	0.015380096
9	0xbe88b7e1	-0.26702788
10	0x3e48d5e3	0.19612841
11	0x3e1aa853	0.15103273
12	0xbe02a3d3	-0.12757806
13	0xbeb4c6ed	-0.35308018
14	0xbe123437	-0.14277731
15	0xbe17fe0f	-0.1484301

layer1.1.running_var f4 [16]
0	0x3c4b47db	0.012407268
1	0x3d39ab84	0.045329586
2	0x3c9789c1	0.018498303
3	0x3d286cd0	0.041119397
4	0x3d9a768a	0.07542141
5	0x3c1ecfdd	0.009693113
6	0x3c8df6c7	0.017329587
7	0x3ccb0616	0.024783175
8	0x3d5f679f	0.05454218
9	0x3b94277e	0.0045213094
10	0x3c6de6f8	0.014520399
11	0x3d294e1e	0.041334264
12	0x3b337147	0.002738075
13	0x3c1cef47	0.009578533
14	0x3c017a05	0.007902627
15	0x3e6106cd	0.2197525

layer2.0.weight f4 [32, 16, 3, 3]
0	0xbd13611b	-0.03598128
1	0xbd0f2ed6	-0.034956776
2	0xbcc1d0fb	-0.02365922
3	0x3e06a7b6	0.13149914
4	0x3dc9046b	0.09815296
5	0x3d4b6a1d	0.049661744
6	0x3d537283	0.05162288
7	0x3d9362ff	0.071966164
8	0x3d51ec43	0.051250707
9	0x3d641cdf	0.055691596
10	0x3e36ce27	0.17852078
11	0x3ce665a4	0.028124638
12	0x3d956922	0.07295443
13	0x3d4bac35	0.049724776
14	0x3d116882	0.035500057
15	0x3d3dcc60	0.046337485
16	0x3c335bf4	0.010947216
17	0xbe0f5a74	-0.13999349
18	0x3c7eff69	0.015563824
19	0x3d161a7e	0.03664636
20	0xbcad1e9d	-0.021132762
21	0xbd63f420	-0.055652738
22	0x3dbb0054	0.09130922
23	0x3dd6451c	0.104624
24	0xbcb4e3aa	-0.022081215
25	0x3e0c61f8	0.13709247
26	0xbdb0ebb8	-0.0863871
27	0x3db8fe82	0.090329185
28	0x3e43e6e6	0.1913105
29	0xbcb852a8	-0.022500351
30	0x3dd0b153	0.10190072
31	0x3bae9501	0.0053278212
32	0xbdabdb64	-0.08391455
33	0x3e15a1e9	0.14612545
34	0xbd883c09	-0.06652076
35	0xbdc13fc7	-0.09435993
36	0x3d70b25b	0.058763843
37	0x3e2fbf2a	0.17162767
38	0x3d615e1e	0.055021398
39	0x3e0928f9	0.13394536
40	0xbc078a52	-0.008272724
41	0x3cb0ff6d	0.021606172
42	0xbbb5cd9c	-0.005548192
43	0xbc4ff848	-0.012693472
44	0xbdb9eb0a	-0.09078033
45	0x3dce872d	0.100843765
46	0xbd7114e9	-0.058857832
47	0xbd98179b	-0.074263774
48	0xbd5c7ff8	-0.053832978
49	0xbc97fb28	-0.018552378
50	0x3ce0a330	0.027421564
51	0xbd2cb450	-0.042164147
52	0xbe0e0464	-0.13868862
53	0xbe084b0f	-0.13309883
54	0x3e10589c	0.14096302
55	0x3e0f2eab	0.13982646
56	0xbd17b23f	-0.037035223
57	0x3e0248df	0.1272311
58	0x3d2bf678	0.041983098
59	0x3d8fa76f	0.07014357
60	0x3d747997	0.05968627
61	0xbd59b21d	-0.053148378
62	0xbe0f9a50	-0.1402371
63	0x3d817de3	0.06322839
64	0x3bbbf387	0.005735818
65	0x3d2fc693	0.042913985
66	0x3d8ea413	0.069648884
67	0x3baf7738	0.005354788
68	0xbd37bea5	-0.044859547
69	0x3cc74278	0.024323687
70	0x3d3e185b	0.046409946
71	0xbc518482	-0.01278794
72	0xbd52f58e	-0.05150371
73	0xbd245b4f	-0.04012614
74	0xbd207764	-0.03917636
75	0x3d197dc4	0.037473455
76	0xbc0ab1e9	-0.008465269
77	0x3ca16c2c	0.0197049
78	0x3d7f0b7e	0.06226682
79	0x3c94529c	0.018105797
80	0x3c68e79c	0.014215376
81	0xbd04fffc	-0.03247069
82	0x3c7eaf53	0.01554473
83	0x3d1085ff	0.03528404
84	0x3d2b9348	0.041888505
85	0x3d230f96	0.039809786
86	0x3c9a9cd8	0.018873617
87	0xbcbbe402	-0.022935871
88	0x3c8b79fb	0.017025938
89	0x3d6cd056	0.057815872
90	0x3d452d46	0.04813888
91	0xbdf6b317	-0.120458774
92	0xbde0239f	-0.10944294
93	0xbcd63165	-0.0261466
94	0x3d865ca8	0.065606415
95	0xbdb4b040	-0.088226795
96	0xbd0eb5cd	-0.034841347
97	0x3d14bd54	0.03631337
98	0xbd0686e5	-0.03284349
99	0x3d9cb2dc	0.07651302
100	0x3e040106	0.12891015
101	0x3d505061	0.050857905
102	0x3e14bd52	0.14525345
103	0x3c6a87a6	0.014314568
104	0xbe1f2078	-0.1553973
105	0xbd5e8d4d	-0.054333974
106	0xbe0821b1	-0.13294102
107	0xbdcb6e74	-0.09933177
108	0x3ce0b794	0.027431287
109	0x3e6c7498	0.23091352
110	0x3d971888	0.07377726
111	0x3d371f32	0.044707485
112	0x3cb0d695	0.021586696
113	0xbcdb8176	-0.02679513
114	0xbc1a15c9	-0.009404608
115	0x3d38da66	0.045130156
116	0xbd5b214a	-0.053498544
117	0x3d9a9167	0.075472645
118	0x3d3e058e	0.046392016
119	0xb9743a58	-0.00023291388
120	0xbb9d8d17	-0.004808079
121	0x3b6197e2	0.0034422805
122	0xbdb94778	-0.09046835
123	0x3be12538	0.006870892
124	0xbda0e244	-0.07855657
125	0xba9c04fa	-0.0011903339
126	0xbdc3e38a	-0.09564884
127	0xbdde9a1d	-0.108692385
128	0xbc9fafe4	-0.01949305
129	0xbdf384b0	-0.118905425
130	0xbd80dc5c	-0.0629203
131	0xbdbcf01c	-0.09225485
132	0xbda93f94	-0.0826408
133	0xb9d87d1d	-0.00041291947
134	0x3d0b4b10	0.034007132
135	0x3cbd5c55	0.023115316
136	0x3dc02512	0.093820706
137	0x3d8de2d3	0.06928029
138	0x3df7f04c	0.1210638
139	0x3d23bb9f	0.03997385
140	0x3d890275	0.06689922
141	0xbd10a78e	-0.035316043
142	0x3dc97f95	0.098387875
143	0xb995eb9c	-0.00028595037
144	0x3cdf0852	0.027225647
145	0xb9a5c7df	-0.00031620168
146	0xbe4ac3a1	-0.19801189
147	0x3d323089	0.043503318
148	0xbd127c25	-0.035762925
149	0xbcbab13b	-0.022789588
150	0xbc91786d	-0.017757619
151	0x3d8396ae	0.06425224
152	0xbd020a4d	-0.031748105
153	0x3d0175f6	0.031606637
154	0xbd8a7f20	-0.067625284
155	0x3b904baa	0.004403551
156	0x3d604f59	0.05476317
157	0xbdd875c6	-0.105693385
158	0x3dfda222	0.1238444
159	0xbd7069ac	-0.058694527
160	0x3d7e474f	0.062079724
161	0x3e0731ac	0.13202542
162	0xbc26f20c	-0.010189544
163	0x3d95e848	0.07319695
164	0xbd525722	-0.051352628
165	0x3cce1364	0.02515573
166	0xbd789eac	-0.060698196
167	0x3c42ee39	0.011897617
168	0xbda08274	-0.07837382
169	0xbd7a9f7f	-0.061187264
170	0x3db26f82	0.08712675
171	0x3df49569	0.1194256
172	0xbc801b15	-0.015637914
173	0x3c5a3aac	0.0133196525
174	0x3d89c840	0.06727648
175	0xbdb0bf2e	-0.08630215
176	0x3db86cfa	0.09005161
177	0xbd1b68ac	-0.03794162
178	0x3de38497	0.11109274
179	0x3d70e52e	0.058812313
180	0xbbeda543	-0.0072523667
181	0xbdf8fda7	-0.12157755
182	0xbe03fec0	-0.12890148
183	0xbc7293e7	-0.0148057705
184	0xbe1ea166	-0.15491256
185	0xbe07ac98	-0.13249433
186	0x3d5e2f70	0.05424446
187	0xbd9320f1	-0.071840174
188	0xbe2acc54	-0.16679507
189	0xbe0c23ad	-0.13685484
190	0xbe2135a0	-0.15743113
191	0x3d245476	0.04011961
192	0xbdcf5b3c	-0.101248235
193	0xbe217b66	-0.15769729
194	0xbd189603	-0.037252437
195	0x3d2c2b46	0.042033456
196	0xbe1868e9	-0.1488377
197	0xbc3fc047	-0.011703557
198	0xbd19fcef	-0.037594732
199	0xbe20ba8f	-0.15696166
200	0xbccdb510	-0.025110751
201	0xbcda887e	-0.026676413
202	0xbe102422	-0.14076284
203	0xbd89f373	-0.067358874
204	0x3cbdac6d	0.023153508
205	0xbe1ee602	-0.15517429
206	0xbe200b87	-0.15629397
207	0xbd205ab2	-0.039148994
208	0x3c0c01b3	0.008545327
209	0x3d1b6617	0.037939157
210	0xbd82ec6c	-0.0639275
211	0xbe002fa9	-0.12518181
212	0xbe115c45	-0.14195354
213	0xbe0be127	-0.13660108
214	0xbc169657	-0.009191117
215	0xbc50e6c3	-0.01275033
216	0x3da7e51f	0.08197998
217	0x3c913863	0.017727083
218	0xbdcc4201	-0.09973527
219	0xbc289953	-0.010290462
220	0x3d49a640	0.049230814
221	0xbcd9a2dc	-0.026566915
222	0x3bca7ced	0.006179443
223	0xbbb5094f	-0.0055247913
224	0xbd75be3c	-0.059995875
225	0x3da5cf7d	0.08096216
226	0x3c816ca0	0.015798867
227	0x3c7f0c7e	0.015566943
228	0xbc81982b	-0.01581963
229	0xbd3cae6c	-0.04606478
230	0xbca925ef	-0.020647971
231	0xbce5f4c5	-0.028070817
232	0xbdecb66b	-0.11558231
233	0x3d4721f6	0.048616372
234	0x3d4fbaf1	0.05071539
235	0xbda90987	-0.0825377
236	0xbd658a90	-0.056040347
237	0x3d8c1ef5	0.06841842
238	0xbc0ba81a	-0.008523965
239	0xbcaa545a	-0.020792175
240	0x3dce8a29	0.10084946
241	0x3db84c76	0.08998959
242	0xbc8a0943	-0.01685012
243	0xbe32c136	-0.17456517
244	0xbe1bbcde	-0.15208766
245	0x3b222d39	0.0024746193
246	0xbd9ac532	-0.07557143
247	0xbd03683f	-0.03208184
248	0xbdc724ae	-0.09723793
249	0xbe046a59	-0.12931193
250	0xbd7d1897	-0.06179103
251	0xbbc5503b	-0.006021527
252	0x3c669fb7	0.014076165
253	0xbe01ca48	-0.1267482
254	0xbd66faf2	-0.056391664
255	0x3d5af845	0.053459425

layer2.0.bias f4 [32]
0	0x3da8dba4	0.08245018
1	0xbd9eb815	-0.077499546
2	0x3da389b3	0.079852484
3	0x3d99f66c	0.07517704
4	0x3d59a5d7	0.053136673
5	0xbcc54ccb	-0.02408447
6	0xbd1f5e5e	-0.038908355
7	0x3da2b805	0.07945255
8	0xbd842b74	-0.064536005
9	0xbcf3c525	-0.029757092
10	0x3d917077	0.07101529
11	0xbd048a58	-0.032358497
12	0xbd9a7713	-0.07542243
13	0x3ca4add9	0.020102428
14	0x3c8b4dd3	0.017004883
15	0xb939d539	-0.00017722406
16	0xbd95ea9c	-0.07320139
17	0x3cf28342	0.029603604
18	0x3dae5a65	0.08513335
19	0xbcf8bfb5	-0.03036485
20	0xbd042ee3	-0.032271277
21	0xbd9c6c93	-0.076378964
22	0x3d320e6d	0.04347079
23	0x3da3ffd3	0.08007779
24	0xbd3221d3	-0.04348929
25	0x3c19b8d7	0.009382448
26	0xbd1a352d	-0.03764837
27	0x3c11d0f4	0.008899916
28	0x3d795f25	0.060881753
29	0xbd9110f9	-0.070833154
30	0xbd87b104	-0.0662556
31	0xbd0a3aaf	-0.03374737

layer2.1.weight f4 [32]
0	0x3f79ab55	0.97527057
1	0x3f801c3a	1.0008614
2	0x3f840748	1.0314722
3	0x3f77cb67	0.9679474
4	0x3f7e4785	0.9932788
5	0x3f71501b	0.94262856
6	0x3f66178d	0.89879686
7	0x3f4e9591	0.8069697
8	0x3f7b55ab	0.98177594
9	0x3f57bec4	0.8427546
10	0x3f9169da	1.1360428
11	0x3f7cb349	0.9871107
12	0x3f67456b	0.903403
13	0x3f82a0b4	1.0205293
14	0x3f546c68	0.82977915
15	0x3f661388	0.8987355
16	0x3f808d55	1.0043131
17	0x3f88c986	1.06865
18	0x3f862281	1.047928
19	0x3f629ad8	0.8851752
20	0x3f842785	1.032456
21	0x3f7f9695	0.99839145
22	0x3f7b2d34	0.9811585
23	0x3f67dfde	0.9057597
24	0x3f64b523	0.8933889
25	0x3f82553c	1.0182261
26	0x3f8f764e	1.1207979
27	0x3f82b4e7	1.0211457
28	0x3f9108f1	1.1330854
29	0x3f8d33a0	1.103138
30	0x3f87eb2d	1.0618645
31	0x3f80a71c	1.0050998

layer2.1.bias f4 [32]
0	0xbd80abe6	-0.06282787
1	0xbe25ea4c	-0.16202658
2	0xbe2b3f6f	-0.16723417
3	0xbe372028	-0.1788336
4	0xbe45ddff	-0.19322966
5	0xbde4324c	-0.11142406
6	0xbe172aba	-0.14762393
7	0xbe84fd69	-0.25974587
8	0xbe20a382	-0.15687373
9	0xbe62cb94	-0.22147971
10	0xbe006716	-0.12539324
11	0xbe6678ac	-0.2250697
12	0xbe6239ae	-0.22092316
13	0xbe5c7801	-0.21530153
14	0xbeb7230d	-0.3576893
15	0xbd6800d5	-0.05664142
16	0xbe73e5e6	-0.23818168
17	0xbe339866	-0.17538604
18	0xbdf6ef9a	-0.12057419
19	0xbe53cd7b	-0.20683853
20	0xbe862a50	-0.26204157
21	0xbe9797db	-0.29608044
22	0xbe803cdd	-0.25046435
23	0xbe2cffff	-0.1689453
24	0xbdbdb0bd	-0.09262226
25	0xbeab61b2	-0.33472973
26	0xbe209d86	-0.1568509
27	0xbe4c26ac	-0.19936627
28	0xbe6aab8e	-0.22917005
29	0xbe705435	-0.23469622
30	0xbdb39de3	-0.08770349
31	0xbd8d74c6	-0.069070384

layer2.1.running_mean f4 [32]
0	0x3f800a16	1.0003078
1	0xbfe27d87	-1.7694558
2	0xbfa1a20e	-1.262758
3	0xbf18df12	-0.5971538
4	0xbef0ce8a	-0.47032577
5	0xbe0af8b9	-0.13571443
6	0x3fbca55c	1.4737964
7	0x3ed4f13c	0.41590297
8	0x3ec37592	0.38175637
9	0xbf0b2966	-0.54360044
10	0xbea2d1e7	-0.31800768
11	0xbf125daa	-0.5717417
12	0x3e8c94f6	0.27457398
13	0xbfa3306b	-1.2749151
14	0xbf09a55c	-0.53767943
15	0x3d81beeb	0.06335243
16	0xbfc8cd0e	-1.5687578
17	0xbf844c90	-1.0335865
18	0xbf40ae91	-0.7526637
19	0xbf7497c9	-0.95544106
20	0xbf299b0f	-0.66252226
21	0xc021572e	-2.520946
22	0xbf6e6ee0	-0.9313793
23	0xbe352c37	-0.17692648
24	0xbf609808	-0.8773198
25	0xbfe0089b	-1.7502626
26	0xbe6ec308	-0.23316586
27	0xc01f386c	-2.4878187
28	0xbf4752ba	-0.77860606
29	0xbf70effd	-0.94116193
30	0xbe06a899	-0.13150252
31	0xbf3d180a	-0.73864806

layer2.1.running_var f4 [32]
0	0x3fa9d6c6	1.3268669
1	0x4011b0ae	2.2764087
2	0x3fee009f	1.859394
3	0x3f587277	0.8454966
4	0x3f451872	0.76990426
5	0x3fe7f4fb	1.8121637
6	0x3f6e9c71	0.9320746
7	0x3f88db0f	1.0691851
8	0x3f22eb32	0.6364013
9	0x3f731cba	0.9496571
10	0x3eac92a4	0.33705628
11	0x3f4655cd	0.7747467
12	0x3f24ea35	0.6441987
13	0x3f9341a9	1.1504413
14	0x3f2e2ba8	0.68035364
15	0x3f513e20	0.8173542
16	0x3fb417fb	1.4069818
17	0x3f88febe	1.0702741
18	0x3f2116ba	0.62925303
19	0x3fb8230b	1.4385694
20	0x3f3f4110	0.7470865
21	0x3fc789b9	1.5588905
22	0x3fe4ac09	1.7865001
23	0x3f58e68c	0.84726787
24	0x3fa44271	1.2832776
25	0x3fba9030	1.4575253
26	0x3ee5a110	0.44849443
27	0x3fdee123	1.7412456
28	0x3f0f2dad	0.5592907
29	0x3fa42805	1.2824713
30	0x3f717adb	0.9432809
31	0x3f8ba63a	1.0910103

layer3.0.weight f4 [64, 32, 3, 3]
0	0xbd10c77d	-0.035346497
1	0xbce0dd1d	-0.027449185
2	0xbcf3c16b	-0.029755315
3	0x3b50b761	0.0031847584
4	0x3cc655a4	0.024210759
5	0x3d69f26b	0.057115953
6	0xbb156fb8	-0.0022802185
7	0xbcbb98b0	-0.022899956
8	0xbc46e87e	-0.012140391
9	0x3c126b00	0.008936644
10	0x3e0b76dc	0.1361956
11	0xbdde8d20	-0.10866761
12	0x3da7a0fe	0.08185004
13	0x3cc2de69	0.023787694
14	0x3d3e56ca	0.046469487
15	0xbd0fd05d	-0.03511082
16	0xbcca6037	-0.024704082
17	0xbccebfe7	-0.02523799
18	0xbd1808e5	-0.037117857
19	0xbd2d091a	-0.042245008
20	0xbde9add2	-0.11410107
21	0x3d7cad35	0.06168862
22	0xbcfb5df3	-0.030684447
23	0xbdf18ac8	-0.117940485
24	0x3d832175	0.06402866
25	0x3d81e164	0.06341818
26	0xbbf709fa	-0.007539031
27	0x3beed58e	0.0072886413
28	0xbe45fe59	-0.19335307
29	0xbd95a1fa	-0.07306285
30	0x3d243c89	0.040096793
31	0x3d5c8698	0.053839296
32	0xbce0bcac	-0.027433716
33	0xbc9e1f86	-0.01930214
34	0xbd537159	-0.05162177
35	0xbd141003	-0.036148082
36	0xbd5a9d04	-0.053372398
37	0x3cbc5dc3	0.022993928
38	0xbd0bfc1e	-0.034175985
39	0x3c29794f	0.010343864
40	0x3d04a89d	0.032387365
41	0x3e2f5a94	0.17124397
42	0x3cad4399	0.021150397
43	0x3d36d0a5	0.044632573
44	0x3d3411de	0.043962352
45	0x3d88c5b0	0.06678331
46	0x3e085a2a	0.13315645
47	0xbcc7285c	-0.024311237
48	0x3e4f52de	0.20246455
49	0x3d609679	0.054831002
50	0x3d519b65	0.051173586
51	0xbe0682e5	-0.1313587
52	0xb5e2ebe5	-1.6906966e-06
53	0xbce8b0e5	-0.028404662
54	0xbdbec652	-0.0931517
55	0xbcf2771e	-0.029597815
56	0x3c3fb0dd	0.011699882
57	0x3dcf71f6	0.10129158
58	0xbc9b6663	-0.01896972
59	0x3c68b48e	0.014203204
60	0xbcb37dbc	-0.02191054
61	0xbcaf3e5a	-0.021392036
62	0xbdccd27b	-0.100010835
63	0x3dab50f6	0.083650514
64	0xbda165cc	-0.07880744
65	0xbd19d2f7	-0.037554707
66	0x3cb7f7cc	0.022457026
67	0xbcda8e0a	-0.026679058
68	0xbced3116	-0.02895407
69	0x3bdcad56	0.0067345304
70	0xbd1f3a6c	-0.038874075
71	0xbdeb1d3d	-0.11480186
72	0xbceec6d9	-0.029147552
73	0x3da350a6	0.07974367
74	0xbdaec8f7	-0.08534425
75	0x3dd7d6e0	0.10539031
76	0x3d6e89f9	0.05823705
77	0x3c9b513a	0.01895963
78	0xbb6f5af0	-0.0036522709
79	0x3d924cb5	0.07143537
80	0xbd9e766a	-0.077374294
81	0xbd33cedf	-0.04389846
82	0xbd51e985	-0.051248092
83	0x3d186ae7	0.037211325
84	0x3d90601e	0.07049583
85	0xbd7fec08	-0.062480956
86	0x3d6c7fb1	0.057738964
87	0x3d5a144b	0.05324201
88	0xbd7107a6	-0.058845185
89	0xbd1b4d0a	-0.037915267
90	0xbd075f6e	-0.033049993
91	0xbba27d3d	-0.004958777
92	0x3dc2ca23	0.09511211
93	0x3d1ac0dc	0.03778158
94	0xbc8c47ca	-0.017124075
95	0xbd1f7463	-0.038929354
96	0xbc838bd9	-0.016057895
97	0x3c34874d	0.011018586
98	0xbdf40e63	-0.119168065
99	0xbdf93f28	-0.12170249
100	0xb881bfac	-6.186901e-05
101	0x3d03e3d8	0.03219971
102	0x3d004414	0.031314924
103	0x3c97ce95	0.018531123
104	0x3d2016dd	0.039084304
105	0xbe2c07bd	-0.16799827
106	0xbd676af3	-0.05649848
107	0xbe0d75a7	-0.13814412
108	0x3da48f90	0.08035195
109	0x3c22bbdc	0.0099324845
110	0x3d5da426	0.054111622
111	0x3cb8ba6f	0.022549836
112	0x3c391f51	0.01129897
113	0xbdcf4796	-0.10121076
114	0x3ca6c00f	0.020355253
115	0x3d0e6ae1	0.034769896
116	0xbdd3e687	-0.10346704
117	0xbd9dd229	-0.077061005
118	0x3ceba962	0.028767291
119	0xbd84b5ba	-0.06479974
120	0xbd0ff553	-0.03514607
121	0x3cde2a0c	0.027119659
122	0xbc6c73a7	-0.014431871
123	0x3d0eac30	0.03483218
124	0xbe093940	-0.13400745
125	0xbdc2f145	-0.09518675
126	0xbde06ee0	-0.10958648
127	0xbcfb0ffc	-0.03064727
128	0xbcc089b3	-0.02350316
129	0x3d730d2c	0.059338734
130	0x3d91cd45	0.0711923
131	0x3c98c129	0.018646793
132	0xbe1c05b1	-0.15236546
133	0x3c4e0548	0.012574501
134	0xbc68efe6	-0.0142173525
135	0x3c975e94	0.018477716
136	0x3d16a6fa	0.036780335
137	0x3c9f3d20	0.019438326
138	0x3d805d3b	0.06267782
139	0x3d38bf95	0.045104582
140	0xbd0f3f92	-0.034972735
141	0x3aa79aee	0.0012787262
142	0xbbc9a2cd	-0.0061534406
143	0x3ce482fd	0.027894491
144	0x3bcc015f	0.0062257494
145	0x3d9ddbf8	0.07707971
146	0xbe13aeb0	-0.14422107
147	0x3e01d762	0.12679818
148	0x3ce0515d	0.027382547
149	0x3e0ed700	0.13949203
150	0x3cc21722	0.023692671
151	0xbdb6295e	-0.08894609
152	0x3dba3463	0.09092023
153	0x3d9a73e4	0.07541636
154	0xbd46af4e	-0.048507027
155	0x3cd41ba5	0.025892088
156	0x3d1912b3	0.03737135
157	0xbdcbe5b5	-0.099559225
158	0xbca9652f	-0.02067813
159	0xbd333901	-0.043755535
160	0xbd70f2df	-0.05882537
161	0x3da479d9	0.08031053
162	0xbca3033e	-0.019899007
163	0x3d68cba3	0.056834828
164	0xbdde109f	-0.10843014
165	0x3d06d1d2	0.032914944
166	0xbd98a62f	-0.07453572
167	0x3e08a9db	0.13346045
168	0xbd0ea440	-0.03482461
169	0x3ddd5c84	0.108086616
170	0x3dd39275	0.10330669
171	0x3c962e6f	0.018332688
172	0x3d18902d	0.03724687
173	0x3d21ce72	0.039503522
174	0xbcd8c106	-0.026459228
175	0x3d64e166	0.05587902
176	0x3c4be430	0.012444541
177	0xbcab594f	-0.02091661
178	0x3db597d6	0.08866851
179	0x3b7bdbf0	0.0038430654
180	0x3d85da16	0.06535737
181	0x3d12028b	0.035646956
182	0xbd1ccbdd	-0.038280357
183	0x3c95a087	0.018265022
184	0x3ddaaac1	0.106771
185	0x3e0a17f9	0.13485707
186	0x3d6354de	0.055500858
187	0x3d7ada5c	0.0612434
188	0xbd5cf655	-0.053945858
189	0x3de5a583	0.112132095
190	0x3d784354	0.060611084
191	0xbbcd7636	-0.0062701954
192	0x3d694a45	0.056955595
193	0xbcc8a73f	-0.024493812
194	0xbdab7a26	-0.08372907
195	0x3d2b16d0	0.041769803
196	0x3bcc0faf	0.0062274556
197	0x3d8b9ffa	0.068176225
198	0x3da172e7	0.07883244
199	0xbdad5428	-0.08463317
200	0xbe2dd2bd	-0.16974922
201	0x3d366a6f	0.044535097
202	0x3ded7cc3	0.11596062
203	0xbd1a6d43	-0.037701856
204	0x3c7f107d	0.015567896
205	0x3d321ca8	0.04348436
206	0x3ad91e9b	0.0016564907
207	0xbc6e689b	-0.014551307
208	0x3d98439f	0.07434773
209	0x3d905045	0.0704656
210	0xbcc82988	-0.024433866
211	0xbd2e5d72	-0.042569585
212	0x3d7c95b3	0.0616662
213	0x3ae01498	0.0017095981
214	0x3d5c1cb2	0.053738303
215	0x3d2188fb	0.039437275
216	0xbdf4b98d	-0.119494535
217	0x3d165e28	0.03671089
218	0x3c3e223e	0.011604844
219	0xbd52a267	-0.05142441
220	0x3d8bc624	0.06824902
221	0xbd575a71	-0.052576486
222	0xbc76b046	-0.015056675
223	0xbc5301a4	-0.012878809
224	0xbd233748	-0.039847642
225	0x3d0733f3	0.033008527
226	0x3d42a5b4	0.047521308
227	0xbe28413e	-0.16431138
228	0xbd76a564	-0.060216323
229	0xbd90994b	-0.07060488
230	0x3d7ca01b	0.061676126
231	0xbd1ad404	-0.03779985
232	0x39bb25a7	0.00035695473
233	0x3d4f0101	0.050538067
234	0x3e4a13a1	0.1973405
235	0xbd715c5b	-0.058925968
236	0x3dd990a6	0.106232926
237	0xbba74e41	-0.005105764
238	0x3e11249b	0.1417412
239	0xbd025964	-0.03182353
240	0x3de3b922	0.11119296
241	0xbc0be716	-0.008538982
242	0xbd90b838	-0.07066387
243	0x3d2a7ead	0.041624714
244	0x3d84863d	0.064709164
245	0x3bf30718	0.007416617
246	0x3e0d21b5	0.1378239
247	0xbc4277f7	-0.011869422
248	0xbcf82b3f	-0.030294059
249	0xbd99f63b	-0.07517668
250	0x3cb5f37e	0.022210833
251	0x3d85db1f	0.06535935
252	0x3cbc3913	0.022976434
253	0x3d0318fa	0.03200624
254	0x3a85913c	0.0010190378
255	0x3d8de022	0.069275156

layer3.0.bias f4 [64]
0	0x3d6d5e92	0.057951517
1	0x3d2904ce	0.041264348
2	0x3a5e646f	0.00084835937
3	0x3cd57f08	0.02606155
4	0xbd5ffefe	-0.05468654
5	0xbc685b01	-0.014181853
6	0x3cf7a651	0.030230673
7	0x3d579823	0.052635323
8	0xbc7ba005	-0.015357976
9	0xbbed5452	-0.007242718
10	0xbc82e9e6	-0.015980672
11	0x3c64002a	0.013916055
12	0xbd5795ba	-0.052633025
13	0xbce1bdf4	-0.027556397
14	0xbc8a044f	-0.016847758
15	0x3d55ef31	0.052230064
16	0xbbdd00c9	-0.0067444784
17	0x3d19d79a	0.03755913
18	0x3cb512a0	0.022103608
19	0xbd048e55	-0.0323623
20	0xbc42b86a	-0.011884788
21	0x3d4d5f90	0.050139964
22	0xbb89d1d7	-0.004205923
23	0x3d252a2c	0.04032342
24	0xbd220591	-0.03955609
25	0x3cb5ab79	0.022176491
26	0x3d089646	0.033346437
27	0x3d62466a	0.055242933
28	0x3d3c28cb	0.04593734
29	0x3d09ed12	0.033673353
30	0xbc6e376b	-0.01453958
31	0xbc25788c	-0.010099541
32	0x3d71c092	0.05902154
33	0xbd4d890e	-0.050179534
34	0x3cbf17f5	0.023326853
35	0x3d430621	0.047613267
36	0x3cc7d9ca	0.024395842
37	0x3c9dd101	0.0192647
38	0x3d47821c	0.048708066
39	0x3d300f11	0.04298312
40	0x3ce32979	0.027729737
41	0x3d3507d7	0.04419693
42	0xbcd61ab9	-0.02613579
43	0x3d690ba9	0.056895886
44	0x3d6ee1dc	0.058320865
45	0xbc8c9901	-0.017162802
46	0xbd50523d	-0.05085968
47	0xbd441b14	-0.047877386
48	0x3b1f3cb3	0.0024297654
49	0x3d0f508d	0.03498893
50	0x3bc37b08	0.005965594
51	0xbc9d282f	-0.0191842
52	0xbd4c0992	-0.049813814
53	0x3d602a59	0.054727886
54	0xbc53e751	-0.012933568
55	0x3d33b106	0.043869995
56	0x3d6cd8e8	0.057824045
57	0x3d625b9c	0.055263147
58	0x3d5f447e	0.05450868
59	0x3ac491e0	0.0014997087
60	0xbabf6dfc	-0.0014604921
61	0x3cd223af	0.02565178
62	0x3d1db32c	0.03850095
63	0x3cf88c6a	0.030340392

layer3.1.weight f4 [64]
0	0x3f78e6cb	0.9722716
1	0x3f70db2f	0.9408445
2	0x3f7734e9	0.9656511
3	0x3f66b508	0.9011998
4	0x3f63822e	0.88870513
5	0x3f7e6d60	0.99385643
6	0x3f75382f	0.95788854
7	0x3f907e70	1.1288586
8	0x3f814e17	1.0101956
9	0x3f8482b6	1.035239
10	0x3f76c7b1	0.96398455
11	0x3f78a838	0.9713168
12	0x3f7f79a5	0.9979499
13	0x3f7fb447	0.99884456
14	0x3f84584f	1.033945
15	0x3f72dbbc	0.9486654
16	0x3f88a82a	1.067632
17	0x3f7c35bc	0.9851949
18	0x3f66a097	0.9008879
19	0x3f7df524	0.9920218
20	0x3f81f681	1.0153352
21	0x3f8274b0	1.019186
22	0x3f7331e1	0.94997984
23	0x3f7d77a8	0.99010706
24	0x3f70e412	0.9409801
25	0x3f81ac16	1.0130641
26	0x3f84797c	1.0349574
27	0x3f82476e	1.0178049
28	0x3f7297c1	0.9476281
29	0x3f609449	0.87726265
30	0x3f80d1ba	1.0064003
31	0x3f754b10	0.9581766
32	0x3f6b853d	0.9200018
33	0x3f829d7f	1.0204314
34	0x3f884f97	1.0649289
35	0x3f78f164	0.9724333
36	0x3f6d8e91	0.92795664
37	0x3f749c67	0.9555115
38	0x3f856da7	1.0424088
39	0x3f7723a0	0.96538734
40	0x3f7a2678	0.9771495
41	0x3f7c372d	0.9852169
42	0x3f7db8ad	0.9910992
43	0x3f814714	1.0099816
44	0x3f5e7988	0.8690419
45	0x3f69a559	0.91267926
46	0x3f8b687d	1.0891262
47	0x3f67474d	0.9034317
48	0x3f7c9d16	0.98677194
49	0x3f62d254	0.88602185
50	0x3f835a19	1.0261871
51	0x3f809368	1.0044985
52	0x3f78a09f	0.9712009
53	0x3f791b57	0.9730734
54	0x3f74583c	0.95447135
55	0x3f7f5411	0.9973765
56	0x3f820785	1.0158545
57	0x3f631bba	0.8871418
58	0x3f76f007	0.9646
59	0x3f6ce06e	0.9252995
60	0x3f7f13f0	0.996398
61	0x3f83299f	1.0247077
62	0x3f77ecbe	0.96845615
63	0x3f815245	1.0103232

layer3.1.bias f4 [64]
0	0xbe4c58fb	-0.19955818
1	0xbe3d57ad	-0.18490477
2	0xbe4b0bf9	-0.19828786
3	0xbe2388c2	-0.15970138
4	0xbe30ccaa	-0.17265573
5	0xbe0cde64	-0.1375671
6	0xbdde1404	-0.108436614
7	0xbe93be85	-0.28856292
8	0xbe4810be	-0.19537637
9	0xbe64432f	-0.22291254
10	0xbe03931a	-0.12849084
11	0xbe3c1f44	-0.18371302
12	0xbe054f65	-0.13018568
13	0xbe264fea	-0.16241422
14	0xbe41552b	-0.18880145
15	0xbdcefe6a	-0.101071194
16	0xbe715921	-0.23569156
17	0xbdfff600	-0.12498093
18	0xbddca6eb	-0.107740246
19	0xbe886c7c	-0.26645267
20	0xbe0f59f0	-0.13999152
21	0xbe3dc3a9	-0.1853167
22	0xbe3973ed	-0.18110628
23	0xbe2e2c78	-0.17009151
24	0xbe1d8304	-0.1538201
25	0xbdf7a370	-0.1209172
26	0xbe0f7666	-0.14010009
27	0xbe85ce9e	-0.261342
28	0xbe2b9152	-0.16754654
29	0xbe25c656	-0.1618894
30	0xbe467a7f	-0.19382666
31	0xbe1571d1	-0.14594199
32	0xbe5aa918	-0.21353567
33	0xbe488562	-0.19582132
34	0xbe8a81b4	-0.2705208
35	0xbe594bd9	-0.2122034
36	0xbe391602	-0.18074802
37	0xbe3c9c5a	-0.18419018
38	0xbe337e4a	-0.17528644
39	0xbe06a78b	-0.1314985
40	0xbdd62191	-0.10455621
41	0xbe167c6a	-0.14695898
42	0xbe03ec28	-0.12883055
43	0xbe6ac5d7	-0.22927032
44	0xbe4791a9	-0.19489159
45	0xbde7a8ee	-0.11311518
46	0xbe76f8e3	-0.2411838
47	0xbe0f97f7	-0.14022814
48	0xbe0b09d0	-0.13577962
49	0xbe3ae9bc	-0.18253225
50	0xbe33d893	-0.17563085
51	0xbe40e8a1	-0.18838741
52	0xbe04a2de	-0.12952754
53	0xbe135160	-0.14386511
54	0xbe415031	-0.18878247
55	0xbe484fc7	-0.19561683
56	0xbe2e7a4f	-0.17038845
57	0xbe24cf47	-0.16094695
58	0xbe05c1f6	-0.13062271
59	0xbe3fbd88	-0.18724644
60	0xbdf42be6	-0.119224355
61	0xbe3a96eb	-0.18221633
62	0xbdcd088f	-0.10011398
63	0xbe412f29	-0.18865646

layer3.1.running_mean f4 [64]
0	0x3f6cacd3	0.9245121
1	0x3f240f28	0.64085627
2	0xbf1e0edf	-0.6174144
3	0xbe49892d	-0.19681235
4	0xbe9b49fa	-0.30329877
5	0xbed93ccd	-0.424292
6	0xbf398127	-0.72462696
7	0xbf82607d	-1.0185696
8	0xbf90ead5	-1.1321665
9	0xbf3312ae	-0.6995038
10	0xbeb76684	-0.358204
11	0xbfe3d5f2	-1.7799666
12	0xbf60f7fd	-0.878784
13	0xbf9368b0	-1.1516323
14	0xbddfc972	-0.109270945
15	0xbf5a5944	-0.8529246
16	0xbeadd3ef	-0.33950755
17	0x3d53a87d	0.051674355
18	0xbf11b5ea	-0.56918204
19	0xbf8b6835	-1.0891176
20	0xbf9c090f	-1.2190264
21	0xbf5a3304	-0.85234094
22	0x3eee8d3a	0.46592122
23	0xc03da326	-2.9630828
24	0xbec4c76e	-0.38433403
25	0xbf5eb9ce	-0.87002265
26	0xc0365c25	-2.849374
27	0xbe392336	-0.18079838
28	0xbf3bde15	-0.73385745
29	0xbecdb579	-0.40177515
30	0xbf0c7bdf	-0.5487651
31	0x3d946aa0	0.072468996
32	0xbf87dfb9	-1.061515
33	0xbfda5e35	-1.706
34	0xbd6bb305	-0.057543773
35	0xbfb4b40d	-1.4117447
36	0x3cbc50cb	0.022987744
37	0xbf0d74c7	-0.55256313
38	0xbec0cd4b	-0.37656626
39	0xbf20666e	-0.62656295
40	0xbf87bdfc	-1.0604854
41	0xbf14d5be	-0.58138645
42	0x3f0864b0	0.53278637
43	0xbfd67733	-1.6755127
44	0xbecd3984	-0.40082943
45	0xc003851a	-2.0549989
46	0xbe4442ef	-0.19166158
47	0xbdaf54fe	-0.08561133
48	0xbeba06b3	-0.36333236
49	0xbf0d8300	-0.55278015
50	0xc07574fb	-3.835265
51	0xbf36e825	-0.71447974
52	0xbf3f3901	-0.74696356
53	0xbf7fee77	-0.99973243
54	0xbf9c079e	-1.2189825
55	0xbf352bde	-0.7077006
56	0x3ad12b75	0.0015958386
57	0x3facdd5c	1.3505054
58	0x3d8fc03b	0.07019087
59	0xbf9b1dbd	-1.211845
60	0xbebed8a0	-0.37274647
61	0xbee759c4	-0.45185673
62	0xbf9311e0	-1.148983
63	0xbfa5d470	-1.2955456

layer3.1.running_var f4 [64]
0	0x3f8013e4	1.000607
1	0x3f531861	0.82459074
2	0x3f9fc74e	1.2482698
3	0x3f3da35c	0.7407739
4	0x3f82c37f	1.0215911
5	0x3f7ae450	0.9800463
6	0x3f56964e	0.83823097
7	0x3f5279c2	0.8221704
8	0x3f3b4456	0.7315115
9	0x3f78ae62	0.9714109
10	0x3f76946b	0.9632022
11	0x3f55721e	0.83377254
12	0x3f7392c2	0.9514581
13	0x3fa588e4	1.2932401
14	0x3fb74377	1.4317464
15	0x3f7ced8c	0.9879997
16	0x3f89bb67	1.0760316
17	0x3f87730b	1.0581983
18	0x3fa35eba	1.2763283
19	0x3f8cb384	1.0992284
20	0x3fa8874a	1.3166287
21	0x3f89531d	1.0728489
22	0x3f85ed9f	1.0463141
23	0x401c36ed	2.4408524
24	0x3f85ea39	1.0462104
25	0x3f658f95	0.89672214
26	0x3f905da5	1.1278578
27	0x3f165012	0.5871593
28	0x3fba2065	1.4541136
29	0x3f3271d4	0.6970494
30	0x3f4339b4	0.76259923
31	0x3f940a20	1.156559
32	0x3faf417d	1.369186
33	0x3fa2202c	1.2666068
34	0x3f8a8a43	1.0823444
35	0x3f82de9b	1.0224184
36	0x3f14eca1	0.5817357
37	0x3f2eab93	0.6823055
38	0x3f7af730	0.9803343
39	0x3f72cd3d	0.9484442
40	0x3fa5eb5a	1.2962449
41	0x3f2aa53b	0.6665837
42	0x3f434558	0.76277685
43	0x3f9bf307	1.2183541
44	0x3fb9e846	1.4524009
45	0x3fb228ee	1.3918741
46	0x3f869c0f	1.0516375
47	0x3f65f2c0	0.8982353
48	0x3f9f0c31	1.2425596
49	0x3f4f4bae	0.80974853
50	0x4003bb42	2.0583043
51	0x3f014df3	0.50509566
52	0x3f82ed4b	1.0228666
53	0x3f3b24a8	0.7310281
54	0x3f81ac98	1.0130796
55	0x3f1aebc7	0.6051602
56	0x3f4946bd	0.78623563
57	0x3f6b4cf9	0.91914326
58	0x3f777de7	0.96676487
59	0x3f5e3319	0.8679672
60	0x3f90407c	1.1269679
61	0x3f7623f2	0.961486
62	0x3fb2b749	1.3962184
63	0x3fda1d5a	1.7040207

fc.weight f4 [14, 576]
0	0xbd7622e7	-0.06009188
1	0x3c83f62c	0.016108595
2	0xbce475a8	-0.027888134
3	0x3e111aff	0.14170454
4	0x3dc4a2a8	0.09601337
5	0xbd057859	-0.032585476
6	0x3ce56144	0.028000481
7	0xbd1a1034	-0.03761311
8	0xbb8d6bb5	-0.004315818
9	0x3c865a70	0.016400546
10	0xbb856194	-0.00407047
11	0xbbf78e8d	-0.007554835
12	0x3d2cf6ca	0.042227544
13	0xbc7501a2	-0.014954003
14	0xbc8abdf3	-0.016936278
15	0xbbca5fd1	-0.006175973
16	0x3d0ed693	0.034872603
17	0xbcc36734	-0.023852922
18	0x3cd3b57b	0.025843373
19	0x3d811704	0.06303218
20	0xbd03c478	-0.03216979
21	0xbcfb1209	-0.030648248
22	0xbd3976e2	-0.04527939
23	0x3b7a2df9	0.0038174374
24	0x3c8ca2e4	0.017167516
25	0xbcd4c845	-0.025974402
26	0xbd828332	-0.0637268
27	0xbd07ac58	-0.033123344
28	0xbae934dd	-0.0017792244
29	0x3ce35a7f	0.027753113
30	0xbc6d0bae	-0.014468117
31	0xbd9ed48d	-0.077553846
32	0xbd13a33f	-0.036044355
33	0xbc79044b	-0.015198777
34	0xbd510fd3	-0.05104048
35	0xbd87dcd1	-0.06633914
36	0xbca2ff8b	-0.019897243
37	0xbbc63f93	-0.006050059
38	0xbd6c2305	-0.057650585
39	0x3cd23331	0.025659176
40	0x3d56bf08	0.052428275
41	0xbd9d2b3d	-0.07674263
42	0xbdb72a54	-0.0894362
43	0x3da1022e	0.07861744
44	0x3c0f0021	0.008728058
45	0xbbdf32d4	-0.006811479
46	0xbd648744	-0.05579306
47	0x3d42ca22	0.04755605
48	0xbd764a12	-0.060129233
49	0xbbb851ed	-0.0056250007
50	0x38b7abd2	8.758124e-05
51	0xbd746288	-0.05966428
52	0x3cd44633	0.02591238
53	0x3d91a6fb	0.07111927
54	0x3cef0be4	0.029180475
55	0x3c8192e7	0.015817119
56	0x3bc242cb	0.0059283725
57	0xbd53caea	-0.051707186
58	0xbb67211c	-0.0035267537
59	0xbddd77b8	-0.1081385
60	0xbc85fc61	-0.016355695
61	0xbd5b0222	-0.05346883
62	0xbd1d6713	-0.038428377
63	0x3d6c78a6	0.057732247
64	0x3ca03417	0.019556088
65	0x3cba3581	0.02273059
66	0x3d91f66f	0.071270816
67	0xbe2c8bf6	-0.16850266
68	0x3d0da802	0.034584053
69	0x3d84483b	0.06459089
70	0xbd10b93b	-0.0353329
71	0x3dccba26	0.099964425
72	0x3d26670d	0.04062562
73	0x3c9299f9	0.017895686
74	0x3d2d5c21	0.04232419
75	0x3d8cf905	0.06883434
76	0xbcd736f8	-0.026271328
77	0xbe0229a2	-0.12711194
78	0xbd70689a	-0.058693506
79	0xbc86652c	-0.016405664
80	0xbc278582	-0.010224702
81	0x3c1c98aa	0.009557882
82	0x3cc8331a	0.02443843
83	0xbcf9128b	-0.03040435
84	0x3c7f25f0	0.01557301
85	0xbe555fd3	-0.20837335
86	0x3d164e61	0.03669584
87	0x3d46ca5f	0.04853284
88	0xbd0227c4	-0.031776205
89	0x3d6fd86a	0.058555998
90	0xb9fadf79	-0.00047850216
91	0xbcf19f7e	-0.029494997
92	0xbd1ce480	-0.038303852
93	0xbcd96fe0	-0.026542604
94	0xbd1750e1	-0.036942367
95	0xbc7c9174	-0.015415538
96	0xbd3a1daf	-0.045438465
97	0x3d42314b	0.04741029
98	0xbd787090	-0.060654223
99	0xbd530f01	-0.05152798
100	0xbdcfbbb0	-0.101432204
101	0xbd25ec61	-0.04050863
102	0x3d895565	0.06705741
103	0xbdad7df0	-0.08471286
104	0xbc927f07	-0.017882837
105	0x3ca26069	0.019821363
106	0xbc9e305a	-0.019310165
107	0xbd0281d8	-0.03186211
108	0xbc863adc	-0.016385488
109	0x3b02a3de	0.0019934098
110	0xbd46faa3	-0.04857887
111	0xbd9f3757	-0.07774227
112	0x3cd0b407	0.025476469
113	0x3b6c73c5	0.0036079746
114	0xbcaf2786	-0.02138115
115	0xbdab4e2c	-0.083645195
116	0xbdc25b45	-0.094900645
117	0x3ca56cf4	0.020193554
118	0x3d2c3dbd	0.042051066
119	0x3cb8f6fc	0.022578709
120	0xbdcf4218	-0.10120028
121	0x3d25bd05	0.040463466
122	0xbbea57b6	-0.0071515692
123	0xbc75d484	-0.015004281
124	0xbda32e8a	-0.07967861
125	0x3cfde755	0.030994097
126	0xbc0d3123	-0.008617672
127	0x3abfbfd4	0.0014629313
128	0xbd2fed78	-0.042951077
129	0xbd8b679b	-0.068068705
130	0x3db7a0d0	0.089662194
131	0x3d242441	0.040073637
132	0xbbe7be74	-0.0070722643
133	0xbdb04b12	-0.086080685
134	0xbc998590	-0.018740445
135	0xbcc51526	-0.024057936
136	0xbccbcdf1	-0.024878474
137	0xbd5cf1d3	-0.05394156
138	0xbd24f18f	-0.04026943
139	0xbd08de92	-0.033415385
140	0xbd838e2a	-0.064236
141	0xbd5917bc	-0.05300115
142	0xbdb406ec	-0.08790383
143	0xbe373c33	-0.17894058
144	0xbc2053fd	-0.009785649
145	0xbbfaa10e	-0.0076485937
146	0x3ca0220f	0.01954749
147	0x3d090680	0.033453465
148	0xbe288dac	-0.16460294
149	0xbc7f191d	-0.015569952
150	0x3d8dc53c	0.06922385
151	0xbe114823	-0.14187674
152	0x3ae739f1	0.0017641169
153	0x3b554273	0.0032540828
154	0xbd096bc4	-0.03355004
155	0xbd37c58f	-0.04486614
156	0x3d3481d9	0.044069145
157	0xbda4af59	-0.080412574
158	0x3ae1c6f7	0.0017225434
159	0xbd0f1032	-0.034927554
160	0x3d8a3568	0.06748468
161	0xbdf65caa	-0.12029393
162	0x3cc1aa98	0.023640916
163	0x3d3b5a89	0.045740638
164	0xbc778830	-0.015108153
165	0xbd4dee67	-0.050276186
166	0xbd82428f	-0.06360351
167	0xbd98f7e8	-0.07469159
168	0xbcd3503f	-0.0257951
169	0xbca6b1bb	-0.02034842
170	0xbdb0cc12	-0.08632673
171	0x3c31d059	0.010852897
172	0xbc49a7d3	-0.012308079
173	0xbc37c400	-0.011216164
174	0x3be742ff	0.007057547
175	0x3cab3d63	0.020903295
176	0xbdbcb88f	-0.09214889
177	0x3d3be5a2	0.04587329
178	0x3bd7ffb1	0.00659176
179	0x3d8f0e2d	0.06985126
180	0x3c809cff	0.015699862
181	0xbd445229	-0.047929917
182	0x3d8d392d	0.06895671
183	0xbda914d1	-0.082559235
184	0x3caf1a68	0.021374896
185	0x3c9dd9ec	0.019268952
186	0x3c2057f0	0.009786591
187	0xbe6405ff	-0.22267912
188	0x3d2fd982	0.04293204
189	0x3d0506d0	0.0324772
190	0xbd0e29a7	-0.03470769
191	0x3c819a1e	0.01582056
192	0x3c800373	0.015626645
193	0xba58ebb3	-0.0008274868
194	0x3d45ee5a	0.048323013
195	0x3cd02d70	0.025412291
196	0xbd236c5a	-0.039898254
197	0xbd6a6805	-0.057228107
198	0xbcbb9bb3	-0.022901392
199	0x3da9111c	0.082552165
200	0xbd1c895d	-0.038216937
201	0xbd6d78f7	-0.05797669
202	0x3d356aa4	0.044291154
203	0x3d87b329	0.06625969
204	0xbcf038aa	-0.029323895
205	0xbd3207ee	-0.043464594
206	0xbc63a8f7	-0.013895265
207	0x3d4ac77b	0.049506646
208	0x3cda5f14	0.026656665
209	0x3c438e24	0.011935744
210	0x3dfd9e51	0.12383712
211	0xbc3c2013	-0.011482256
212	0xbd315a2f	-0.043298896
213	0x3ac92199	0.0015345096
214	0x3d72cc9b	0.05927716
215	0x3de02c54	0.10945955
216	0xbda9eecc	-0.082975
217	0x3b82f0b5	0.0039959797
218	0x3c20ccbf	0.00981444
219	0xbd9d19a8	-0.07670909
220	0x3ba8a390	0.0051464513
221	0x3c3c0720	0.011476308
222	0x39e3f8e3	0.0004348225
223	0x3c6a8369	0.014313557
224	0xbcad1af7	-0.021131022
225	0x3c1bbb7c	0.009505149
226	0xbc100c2d	-0.008791965
227	0x3c9c8925	0.019108364
228	0xbd0018ac	-0.03127353
229	0xbcef58e4	-0.029217191
230	0xbc170fca	-0.009220073
231	0xbc87e95c	-0.016590767
232	0x3cdae970	0.02672264
233	0xbceaf286	-0.028680097
234	0x3d2ce77e	0.042212956
235	0xbc9e591b	-0.019329598
236	0xbcdcaa84	-0.026936777
237	0xbd3c6dbb	-0.046003085
238	0xbc83ef32	-0.016105268
239	0xbd552d6c	-0.05204527
240	0x3d4d04d2	0.050053425
241	0xbd5bdc8f	-0.053677138
242	0x3d355887	0.04427388
243	0xbcab0ace	-0.020879176
244	0xbac961a9	-0.0015364188
245	0xbc6a7995	-0.014311214
246	0x3cfbd7d1	0.030742558
247	0xbc4a96bb	-0.0123650385
248	0xbbab32df	-0.00522457
249	0x3d0b40a6	0.0339972
250	0xbd64af52	-0.05583126
251	0xbd818a0d	-0.06325159
252	0xbcdfc1a4	-0.027314015
253	0xbc92146a	-0.017832
254	0x3d978860	0.07399058
255	0x3b0bffdc	0.002136222

fc.bias f4 [14]
0	0xbcf6fffc	-0.03015136
1	0xbcea9b0f	-0.02863839
2	0xbc1d6cd3	-0.009608465
3	0xbcb5e549	-0.022204058
4	0x3ceab00e	0.028648403
5	0x3c2ebfbf	0.010665833
6	0xbd98c22e	-0.07458912
7	0x3c0d52a6	0.008625662
8	0xbbf67a8d	-0.0075219334
9	0xbd1e9cc0	-0.038723707
10	0xbc916784	-0.017749555
11	0xbc028323	-0.007965836
12	0xbd3ba424	-0.045810834
13	0xbd5a49df	-0.053293105
