trained_models/pathmnist/model.pth (torch, 123291 bytes, 20 tensors)

layer1.0.weight f4 [16, 3, 3, 3]
00000000: e66b edbd bf13 aabd c9e7 e93d 134f d5bd
00000010: 0e7b 93ba 05aa cf3d 8faa 693e befe 6d3e
00000020: 61e5 92bd 5606 493d 7b91 cf3d 14e9 983d
00000030: 099f 26bd 620d ec3d 79da 033e 6d90 a43c
00000040: 2a1d e13d 0b4b ebbd dd1b e03d 7001 6bbe
00000050: ffff 3cbe 6488 f9bc 2ca5 92be 4b82 88bb
00000060: 1f50 dcbd 5880 65bd 126e e53c 9b7e 923c
00000070: 33ca 573e 45f4 f33c 3403 50bc 5cee 213e
00000080: 4105 b13e 23d1 533e bd07 613d 68c4 b93c
00000090: 279a b0bd 5447 fe3d f602 78be 41f4 1fbe
000000a0: bf4e 313e f8b6 173e 7bba 1a3e e570 45be
000000b0: 04a2 d63d d0a4 013e 0bf6 35be dd91 50be
000000c0: 7008 503d 4d99 00be b8a1 2a3d fb1c 1cbe
000000d0: 13a7 aebd 1efd 44be a384 043e d666 a43b
000000e0: 3beb b13d 1cd5 06be 6362 b2be 219e 273e
000000f0: db71 b83d 8231 27be 050f 303e 686a abbc
00000100: 38bc 363d 5b82 943d d15c 123c 5c3b a63d
00000110: 6af9 9cbd c40d 003d 509b 123d 98dd 36be
00000120: 2507 85bd b97a 86bd e7be 31be 058a ee3d
00000130: 43ad 573e f5e2 61bd fc3a f9bd a521 203e
00000140: e41c 3e3d 4c51 c13d a9d0 febd c11c 423d
00000150: 5e44 8c3e ab41 8e3d fe2e 36be 5bc7 463e
00000160: b7cb 25be c340 c9bd 5f2f 5ebc ea52 c93d
00000170: 6825 ccbd 9445 4b3e 0a41 333e 07f5 223d
00000180: eef9 efbd 5d2b a03d f41a 40be e51a fe3d
00000190: 6d77 c2bd 31e8 59bc 05c0 10bd d8d0 55be
000001a0: e3b3 90bd 8e73 f03c 8378 403c e916 e2bd
000001b0: 7990 993d eec9 a0bd 9b8a 7dbc b1de 873e
000001c0: 1000 50bd 1f9a 88bd adca 4e3d 4c94 283e
000001d0: 66d5 37bd 0f00 5abd a41d 1d3d 57b7 b9bc
000001e0: a97f f2bd 054f 2a3e aa8b f83c 97f9 dbbc
000001f0: bd80 a0bb 80a4 043e 3d95 063e e235 003e
00000200: 1a4b d53c cd8a 94be f6df 97bc ac86 b7b9
00000210: be71 e8bd 4aa7 3bbf e389 22be 9857 9a3d
00000220: c46c a23e f355 803e 4235 65bc dfff 7abe
00000230: b668 753d edba 18be 0851 f2bd e1d7 08be
00000240: f8dc baba 2622 ec3c 3a58 ee3d fe2e c13c
00000250: 8071 cfbd e1c6 d3bb 500c 4ebd a0bf 1abe
00000260: a03a 17bc e6b9 9a3d 9888 42bc efcf 293e
00000270: ecbd 44be 7136 67bd 5542 1d3d f0ff 3d3e
00000280: f16c b1bc 62ab 0c3d 5067 8cbe 7a1a 09be
00000290: 5885 34be d520 99bc 1f6f 4dbe c258 b3bc
000002a0: 8e9a 5f3d b195 fc3d 56ae 5c3e bff6 413e
000002b0: 933b b03d 0261 0c3e 3084 c6bd d627 043e
000002c0: 2877 4b3d 3230 f8bd 9945 c9bd 2c15 c4bd
000002d0: fb1a 0e3e f89b 743e 3646 3cba 015b ae3d
000002e0: 08ef 203d e067 963d f7e9 933d 2e53 9fbd
000002f0: 1d4f 42be 6427 cd3d beed 813e 8a36 973e
00000300: 87ed c0bc 4a33 013e 4c29 68be 4fff febd
00000310: 4fa9 223e a7c6 2ebe fd9b e2bd 3924 ddbc
00000320: ebd4 8a3d 4c67 b73d b36b 18be bebc bcbd
00000330: 6696 87bc 784f c4bc 7d27 a33d d4d5 da3c
00000340: 5111 51be 00f7 0dbe 5f7c 113c 6e9a d03c
00000350: 7573 86bd a65a 9e3d bab8 cb3d 391a 9bbd
00000360: ae67 423d 3b72 71bd 10fd b7bd 9c0c 0fbf
00000370: fbeb 7f3e a81a 77bd 1e8f fc3d 6c19 e93d
00000380: 8ef3 003d 596d 1dbc 2857 a33d 3e5f 88bd
00000390: 982c d8bd 7bd5 d5bd 0c8a 9b3d 8935 06be
000003a0: 6df6 0139 99d8 783c 8f14 213e 1f23 35be
000003b0: c8d8 283e 1fa1 913d 7696 e33d 977f 2ebe
000003c0: 4bbd 5b3e 40ec 1dbe 72df eabc 63a8 473d
000003d0: 99f9 6abd dd44 ec3d c9cd c6bd b3f5 e83c
000003e0: b556 91bd eb5f 223e 05f3 023e 16b0 c03d
000003f0: 9bc6 f4bd c7bb 9bbd 401e e13d b8f0 603e
-0.115928456 -0.083045475 0.11421163 -0.10415473 -0.0011251883 0.101398505 0.22818969 0.23241708
-0.07172657 0.049078308 0.1013517 0.07466331 -0.04067901 0.1152599 0.1287631 0.020088399
0.10991891 -0.11488923 0.109428145 -0.22949767 -0.1845703 -0.030460544 -0.2864164 -0.0041659228
-0.107574694 -0.0560306 0.028006587 0.017882636 0.21073227 0.029779563 -0.012696076 0.15813583
0.3457432 0.20685248 0.05493902 0.022676662 -0.08623152 0.124159485 -0.2421988 -0.15620519
0.17315196 0.14815891 0.15110199 -0.19281347 0.10480121 0.12660527 -0.17769639 -0.20368142
0.050789297 -0.1255848 0.041658133 -0.1524543 -0.08527961 -0.19237182 0.12941222 0.005017142
0.08687445 -0.13167232 -0.34840688 0.16368915 0.09006091 -0.1632748 0.1719323 -0.020924762
0.044613093 0.07251426 0.008933262 0.08116791 -0.076647595 0.031263128 0.03579265 -0.17857969
-0.06495503 -0.06566376 -0.1735798 0.11647419 0.21062188 -0.055148084 -0.121694535 0.15637834
0.04641427 0.09439334 -0.124421425 0.047390703 0.2739591 0.06946119 -0.17791364 0.19411986
-0.16190992 -0.098268054 -0.013561099 0.09830268 -0.09968072 0.1985076 0.17505279 0.039784458
-0.11717592 0.07820771 -0.18760282 0.124074735 -0.09495435 -0.013299988 -0.035339374 -0.20880449
-0.07065561 0.029351976 0.011747482 -0.11039526 0.07498259 -0.07851015 -0.015474941 0.26537088
-0.05078131 -0.06670021 0.050486255 0.16462821 -0.044881247 -0.053222712 0.038358346 -0.022670431
-0.118407555 0.16631706 0.030340035 -0.026852412 -0.0048981593 0.12953377 0.13142867 0.12520555
0.026036788 -0.29012147 -0.01853941 -0.00035004818 -0.113498196 -0.7330214 -0.15872912 0.075362384
0.31723607 0.25065574 -0.013989748 -0.2451167 0.059914313 -0.14915057 -0.11831862 -0.13363601
-0.0014256528 0.028824877 0.11637922 0.023581978 -0.1012907 -0.006462917 -0.05030471 -0.15112162
-0.009230286 0.075549886 -0.011873387 0.16583227 -0.19213074 -0.056448404 0.038393337 0.18554664
-0.021658393 0.03434313 -0.2742257 -0.13389006 -0.17628992 -0.018692413 -0.2006192 -0.021892909
0.054590754 0.12333239 0.21550879 0.18941782 0.08605113 0.1370888 -0.096931815 0.12905821
0.049674183 -0.121185675 -0.09827728 -0.09574351 0.1387748 0.23887622 -0.0007182093 0.08513451
0.039290458 0.07344031 0.0722236 -0.07779537 -0.18975492 0.10017279 0.25376695 0.29533798
-0.023550762 0.12617221 -0.22672004 -0.1245104 0.15884899 -0.17067967 -0.11064909 -0.026994811
0.06778892 0.08955249 -0.14884834 -0.09215687 -0.016551208 -0.023963675 0.07966516 0.02671329
-0.20416762 -0.13863754 0.00887975 0.025464263 -0.065649904 0.077321336 0.09947343 -0.07573361
0.047462158 -0.05894683 -0.08983815 -0.55878615 0.24992363 -0.060328156 0.12331985 0.11381802
0.03148227 -0.00960859 0.07975608 -0.06658791 -0.105553806 -0.10441109 0.0759469 -0.1310636
0.000123942 0.01518836 0.15730499 -0.17689179 0.16488945 0.071108095 0.111126825 -0.17040859
0.21458928 -0.15422153 -0.028671 0.04874457 -0.05736694 0.11536572 -0.09707219 0.028437471
-0.07096616 0.15856902 0.12788017 0.09408586 -0.119519435 -0.07604175 0.10992098 0.21966827

layer1.0.bias f4 [16]
00000000: c70f 653e 8649 043e f04b 893c 9201 65bd
00000010: 8050 a43d 30e9 f7bb de02 00be 7e71 ddbd
00000020: 9043 b3bc a33b 60bd 10b8 72be 3aa3 5ebe
00000030: 98ff 883e e951 45bd c39e 133e 3d05 053e
0.223693 0.12918672 0.016759843 -0.0559097 0.08023167 -0.00756564 -0.12501094 -0.108126625
-0.021882802 -0.054744374 -0.23703027 -0.21741953 0.26757503 -0.04817382 0.14416032 0.1299028

layer1.1.weight f4 [16]
00000000: be2b 633f 136b 883f 52d6 983f dba8 6a3f
00000010: b45e 7c3f 6c0d 813f e021 803f e5dc 6e3f
00000020: c151 733f dd91 653f 9362 853f 9503 7e3f
00000030: dc68 923f f151 683f d8ba 893f 8f34 653f
0.8873862 1.0657676 1.1940405 0.91663903 0.98582006 1.0082221 1.0010338 0.9330581
0.9504662 0.89675695 1.0420707 0.99224216 1.143825 0.9075003 1.0760145 0.89533323

layer1.1.bias f4 [16]
00000000: c578 0a3e 0229 36be 4f23 8dbd 733e 9ebd
00000010: d419 3abe 78db 94be ca57 3b3e 5b79 4bbe
00000020: 3133 53be 0be6 873d 7a78 efbd 5e50 f23c
00000030: 44c8 8a3d 4fc9 8fbc 7754 99be 3c81 253d
0.13522632 -0.1778908 -0.068915 -0.07726755 -0.18173915 -0.2907369 0.18295208 -0.19870512
-0.20624997 0.06635674 -0.11692901 0.029579338 0.06776479 -0.017552046 -0.29947254 0.04040645

layer1.1.running_mean f4 [16]
00000000: 44c1 9d3d 88bd ad3e ac41 173d fdcc 0fbe
00000010: aafe 35be ccbb aa3d 7a14 27be 0d06 31bd
00000020: 5dd5 8fbd 6fb5 3a3e 2f2f 3dbe a18b e0be
00000030: da40 9e3e 0539 be3d 1db3 4c3f 0211 70bc
0.07702878 0.33933663 0.036927864 -0.1404304 -0.17772928 0.08336601 -0.16316405 -0.04321866
-0.07023118 0.18233274 -0.1847503 -0.43856528 0.30908853 0.09288219 0.79960805 -0.0146524925

layer1.1.running_var f4 [16]
00000000: afb3 d13b 571b 963c 8e5c b63a 2f7f af3c
00000010: 0d4d d63c 4686 e03c 4e4b 0d3c 8b91 0b3c
00000020: e02d 3c3c 821a 453c 0d48 793d de39 d13b
00000030: 6331 4e3b b9cc e03b 0c55 503d 3fbe d13b
0.006399594 0.018323584 0.0013913081 0.02142295 0.026159788 0.027407777 0.008623911 0.008518587
0.011485547 0.012030246 0.06085973 0.006385072 0.0031462542 0.0068603423 0.050862357 0.006400853

layer2.0.weight f4 [32, 16, 3, 3]
00000000: 1978 7bbb 2964 21be 1a9b c9bd ecfa 56bd
00000010: d846 03be b6ea 9aba bfaa 35bd 3ccf 3bbc
00000020: 4509 6bbc 2dbd 4a3d bad8 11be ad09 47bd
00000030: bcc0 963d 346e 2ebe f9e8 a8bd 1d0a 613e
00000040: 2476 a73d 17ad 8fbc b720 543d 60f3 533e
00000050: c440 003e 1b85 08be 7e4d 96bd e0b1 4c3d
00000060: b4e3 e0bb 84b1 20bd f338 86bc e2dd 673d
00000070: 4ab9 aabd a803 d3bd c456 d13c ae28 8d3c
00000080: df54 05bd 6f6a c7ba 08ef 43bd 2962 79bd
00000090: 23fb 053e 65f7 ebbc 6242 f9bd b5af 0f3e
000000a0: fd9f d63d 3ef8 28bd b66e 4f3d bfba 103e
000000b0: d22d 6f3d 60ee e43c 8e89 a8bc d886 6e3d
000000c0: 1c29 81bd 4aea bc3c 3ebe 41bd 683e 163d
000000d0: 8ba4 2bbc 9046 87bd 93a2 9c3c 14f2 89bd
000000e0: c431 f53a 561a eebd 7ded 103e 2101 2b3d
000000f0: 9edb 6ebe 7f31 77bd 60a0 adbc 0d32 c4bc
00000100: e15d 0abe 711d cd3d e1db 363c 8f42 35be
00000110: 15b5 8abd 15bc 3d3d f59b d3bc bf0f d7bb
00000120: e0ec 60bc cdfc 07be 77e2 eebd d2bb 7abb
00000130: 47f5 f93c 86a4 873d 8ad8 50bd 8fd4 d13d
00000140: 80b2 e43d 7749 b0bd 8c7d 33be be24 f3bd
00000150: 70fb a6bd e7b0 17be e9b1 d7bd ee16 173d
00000160: fbde ac3c 511a 33bb ac29 123e 4464 23be
00000170: faff 03be 7370 403d 1d7c 07be 10f7 74bd
00000180: 8349 1e3c 9822 233d ce1c bf3d b8fd d93d
00000190: 2365 81bc 3d6d 2abd d65c fa3c 95a2 8e3d
000001a0: 77fe df3c 4065 25bd ad52 a6bc 72be a83b
000001b0: 7ad8 a8bd c130 da3d 2d43 a53e 8032 973c
000001c0: 6089 a3b9 8633 3f3e 80cb 7a3d db49 9ebd
000001d0: bced a1bc 04a5 58bb 905d 53bd dba3 2c3d
000001e0: 793b 91bc f66c 08be 8d55 c0bd 140d c7bc
000001f0: 7111 89bc 25eb 8c3b d816 1cbc e438 9abc
00000200: 02b2 a13d 14aa febc 0e31 893c da57 3bbc
00000210: 466f 323e 0550 943d 0eb5 b93c 46b5 c63c
00000220: 86f9 c73d ca60 053d 2dc3 9b3b ba9e 8f3b
00000230: 6a44 25be c1e7 323d 9e73 273d 5bad ea38
00000240: 8658 143d c10c ec3d 7417 65bd efda 003d
00000250: f8c0 25be 73b0 4bbd 1ecc 26bd 1a1c a73d
00000260: 894e 823d 6e33 dbba 2586 60bd 407d e6bd
00000270: 0ed4 edbc 2969 59bd dd74 9ebd bfa2 e13d
00000280: ddc0 bbbd d230 cbbd e840 1b3d 0fb4 6abd
00000290: 943d d93d 3202 5bbd 72ff 4f3c 7dd0 4cbd
000002a0: 8ac1 53bc b00a 81bd 3d6b 4e3d b43e 8f3d
000002b0: 8a26 70bd d526 6fbd 2bcc 513d a942 a3bd
000002c0: c388 abbd 0a9e a33d 9327 23be 995b 8abd
000002d0: a91f 08be d401 a0bd 4236 63bd d19d 17be
000002e0: bb0d b2bd fd21 1dbe a7a6 aabd f5dd cdbc
000002f0: 1857 293d 958a 0d3d a785 ad3b b411 ae3d
00000300: 2ec5 c2bd ad4d 5dbd 10e3 edbd 2911 e6bd
00000310: 0c2f 39be 7b04 2cbd e517 48bc 0dc6 01be
00000320: 6d7e 633d beda 37be 43f9 80be 52b4 a6bd
00000330: 6938 09be 7b4a 2dbe 29e3 37be 56f3 2b3d
00000340: 4888 1b3d a462 9f3c 7f1e c43b 0545 683d
00000350: 4a22 44bc ab31 fe3d c273 18bd d8a8 783c
00000360: 5778 babd c603 0fbd 83fa 8fbd 89e3 433d
00000370: f587 923d 2f6d 5d3d 0b24 42be 31e6 643d
00000380: ce01 27bc f608 5cbd ae6a 98bd 86a8 a1bd
00000390: 3729 2bbd ea8c 72bd ca10 68bc 7ab0 73bd
000003a0: 8736 8dbd 2ee9 1fbd b120 a7bb 360b 26be
000003b0: fe3c 15be 9c9a a63c 7183 42bb 96b3 b1bc
000003c0: b5e1 a6bc b130 96bd e209 a1bc c613 123e
000003d0: 796d 12bd 7e67 553d fc3f cc3d dc14 7fbb
000003e0: 690f b93d 2d9e a53c 8e64 cebd 508e 583d
000003f0: f047 fcbb 6664 babc 4933 173d 0f64 9ebb
-0.0038371144 -0.15760864 -0.098440364 -0.05248539 -0.12819993 -0.0011819217 -0.04435229 -0.011462983
-0.014345472 0.04949682 -0.14242831 -0.048593212 0.0736098 -0.17034227 -0.08247561 0.21976514
0.081768304 -0.01753859 0.05178901 0.20698309 0.12524706 -0.13332026 -0.07338999 0.049974322
-0.006863082 -0.039231792 -0.016384577 0.05660809 -0.08336122 -0.10303432 0.025554068 0.017231312
-0.032551643 -0.0015214215 -0.04783538 -0.06088463 0.13084082 -0.02880449 -0.12170865 0.1403187
0.10479734 -0.041252367 0.05064269 0.14133738 0.058393307 0.027945697 -0.020573404 0.058234066
-0.06306669 0.023060936 -0.04730057 0.03668061 -0.010476242 -0.066052556 0.01912049 -0.06735626
0.0018706848 -0.11626117 0.14153095 0.041749123 -0.23325965 -0.060349938 -0.021194637 -0.023949647
-0.13512374 0.10015381 0.011160822 -0.17701171 -0.0677282 0.046321947 -0.025831202 -0.0065631564
-0.01372835 -0.1328003 -0.116642885 -0.0038258922 0.030512465 0.06623177 -0.050987758 0.102456205
0.11166859 -0.08607762 -0.17528361 -0.118722424 -0.08153427 -0.14813577 -0.105319805 0.0368871
0.02110242 -0.0027328918 0.14273709 -0.15956217 -0.12890616 0.04698224 -0.13230939 -0.05980593
0.009661081 0.039827913 0.09331666 0.10644096 -0.015795296 -0.041608084 0.030561846 0.06964604
0.027343018 -0.040379763 -0.020303095 0.005149656 -0.08244415 0.1065383 0.32277814 0.018456697
-0.00031192135 0.18671998 0.06122923 -0.077289306 -0.01976668 -0.0033057341 -0.0516029 0.042148452
-0.017728554 -0.13322815 -0.093913175 -0.024298228 -0.01673195 0.0043004924 -0.009526931 -0.018825956
0.078952804 -0.031086959 0.016747024 -0.01143452 0.1742526 0.07241825 0.022669341 0.02425636
0.0976439 0.03256301 0.0047534914 0.0043829354 -0.16139379 0.04367805 0.040881746 0.000111902795
0.036217235 0.1152587 -0.05593057 0.03145879 -0.16186893 -0.049728822 -0.040722005 0.08159657
0.06362636 -0.0016723701 -0.05481543 -0.11254358 -0.02903178 -0.053078804 -0.07737134 0.110173695
-0.09167645 -0.09921421 0.037903696 -0.057300624 0.10607448 -0.05346889 0.01269518 -0.050003517
-0.012924561 -0.063008666 0.05039524 0.069943815 -0.058630504 -0.058386642 0.0512201 -0.07971699
-0.083756946 0.07989128 -0.15933065 -0.06755752 -0.13293327 -0.07812849 -0.055471666 -0.14806296
-0.08694025 -0.15344997 -0.08332568 -0.025130251 0.041342825 0.03455599 0.0052954736 0.0849947
-0.09510265 -0.054029156 -0.11615574 -0.11233742 -0.18084353 -0.04199646 -0.012212728 -0.12673207
0.05554049 -0.17954537 -0.25190172 -0.08139862 -0.13400425 -0.16922943 -0.17957748 0.04198011
0.037971765 0.019456215 0.0059850807 0.056706447 -0.011971066 0.12411817 -0.03721977 0.015176974
-0.09104984 -0.034915708 -0.07030203 0.047824416 0.07154838 0.054059204 -0.18959062 0.05588359
-0.010193301 -0.053719483 -0.074422225 -0.078934714 -0.041787352 -0.059216417 -0.014164159 -0.059494473
-0.06895166 -0.039040737 -0.0051003327 -0.16215214 -0.14574048 0.020337395 -0.0029680396 -0.021692079
-0.020371297 -0.07333506 -0.019658033 0.14265355 -0.035748933 0.05210065 0.099731416 -0.0038922345
0.090361424 0.020217026 -0.10077773 0.052870095 -0.0076990053 -0.022752952 0.036914144 -0.0048337053

layer2.0.bias f4 [32]
00000000: 61ed 27bd f697 a7bc 209b 923d a46a 18bb
00000010: b35f a63c 6679 7539 ba0c 3a3d 7d32 f43c
00000020: 43a6 e1bc 69f5 57bd 76c7 573c 0f30 a0bd
00000030: 2113 0a3d d9fb 17bd 91b9 e0bc 8aee c33d
00000040: 4719 473d e84e ffbc 2242 9ebc ba70 c83c
00000050: ff9e 3abd 1ac0 ecbd a3a7 993c b00d 8a3d
00000060: 030f c53d 16bb b5bd 34b6 1a3c 997e 0ebc
00000070: b858 33bc 8d05 4abd 6b2d 2f3d 7494 88bd
-0.040997867 -0.020458203 0.07158494 -0.0023256922 0.020309305 0.00023410245 0.045422293 0.029809231
-0.0275451 -0.052724276 0.013170114 -0.078216664 0.03370965 -0.037105415 -0.027432235 0.09566982
0.04860809 -0.031165555 -0.019318644 0.024467815 -0.045561787 -0.11560078 0.018756693 0.06740892
0.09622004 -0.088735744 0.009442855 -0.008697175 -0.010946445 -0.0493217 0.042767923 -0.0666894

layer2.1.weight f4 [32]
00000000: 5a7f 6e3f 70eb 843f daa2 813f 384b 5d3f
00000010: 1e82 763f cfa6 773f 1a72 6e3f ad83 713f
00000020: acba 703f afff 793f d466 833f 9020 823f
00000030: d226 713f 4fc2 813f adc8 823f fbde 863f
00000040: 36e9 8a3f e436 763f 667a 863f 78c1 653f
00000050: f105 633f e0b5 8b3f 2f65 6c3f 3221 643f
00000060: d0e0 693f 7ab8 6d3f 2bbd 7b3f 5ead 913f
00000070: c43f 6f3f 344e 653f 6ffe 593f 1395 853f
0.93163073 1.038435 1.0127823 0.864429 0.96292293 0.96738905 0.93142855 0.94341546
0.9403484 0.9765577 1.0265756 1.0166187 0.9419986 1.0137423 1.0217491 1.0536798
1.085242 0.96177506 1.0506103 0.89748335 0.8868094 1.0914879 0.92341894 0.8911315
0.9135866 0.92859614 0.9833552 1.1381032 0.93456674 0.89572453 0.8515386 1.0436119

layer2.1.bias f4 [32]
00000000: 0c81 acbe ecc4 3cbe b2ea aebe 8f11 84be
00000010: edc7 72be a5df 34be 068a 81be f1bb 49be
00000020: b2a7 4ebe e6fe 0abf f636 d0be daf3 abbe
00000030: 7509 a4be 8506 03be 8acf 4abe 9e28 d2be
00000040: 7e2f 97bd c17b a4be 0b83 35be fff0 a1be
00000050: 2a4e a8be c20b 94be d4ca 1cbe 76bf 8ebe
00000060: 890f 3fbe 6d26 6ebe dab2 82be c0c6 a4be
00000070: ede0 a0be dd47 8abe c0b1 a2be c5bd c5be
-0.33692205 -0.18434495 -0.34163433 -0.25794646 -0.23709078 -0.17663439 -0.25300616 -0.197006
-0.20181158 -0.54295194 -0.40666932 -0.3358448 -0.32038465 -0.12795456 -0.19805732 -0.41046613
-0.07382105 -0.32125667 -0.1772577 -0.31629178 -0.32872134 -0.2891522 -0.15311748 -0.27880448
-0.1865827 -0.23256846 -0.25527078 -0.32182884 -0.31421605 -0.27007952 -0.31776237 -0.38621345

layer2.1.running_mean f4 [32]
00000000: 61c4 4cbf 0a85 1ec0 82f0 0fbf 8039 51bf
00000010: a846 2f3d decc 1dbf fd5a 433e 299f f93e
00000020: 4695 e6be 82ea b3be c16d 46bf bd68 8abf
00000030: 78b9 f63f 3239 bebf d540 fabf ef96 95bf
00000040: 65d8 16c0 5fee d7bf 2af9 a6bf c680 5e3e
00000050: 8326 9abf 07d0 04c0 aabe d7bf 5d20 0ac0
00000060: e4e9 523c 2230 1a3f ec78 eebf 1a82 1cc0
00000070: 3ec1 f4be 6039 24bf 5fe8 273f e166 a5bf
-0.7998715 -2.47687 -0.5622636 -0.81728363 0.042791992 -0.6164073 0.19077678 0.48754242
-0.45035762 -0.35139853 -0.7751122 -1.0813214 1.927535 -1.4861205 -1.9551035 -1.1686686
-2.3569577 -1.686962 -1.3044789 0.2172881 -1.2043003 -2.075197 -1.6855061 -2.1582253
0.012873147 0.60229695 -1.8630652 -2.4454408 -0.47803682 -0.6415005 0.65588945 -1.2922021

layer2.1.running_var f4 [32]
00000000: 17cb 153f f6f3 853f 72fc 1d3f cb57 0f3f
00000010: c2c5 ab3f 41dc 633f b74b 1d3f 0fd3 203f
00000020: 0a1f 8f3f 442d 123f ec7e eb3e 502d 313f
00000030: 50d6 633f b470 983f b190 723f 67a7 6b3f
00000040: e5e8 8c3f b26d 823f b1d3 eb3e a019 143f
00000050: 947f 243f 1b9f 943f fed5 8a3f 48aa 8e3f
00000060: 0cce 283f e2c5 0a3f 9d34 c33f 7e7e 8d3f
00000070: 342a 213f 2105 663f 9739 153f 0bb7 5d3f
0.58513016 1.0465076 0.61713326 0.55993336 1.3419726 0.89007956 0.61443657 0.6282205
1.1181347 0.5710032 0.4599527 0.69209766 0.8899889 1.1909394 0.9475203 0.9205231
1.1008574 1.0189726 0.46059945 0.578516 0.6425717 1.1611055 1.0846555 1.1145716
0.659394 0.54208195 1.5250431 1.1054227 0.6295502 0.89851576 0.58291 0.86607426

layer3.0.weight f4 [64, 32, 3, 3]
00000000: 07d7 b93c 7780 b33d 0327 ce3d 7c85 103d
00000010: 8817 0d3d 4154 fa3d 71ca 963b 15ba 053d
00000020: d012 bc3d 20a4 093c dfe5 233d 3766 03bc
00000030: ce51 06bd 4706 b83c 2cb6 5e3d 716b e3bb
00000040: a748 3dbd 0dbe 8cbc 329c 283d 5c2e 29bd
00000050: ce47 73bd 8c07 213d b9be cd3b ed92 aabc
00000060: fdc2 483d dc73 483d 00bb b9bd f1f4 dfbd
00000070: 861d 09be e8bd 10be 38d4 053c d11d 1d3d
00000080: 834a 923c d8f1 dfbd 8d5d 9ebd 49f8 1fbe
00000090: 4dff b8bd c23d 5ebc e7cd 81bd c202 dabd
000000a0: 5179 3cbd 24eb 9ebd 54a0 85bd 03a2 94bd
000000b0: e2e0 46be 4299 9cbd 1464 d5bd 60e3 37be
000000c0: 44b8 26bd 03a4 993d 028b 70bd e3c9 febc
000000d0: 9c4a 293d 025d e0bd acf7 053b a23d 6cbd
000000e0: 1266 82bd c62c ff3c b28f 383c 47b4 6a3d
000000f0: ea99 683d 89c7 893d 79c1 9a3a 14c9 9cbd
00000100: 4770 bf3c 52c9 11be 706f 333d afd7 9d3d
00000110: a0b2 93bc 3441 e43c 6ff2 7cbd 7a5f debd
00000120: 6c1f 553d 147b b93d 3af3 f33c 5c9e 8e3d
00000130: 3e35 bb3d ac4b b23c 917c 0a3d a7fb 083e
00000140: 0695 e33d f251 7cbd b803 fabc a6a8 3cbd
00000150: e7e5 18be 7814 26be b962 28be 165a 0cbe
00000160: c9b0 ffbd bf6a fbbd 8248 843d 2494 843d
00000170: 8f56 9c3d 984a d9bc 453d 813d 716a 01bc
00000180: 5eaf b33d b729 cf3c 8713 9dbc dd75 35bb
00000190: cf96 683d 365e 2cbc d067 c9bc 97c9 3e3d
000001a0: a190 883d 32f2 173d 1b2e d93d 6b56 6abd
000001b0: eaa8 96bd f7ff 8ebd 6231 25be 6c79 5f3d
000001c0: 4e48 6f3c 1bd8 d5bd 37b5 aabd 94e8 bcbd
000001d0: 331e 5dbe ebc9 103e 27d6 9b3d 1226 183e
000001e0: 561b 243e ccb7 003e d0ff 053e 8df5 7e3e
000001f0: eed5 4e3e 404a 023e c433 eebc 8ea2 903d
00000200: 24ed 53bc 2ca6 3ebd 4185 0e3e 31c9 9abd
00000210: 18b4 07be acef 673b b676 e7bd e33d d83d
00000220: 1ce3 053e 01cf 09bc 75af 9bbd 758b 7cbd
00000230: d61c ddbd ffaf c4bd ffb1 33be 5ac1 cdbd
00000240: b09b e23d c14f 983d 356a 133d 6772 d03d
00000250: 9b75 e73c 6ad7 4d3c c396 0dbd ab84 3cbd
00000260: d647 e1bc e4f9 66be b0c1 19be 9624 d1bd
00000270: 2440 a0bd ec9b bf3c f927 5ebd 61bc bebd
00000280: 8378 84bd 324c 94bd c557 d43d 1f9a 793d
00000290: ea4a 963b c3a6 d53c 0ceb a23d bb5c b53c
000002a0: 8f88 903d 58b8 ba3b 9fc1 e23b 13a2 0e3e
000002b0: cca6 203e 65cd a0bb 9518 283e 7f44 313e
000002c0: ca48 243e 4afb c33d 5466 b13d 19ea d03d
000002d0: 3f39 16be 8e4c c4bb 34ed 5b3a 73ae 3bbe
000002e0: e4a2 363d 5315 7a3d 4f6f 46be 60e1 9ebd
000002f0: 09a2 05be cb44 103e 9838 a43c cc58 a63d
00000300: 75f6 5f3d 653e 1d3d 5be3 573d 0d71 b63d
00000310: a971 e13d f1e3 dcbb 70a8 863c a735 4dbd
00000320: 1a5a 1fbd de3c 0ebd f2f7 93bc d1ae 13bd
00000330: 9100 553c ba15 e939 fdb9 35bd ed43 a93d
00000340: 50c1 8f3c 7839 9e3d 174b 033e 3b72 243e
00000350: b537 683e 5d68 5d3d e55d cf3d b82e 29bc
00000360: a6a7 54bd 552b 013d b436 0dbd 627e a63d
00000370: 74b4 8f3d 9daa 563c c114 ce3d b88a a13d
00000380: f6ac 9d3c 788c 013c 69a2 13bd bd44 c33c
00000390: 6669 393d 846c 953d b980 593d 4edb 673c
000003a0: 0292 babc d21b 283d 8930 e9bd 476a c4bd
000003b0: 5397 70be ba4b 56bd 9905 36bd 82b6 dcbd
000003c0: 136d 80bd 56f3 4bbd 58dc e5bd 5864 3ebd
000003d0: d665 5d3d 102b 0b3d 3118 c9ba fe33 ae3c
000003e0: 50d8 6b3c b1ed 993d 1b7f 133d ac42 153d
000003f0: 3a46 873d b300 f53d bdf7 4ebd dd1f 583c
0.02268554 0.08764737 0.10066035 0.03528355 0.03444627 0.122231014 0.0046017696 0.032648165
0.09183276 0.008400947 0.040014144 -0.008019975 -0.03279286 0.02246393 0.05437295 -0.0069402982
-0.046211865 -0.017180467 0.041164584 -0.041303977 -0.05939465 0.039313838 0.0062788394 -0.020822013
0.04901408 0.048938617 -0.090688705 -0.10935391 -0.13390169 -0.14134943 0.008168273 0.038358513
0.017857796 -0.109348 -0.07732687 -0.15622057 -0.0903307 -0.013564529 -0.06338101 -0.10645057
-0.046014134 -0.07759693 -0.06524721 -0.07257464 -0.19421723 -0.07646419 -0.10419479 -0.1795783
-0.040703073 0.07501986 -0.05872632 -0.031102126 0.04133092 -0.1095524 0.0020441813 -0.057675965
-0.063671246 0.03114928 0.011264728 0.057300832 0.05678741 0.067275114 0.0011806927 -0.0765554
0.023368968 -0.14236954 0.043807447 0.07707154 -0.018029511 0.027863123 -0.06175464 -0.108580545
0.05203192 0.090566784 0.029779065 0.069637984 0.091410145 0.021764599 0.033810202 0.13377248
0.11112408 -0.061601587 -0.030519351 -0.046059273 -0.14931451 -0.16218746 -0.1644391 -0.1370624
-0.12484891 -0.122762196 0.06459142 0.06473568 0.07633697 -0.026524827 0.06310514 -0.007898913
0.08773683 0.025288446 -0.01917435 -0.002768866 0.056784447 -0.0105205085 -0.024585634 0.04657897
0.06668211 0.03709621 0.10604497 -0.05721132 -0.073564366 -0.06982415 -0.1613212 0.054559156
0.014604641 -0.104416095 -0.08335345 -0.09224048 -0.21593551 0.14139526 0.07609206 0.14858273
0.16026053 0.12570113 0.13085866 0.24898358 0.20198795 0.12723637 -0.029077418 0.07062255
-0.012934957 -0.046545193 0.1391802 -0.075579055 -0.13252294 0.0035390658 -0.11301939 0.10558679
0.13074917 -0.00841117 -0.07601825 -0.061656434 -0.10796516 -0.09603881 -0.17548369 -0.100466445
0.11064851 0.07437087 0.03598996 0.101780705 0.02825432 0.012563566 -0.034567606 -0.04602496
-0.027500074 -0.22556263 -0.15015292 -0.10212056 -0.07824734 0.023389779 -0.05423734 -0.09313274
-0.06468298 -0.072410956 0.10368303 0.060937997 0.004586567 0.026080495 0.07954988 0.022138944
0.070572965 0.005698245 0.006920054 0.13929014 0.15688628 -0.0049072974 0.16415627 0.17311285
0.16043392 0.09569414 0.08662096 0.102009006 -0.14670275 -0.0059905713 0.0008389533 -0.18328266
0.04458894 0.061055493 -0.19378398 -0.077578306 -0.13050093 0.14088742 0.020046517 0.081224054
0.0546784 0.038389582 0.052707057 0.089082815 0.11008007 -0.00674104 0.01643774 -0.050099995
-0.038904287 -0.034726016 -0.018062565 -0.03605539 0.013000623 0.0004445741 -0.044366825 0.08264909
0.017548233 0.07725805 0.12821613 0.160592 0.226775 0.054054607 0.10125331 -0.01032608
-0.051917695 0.031535465 -0.034475997 0.08129574 0.070168406 0.013102201 0.10062552 0.078877866
0.019247513 0.0079070255 -0.03604356 0.023836488 0.04526653 0.07296088 0.053101275 0.014151407
-0.0227747 0.041042157 -0.113862105 -0.09590583 -0.23495226 -0.052318312 -0.044438932 -0.10776998
-0.06270804 -0.04979261 -0.11223668 -0.046482414 0.054052196 0.033976614 -0.0015342293 0.021265026
0.014394835 0.07516039 0.03600989 0.036440536 0.066051915 0.11963024 -0.05052923 0.013191191

layer3.0.bias f4 [64]
00000000: 9021 15bd 4304 303c baa1 6b3d 21a0 04bd
00000010: 3630 0dbd 7593 633d b612 adbc ceed 56bb
00000020: fc13 2abd 9a56 1abd e7ab 1a3d 2b51 89bc
00000030: d694 3d3d 3a07 b13c 76bc 953c 98de c0bc
00000040: 62bd 223c bac2 87b8 968a a5bb 630e 8cbb
00000050: 8d06 193d dacf 9abc 5101 173d 6fb4 3dbd
00000060: 9886 243d f183 dbbc 8f29 55bc 7ccd 803c
00000070: 8b50 b03d aa80 92bd 39c5 f5bb 355f 90bd
00000080: f526 88bd 4d74 2c3d 858d 073d 5070 9a3c
00000090: bf1b 7bbd c44b ef3c c4a5 803a 8ec3 043c
000000a0: d645 9b3c a8da caba 0feb 233d a432 fc3c
000000b0: 31e9 b8b9 e07c 24bd ee61 143d 2d1e 5d3d
000000c0: 16b3 843d 43dc a03c b1ae 7c3c 9bd1 833c
000000d0: 2402 d3bc 1a30 14bd 27f3 513d 4891 15b9
000000e0: acee 01bd f3cd 863d e5d1 30bd f945 ddbc
000000f0: 5ba6 153d d8d3 a23d 252f 483d ee07 483d
-0.03640896 0.010743204 0.05752728 -0.032379273 -0.034469806 0.055560548 -0.021127086 -0.0032795551
-0.041522965 -0.037680246 0.037761595 -0.016762337 0.04628452 0.021609891 0.018278342 -0.023543641
0.009932848 -6.473572e-05 -0.005051921 -0.004274176 0.037359763 -0.01889794 0.03686649 -0.046314653
0.04016742 -0.026796313 -0.013010397 0.015722983 0.08609112 -0.07153447 -0.0075003174 -0.07049409
-0.066480555 0.0421031 0.033093948 0.018852383 -0.061305758 0.029210933 0.0009815027 0.0081032645
0.018954199 -0.0015476542 0.04001909 0.030785866 -0.00035268956 -0.040158153 0.036226206 0.053983856
0.064794704 0.019636279 0.015422509 0.016091159 -0.025757857 -0.036178686 0.05125728 -0.00014263869
-0.031721756 0.065822504 -0.04316892 -0.027010905 0.036535602 0.07950562 0.048873086 0.048835687

layer3.1.weight f4 [64]
00000000: c9f2 a93f 88c5 973f bd0a a23f 9c31 953f
00000010: c4b3 953f c083 923f 70eb 953f 1179 8f3f
00000020: 19c1 953f ca5f 883f 7f33 8e3f 6b6a 983f
00000030: c6af 923f a614 a63f 3872 973f a4a1 a53f
00000040: 0b3d a13f 3f33 b13f 1a94 923f 19f5 9a3f
00000050: 9787 9b3f 8e5b 913f 4845 a63f 64b1 a53f
00000060: 63b2 883f 9700 8a3f 1b24 8f3f 0dae 893f
00000070: ae95 993f 3d10 983f ebc9 973f fbf5 963f
00000080: 316c aa3f 1036 933f 16ba a13f a711 b03f
00000090: d386 8f3f e654 8c3f b75c 8b3f a7c8 a43f
000000a0: d2a3 9d3f f533 8b3f d641 903f b838 a53f
000000b0: 7d2a 923f 7820 933f bbda a23f 1c74 9c3f
000000c0: cb8b 8e3f cfef a13f 28c4 9c3f 4fc6 923f
000000d0: 1193 ae3f f3a8 933f c0a3 983f bcbd 983f
000000e0: 50c5 9e3f 32fb a13f 86f3 973f 42d9 9f3f
000000f0: 24a1 8d3f f2eb ae3f a171 963f acc2 933f
1.3277217 1.1857157 1.2659527 1.1655765 1.1695485 1.1446457 1.1712475 1.1208822
1.1699554 1.0654233 1.1109465 1.1907476 1.1459892 1.2975051 1.1831732 1.2939954
1.2596754 1.3843764 1.1451447 1.2106048 1.2150754 1.1356065 1.2989893 1.294476
1.0679439 1.078143 1.1182894 1.0756241 1.1998804 1.1879956 1.1858495 1.1793817
1.3314267 1.1500874 1.2634914 1.3755387 1.121302 1.0963409 1.0887669 1.2873734
1.2315619 1.0875231 1.1270092 1.2907934 1.1419216 1.1494284 1.2723001 1.2222934
1.1136411 1.2651309 1.2247362 1.1466769 1.3638631 1.1535934 1.1924973 1.1932902
1.2403965 1.2654784 1.1871192 1.2488177 1.1064801 1.3665755 1.1753427 1.1543784

layer3.1.bias f4 [64]
00000000: 37e7 81be adbe 41be e7a5 28bd 9ef1 c6bd
00000010: 86b6 a4bd ebe4 f1bd d4e2 53bd 1bf1 58bd
00000020: 30f0 04be 2d86 42bd 60d3 debd 98b6 e6bd
00000030: 1402 15be 213c cabd b86d b6bd 57d7 01be
00000040: c8d9 d1bd bfa8 97be 360f f3bd 577f 29be
00000050: 179c 87bd 75a1 0dbe eebd 2abe e322 abbd
00000060: 0bd4 8fbd b6a9 07be 51b1 02be c219 46bc
00000070: 6ac7 eabd 04ce dabd 59c0 39be 969e 37bd
00000080: 5965 f7bc 94c3 95bd 9be9 1cbe fb5b a1be
00000090: 8fbc 20be 1279 cdbd c254 bcbd 70b8 cbbd
000000a0: 7dce b1bd 9131 80bd fb1a 5cbb 1b3e cebd
000000b0: 4753 b7bd b2f6 0bbe 0283 f9bd 9d29 47bc
000000c0: b949 a2bd 9b83 a0bd 0a60 29be cf03 f83c
000000d0: 2ac6 2fbe 3ea0 ebbd 2030 22be 9776 36be
000000e0: c007 84bd 7c08 48be f1d5 cabd 5046 13bd
000000f0: c7a0 d8bd a554 92bd 9c74 52be 4efe 12be
-0.25371715 -0.18920393 -0.04117384 -0.097140536 -0.08042626 -0.11811241 -0.051729992 -0.05296431
-0.1298225 -0.04749124 -0.1088016 -0.11265296 -0.14551574 -0.0987475 -0.08907646 -0.12679802
-0.102466166 -0.2962093 -0.11868136 -0.16552483 -0.06621569 -0.13831122 -0.16674015 -0.083562635
-0.07022866 -0.13248333 -0.12762953 -0.012091102 -0.114638165 -0.106838256 -0.18139781 -0.044828974
-0.030199694 -0.07312694 -0.15323488 -0.31515488 -0.1569693 -0.10032858 -0.09195854 -0.09947288
-0.08681963 -0.06259454 -0.0033585418 -0.100704394 -0.08951431 -0.13668326 -0.12183191 -0.0121559175
-0.07924218 -0.07837602 -0.16540542 0.030275254 -0.17165437 -0.11505173 -0.1583867 -0.17818676
-0.06446791 -0.19534487 -0.09904087 -0.035955727 -0.10577541 -0.07145051 -0.20552295 -0.14354822

layer3.1.running_mean f4 [64]
00000000: ea5a 133f ab4c 813f bd0a 06bf be73 b8bf
00000010: d437 ebbf 5d03 1d3f 0292 afbe 1129 2cc0
00000020: 7951 1d3f 80d9 1c40 5fda 45bf eb91 50bf
00000030: 1452 e6be 73e3 37bf 166a 19c0 ae1f 84be
00000040: b892 cabd 2587 18bf 5b2c 0ac0 be1f 05c0
00000050: ae6f 6b3e 6689 263f d992 1ebf 2730 b63c
00000060: 482e 97bf 1301 bf3e e5a5 ab3f 162b 7ebf
00000070: a6bb 1bc0 9914 653f d096 3340 2e3c 46c0
00000080: 8de8 f9bf 533b 6cbf a289 d2bf aaae 42bf
00000090: 4c37 35c0 f14a 92bf 5c84 76bf 07de 75bf
000000a0: ee28 70bf 4ab7 5b3f ebaa 05bf 4a96 19c0
000000b0: 828b 413e df9c ba3f 4681 9fbf a8b8 483f
000000c0: fbf1 83bf 1cec 6ebf 773b 103e 838e 95bf
000000d0: 8154 5cbf b677 06c0 eb73 d73e 071e 3fbe
000000e0: 9b5b 88bf 71ce 43bf 60da 8cbf 01fb 93bf
000000f0: e21e ba3f 9495 c2bf 1c4d 3bbf 09e0 4bbf
0.575606 1.0101522 -0.52360135 -1.4410322 -1.8376412 0.61333257 -0.34291083 -2.6900065
0.6145244 2.4507751 -0.7728633 -0.81472653 -0.44984496 -0.71831435 -2.3971 -0.2580542
-0.09891266 -0.59581214 -2.1589572 -2.0800624 0.22991821 0.65053403 -0.6194282 0.022239758
-1.1810999 0.37305507 1.3410002 -0.99284494 -2.4333282 0.89484555 2.8060799 -3.097423
-1.9524094 -0.9227802 -1.6448252 -0.76047766 -2.8315 -1.142912 -0.96295714 -0.9604191
-0.93812454 0.8582655 -0.52213925 -2.399798 0.18900874 1.4579123 -1.2461326 0.78406763
-1.0308222 -0.93329024 0.14085184 -1.1684116 -0.8606644 -2.1010566 0.42080626 -0.18663798
-1.0652956 -0.7648688 -1.1004143 -1.1560975 1.4540675 -1.5201898 -0.73164535 -0.79638726

layer3.1.running_var f4 [64]
00000000: 054b d23f b09f b53f dd07 a53f 9470 883f
00000010: 72e0 e93f 6937 953f dcd1 803f c05e cc3f
00000020: 75c9 653f 26d3 0540 c964 673f b1e7 9e3f
00000030: ddcd 5d3f 24bd 0640 465f d13f af27 6c3f
00000040: 16f2 863f 8a3d 3e40 3f11 b13f ea06 0c40
00000050: bddf 9b3f 8e33 583f 1444 e13f 5ba3 d03f
00000060: 5646 943f 6d26 503f cc5b 6c3f a724 833f
00000070: 14db da3f cdc4 b33f 8270 c23f 052c d33f
00000080: c06a e13f 29be 583f 976c c63f 3078 b93f
00000090: c6f1 a53f 592c 803f fb0d 843f a179 bf3f
000000a0: 78bd aa3f e4d1 643f f4a5 8a3f cde7 b83f
000000b0: f535 ba3f a36f e23f 083c 0440 4e15 1340
000000c0: aeb9 863f 5295 d83f dc5b 4d3f 13c9 513f
000000d0: 3423 a33f ffbb bc3f 2a8c a33f 1f7f 703f
000000e0: 5fa3 bf3f 5fc3 c13f 56bd ad3f f950 d23f
000000f0: 294d 833f 95d8 d03f 8c59 933f e0dc c93f
1.6429144 1.4189358 1.2893025 1.0659356 1.827162 1.1657535 1.0064044 1.5966415
0.89760524 2.0910125 0.9038816 1.2414457 0.8664225 2.1052942 1.63572 0.9224805
1.0542629 2.972506 1.3833388 2.187922 1.2177655 0.84453666 1.7598901 1.6299852
1.1583965 0.81308633 0.9232757 1.024556 1.7098107 1.4044434 1.5190585 1.6497809
1.7610703 0.8466516 1.5501889 1.4489803 1.2964408 1.0013534 1.0316767 1.4958993
1.3339071 0.8938277 1.0831895 1.444574 1.4547716 1.7690319 2.066164 2.2981753
1.0525415 1.6920569 0.8021829 0.8194744 1.2745118 1.4744872 1.277715 0.9394397
1.4971732 1.5137748 1.3573406 1.6430961 1.0257922 1.6316096 1.1511703 1.5770531

fc.weight f4 [9, 576]
00000000: 9256 e43c 8b28 513d 591b 40bc ec4f 2ebc
00000010: cf32 223e a4eb 5e3d 8a8d f5bd cdde 3abd
00000020: d48e 8dbd 3846 4fbe 3b99 9dbe 292c aebe
00000030: b933 b9bd b9b4 dfbd 687c 7ebe 89fc e1bd
00000040: eeec 74be aa6f a9be 0acd db3c 7368 633c
00000050: 8393 163c 3800 6fbd 417c 31bc 8515 653d
00000060: 1631 abbd 7130 66bd d55a 99bd ab93 653e
00000070: c25d 5e3e a403 393e 8861 3c3e b6f9 233e
00000080: 9c2a 273e 9e45 413e a64e 123e 2d12 f03d
00000090: 32ba 87bd 89d9 49be 903c 4fbe 9985 2abe
000000a0: 2ea2 efbd b674 89bd 397b 69be c4f5 3cbe
000000b0: 26c7 3cbe d569 b4bd ac70 0cbe 9ea0 cfbd
000000c0: 53c4 0ebe 0291 b9bd 743a eebd b867 3abe
000000d0: bf9c 7cbe c5a0 90be 335c ad3d 3de6 103e
000000e0: 1363 043e 7e65 883d cef1 3e3d 5073 ac3d
000000f0: 36a0 353e 6463 043e 251d 473e d22f 93be
00000100: 87a9 01be 814c 5fbe 23d8 afbc 5df2 c83c
00000110: 585a 2fbe 4ae9 1dbe abfc b8bb b0ac 4bbe
00000120: 5bbf a4bc a8b9 99bd 8123 17be 3fb8 4fbe
00000130: ba50 f7bd 0e68 a4be 111b 83be 7408 3ebe
00000140: a20f 82be 8e21 d1bd 2f8e 8a3d dce0 f83c
00000150: 20ff 8b3d ba40 0b3e 088d a93c 9523 e9bd
00000160: 9bde 373d e944 a73c 3ba3 df3d 37b5 abbc
00000170: 68ed aebc cdec 263e 27e7 a13d 1b7b 123d
00000180: 2a68 1f3e 3972 103e d03b 023e 8f15 6a3c
00000190: 7449 06bd 143b b8bc 09f4 f8bd b5a0 2bbe
000001a0: f3e4 1b3c b5e6 98bc cd2b e0bd f885 a9bc
000001b0: cd47 7fbd f8b8 bebd c44d 243c bbe9 bbbd
000001c0: 3ba3 213d 0419 70bd 2dcd 25be 15a6 19be
000001d0: 7b10 febd ae7a 3e3d 4e40 9b3d 5c89 b63d
000001e0: 8d80 253d 4197 b33d 7643 843d 9d1e 543d
000001f0: 4b73 df3d 55c6 893d d558 99be 793a 27be
00000200: 00c7 8dbe f4f2 0e3c 68e2 8ebd deb1 f5bd
00000210: dc57 42be 5105 04be d40b 77be e697 98bd
00000220: 6e77 18be e433 0cbe 369a efbd 3073 45bc
00000230: 33db d8bd de5e 5f3c 0a07 853d a6b7 ebbc
00000240: f6fa c6bc 4f9d 15be 0d10 f4bd f5e9 893d
00000250: fc97 73bd b3d0 7dbd 1bcc aebd b860 22bd
00000260: 0c8a 85bd 8dd0 033d 2243 333e 8aae c73d
00000270: cc95 373d 7562 8a3d f43b 9d3c 5378 003d
00000280: 2370 953d ab4e 163e 613e aebe 44aa 3ebe
00000290: 08dd a7be fc41 79be b636 adbd 5e3c a6bd
000002a0: 0c7b bcbe 2248 86be 7858 7ebe d4ac fcbd
000002b0: af74 c2bd 0a15 0fbe 97c2 bdbc 4778 f03d
000002c0: e4aa c8bb 70c4 13be fb7b a2bd 2621 f5bd
000002d0: 0a3b 803e 7402 323e 0a35 8c3e 29e3 603e
000002e0: c7d7 853d 7e7a 383e 9c61 2e3e eeb3 743e
000002f0: c64c 753e b8a4 efbd f230 88bc 162e 383d
00000300: 12c5 69bd d25a c1bd 252a b43d 2076 16bd
00000310: 201e c2bd abc4 993d 9273 a6be 61d9 6abd
00000320: 82fe 41be 51a2 4ebe 733c 073e ad88 6bbd
00000330: 95e6 3cbe 20cc f1bd be5b cebe d25e 75be
00000340: fdf0 dcbd a417 9abd 614e adbc a688 9b3c
00000350: edb7 223b 2442 c7bd da97 6bbd 3726 1dbe
00000360: d487 02bb 4202 6b3d 36ac 35bc 9e77 883d
00000370: dadd a93d cb68 a13d d04e 2a3d 48a1 4a3d
00000380: 1bcf 7639 9a0e 973d a344 e73d 6457 fc3c
00000390: 5157 55bd a9fb a4bb 81df 193c 5ba6 983d
000003a0: d904 653d a7bc 923d 2948 bf3c 9d15 94bd
000003b0: e23f f73d 7a92 f03d b88c ae3c 0687 1b3d
000003c0: 4405 ec3d 5576 a53d eb55 ff3d 2b65 c8bd
000003d0: 0084 74bd ecb6 fdbd a641 0b3e 1181 3d3e
000003e0: 349d 8c3d 5095 09be d299 323e bfa2 053e
000003f0: 31e3 c0bd 7e95 28be f0b3 5cbe 5880 4fbe
0.027873311 0.051064055 -0.01172527 -0.010639172 0.15839694 0.054423943 -0.11989887 -0.045622636
-0.06912008 -0.2024163 -0.30780968 -0.34018067 -0.090430684 -0.10923142 -0.24852145 -0.110344954
-0.23918507 -0.33093005 0.026831169 0.013879883 0.009190443 -0.058349818 -0.010832847 0.055928726
-0.08358972 -0.05619854 -0.07488028 0.22419612 0.21715453 0.18067795 0.1839658 0.16013226
0.16324848 0.18874213 0.14287814 0.11722217 -0.06627311 -0.1971189 -0.20237947 -0.16652526
-0.11700855 -0.06711714 -0.22800912 -0.18453127 -0.18435344 -0.08809248 -0.13714856 -0.10138057
-0.13942079 -0.09060861 -0.11632243 -0.18203628 -0.24669169 -0.28247657 0.08464851 0.14150329
0.12928419 0.06659983 0.04661732 0.084204316 0.17736897 0.1292854 0.19444712 -0.28747422
-0.12662326 -0.21806528 -0.021465367 0.02452963 -0.17124307 -0.15421024 -0.0056453547 -0.19890094
-0.020110777 -0.07506114 -0.14759637 -0.20285128 -0.12075944 -0.32110637 -0.25606588 -0.18557912
-0.25402552 -0.10211478 0.067654006 0.030380659 0.068357706 0.1359891 0.020697132 -0.1138374
0.044890027 0.020418601 0.109198056 -0.020960433 -0.021353438 0.1630127 0.07905417 0.035761934
0.15567079 0.14106072 0.12718129 0.0142873665 -0.032784894 -0.022489108 -0.12155921 -0.16760524
0.009515035 -0.018664697 -0.10945854 -0.020693764 -0.062324334 -0.09312624 0.010028306 -0.0917544
0.03946231 -0.058617607 -0.1619155 -0.15004762 -0.12405487 0.046503715 0.075806245 0.08912918
0.0404058 0.08769084 0.0645818 0.051787008 0.10910662 0.06727282 -0.29950586 -0.163309
-0.27690887 0.008724917 -0.06976777 -0.11996816 -0.18978828 -0.12892653 -0.24125606 -0.07450847
-0.14889309 -0.1369167 -0.11699335 -0.012051389 -0.10588684 0.013633458 0.06495483 -0.028774094
-0.02428959 -0.1461079 -0.11917124 0.06734077 -0.059471115 -0.06196661 -0.08535024 -0.03964302
-0.06520471 0.03218131 0.17506078 0.097500876 0.04482059 0.067570604 0.019193627 0.03136475
0.07296779 0.14678447 -0.34031966 -0.18619639 -0.3278582 -0.24341577 -0.08457701 -0.08116983
-0.36812627 -0.26226908 -0.24838436 -0.12337652 -0.09494912 -0.1397287 -0.023164077 0.11741691
-0.0061238874 -0.14430404 -0.07933804 -0.11969213 0.25045043 0.17383748 0.27384216 0.21961655
0.06535297 0.18015477 0.17029423 0.23896763 0.23955068 -0.117013395 -0.016624901 0.044965826
-0.057072707 -0.09441151 0.08797101 -0.036733747 -0.09478402 0.075082146 -0.32510048 -0.057336215
-0.18944743 -0.20179106 0.13206653 -0.05750339 -0.18447335 -0.11806512 -0.4030437 -0.23961952
-0.10788152 -0.0752404 -0.021155538 0.018986057 0.0024828867 -0.09729412 -0.057517864 -0.15346609
-0.0019917386 0.0573752 -0.011088422 0.0666344 0.08294268 0.07881316 0.041579068 0.049470216
0.00023537541 0.07375832 0.11292388 0.03080339 -0.052085225 -0.005034883 0.009391666 0.07453605
0.055912826 0.07164889 0.023349838 -0.07230685 0.120727316 0.11746688 0.021307334 0.037970565
0.11524442 0.08079211 0.124675594 -0.09784921 -0.059696198 -0.12388405 0.13599262 0.18506266
0.068659216 -0.13435864 0.1744149 0.13050364 -0.09418333 -0.16463277 -0.21553016 -0.20263803

fc.bias f4 [9]
00000000: fec3 703b 781b 2f3d 9bea 183c fdff 85bb
00000010: a4a8 cebc 9416 b8bc 2865 93bc ad80 ef39
00000020: 7f43 e93c
0.0036737914 0.042750806 0.009333278 -0.004089354 -0.025226898 -0.022471704 -0.017992571 0.00045681503
0.028474567
